LV6/saved_models/dqn_LunarLander-v3_final_2025-12-18_10-24-34.pth (torch, 23505 bytes, 6 tensors)

0.weight f4 [64, 8]
00000000: 200d 5abe d6eb c13e c95f bf3e 0ba2 75bf
00000010: 486c 643c b05b a13d a29b 923e e50a 08bf
00000020: 984d bd3f 85c3 17be 7259 583f 487a d93d
00000030: 4a78 943f 1497 71be 5230 a0bd 9c86 c73e
00000040: 3b5e c03e 780c 4c3f 8c72 cc3e 3d97 28be
00000050: e0f8 c5bd 748c 7bbf 5113 a5bf e535 32bf
00000060: 7f67 39bf 36be eb3d beea 7ebf 28a9 e03d
00000070: 41b6 ba3f ba5d a7bd 993e babe b98c 323e
00000080: 326d 6fbf 57ef 10be 198d 63be e709 f2bf
00000090: 6dad 303f 1faa 443f eeb4 31bf f5cb 133f
000000a0: 92c3 ec3f 7433 43bf fd02 afbf 3ac4 963f
000000b0: 90f5 00bf 936d 40bf 3f83 61be cd22 35be
000000c0: 7a23 493f db86 e43d 5347 1cbf 964d d0bf
000000d0: 0377 d9be 62e1 93bf 2fd3 ce3f 0289 9b3e
000000e0: 95e0 2d3e aca7 aa3f c9ed 86bf 776a 3dc0
000000f0: 83a3 57bf 5a56 913f c40b ce3e bf20 81bf
00000100: 4358 ab3f 8e92 83be 0223 a2be f6a2 c7bd
00000110: 149f 22bf bb77 0b3f 9a15 383f 589f 20bf
00000120: 95a4 ed3c 2236 8a3e ba5c f83e 7988 d1be
00000130: 898c 13bf b0bb 933f 25bd b93f d052 703d
00000140: cd79 50bf a801 803f 1ddc fa3b f345 673e
00000150: 0e50 0640 fb8a 003f fab0 83be 007f 96be
00000160: eae4 a6be 07a2 6cbe 7173 1b3f 636a b8be
00000170: 4b50 3a3e 60c5 d43f ae89 b13e 380f ffbd
00000180: 0572 b1be ff86 11be 4aa2 de3d da15 1abf
00000190: 7b1a 95bf 1c1e 69bf 5262 b0be 5e91 57bd
000001a0: 5d4c 253f 9500 c23d 488a 5d3f f591 4ebc
000001b0: fe8b 1c3f cda6 c63d 394f 913e a3e5 933f
000001c0: 3097 19bf 2933 31bd 185b 523f a078 463f
000001d0: 590a 95bd ae9c b43e 1168 7ebf 74db 073f
000001e0: f008 45bf 5484 683e eb6c 9a3e 89f2 b2bf
000001f0: 68d1 50bd e026 f13d 94b3 babe 578d b5be
00000200: 2f89 adbe e0dd e3be 6105 b7bf 3bbd 133f
00000210: 80be 573f 749c 90be 6dc6 dbbe 879d b23f
00000220: 81a7 debf 426b 00be e602 123f 5127 90bf
00000230: f816 9fbe 3be1 50bf 3c9a 483e 11a2 cb3d
00000240: 43c3 90be d80c 4dbe 7cfb 94bf a188 223f
00000250: a0e8 f13d 731e b0bf 0c8b bebf 9651 95bf
00000260: ed10 cb3f ad44 153f 12ed e33f 571b e1be
00000270: 8292 9dbd 3fc1 9d3e c747 86bf fd75 46bf
00000280: 7745 ea3e 7d10 c43e c1ee 90bf aa47 09be
00000290: 03a3 d0be 8a94 d5bf 32a1 033f 2e44 213e
000002a0: 0236 2fbd eaa8 573f 7304 a8bd b1e5 32bf
000002b0: 5d16 4a3f 0f90 8f3f 8f34 90be 0372 a23e
000002c0: dc68 61bf 1b4f d33e 0a29 2840 f887 5cbd
000002d0: afa7 cebf 6975 e63e 86cf c53e 2800 8abf
000002e0: 7b2f bc3f b0fa c5bd 500c bcbf 57db 703e
000002f0: c922 b23d efb6 9dbe 9673 8e3e 4d4e e93d
00000300: 56c1 15bf 9477 e53e b654 0e3f a911 e9be
00000310: 3c7f 103f 78c8 1fbf 45f7 08bf f043 423e
00000320: b622 b3bf d581 d63f 1937 7a3f 59ec 01bf
00000330: 0702 e43f 6860 ecbe fbc5 c0bc f71a b23e
00000340: 8a9b be3e 9b70 a73e 2deb 78bf 43ef c3bf
00000350: 237b 13bf 04ab 85bf 4731 bb3e 41de 22bf
00000360: 1209 0cbf b0df 67bf 8595 6f3f 8153 02c0
00000370: e3b9 873f 76a8 863e 878c eebe ab0b 83bf
00000380: 97d8 7740 af25 b93e 9dc6 b03f e1d4 2d3f
00000390: 38b3 a4bf 6b2f 78bf 15ed dd3d d2b7 043f
000003a0: 071c 173e 4cf6 333f a1a0 7fbf 6e58 8c3f
000003b0: ee1a 0dbe 3dbc 923f cbbc c43e 00b6 4d3e
000003c0: cab3 253f 80ad df3d da44 b13e ca8a f33e
000003d0: 0482 c5bf 0302 b2bf 5026 e6be 21f2 fa3d
000003e0: a3ae debe 01c3 e4bc bac4 9d3f d349 e3be
000003f0: 8e38 03c0 c129 773f 7306 cf3e a486 df3e
-0.2129407 0.3787524 0.37377766 -0.9595038 0.013941832 0.07878816 0.28634363 -0.53141624
1.4789305 -0.14820679 0.8451148 0.106190264 1.1599209 -0.23592788 -0.07821716 0.38969886
0.37571892 0.79706526 0.39931142 -0.16463943 -0.0966661 -0.9826119 -1.289652 -0.69613487
-0.7242355 0.11510889 -0.9957694 0.10969764 1.458687 -0.08172174 -0.36375883 0.17436494
-0.93525994 -0.14153801 -0.22221793 -1.8909272 0.69014627 0.76822084 -0.694167 0.5773309
1.8497183 -0.76250386 -1.3672787 1.1778634 -0.503747 -0.75167197 -0.22022723 -0.17689057
0.7856976 0.11158534 -0.6104633 -1.6273677 -0.4247361 -1.1553156 1.6158198 0.30377966
0.16980202 1.3332419 -1.0541316 -2.959623 -0.84233874 1.1354477 0.4024335 -1.0088118
1.338631 -0.2569775 -0.31667334 -0.09747879 -0.63523984 0.5447957 0.7190796 -0.6274314
0.029009143 0.26994425 0.48508245 -0.40924433 -0.57636315 1.1541653 1.4510847 0.058672726
-0.81435853 1.0000505 0.007655634 0.22585277 2.0986362 0.5021207 -0.2572096 -0.29393768
-0.32596523 -0.23108684 0.60723025 -0.36018667 0.18194692 1.6622734 0.34675354 -0.124540746
-0.34657302 -0.14211653 0.10870798 -0.6018959 -1.1648706 -0.9106157 -0.34450012 -0.052628867
0.64569646 0.09472767 0.86539125 -0.012608041 0.6115111 0.096997835 0.28380755 1.1554455
-0.5999632 -0.04326168 0.8217025 0.7752781 -0.07277364 0.35275787 -0.9937754 0.53069234
-0.7696676 0.22706729 0.30161223 -1.3980266 -0.050980955 0.11774993 -0.36465132 -0.35459396
-0.33893725 -0.44505215 -1.4298517 0.5771062 0.84275055 -0.28244364 -0.42924824 1.3954324
-1.7394868 -0.12540916 0.5703567 -1.1261998 -0.3107221 -0.81593674 0.19590086 0.09943021
-0.28273973 -0.20024431 -1.1639247 0.6348973 0.11811948 -1.3759292 -1.4886184 -1.1665523
1.586454 0.58307916 1.7806723 -0.4396617 -0.0769396 0.30811498 -1.0490655 -0.77523786
0.45756122 0.3829383 -1.1322862 -0.13406244 -0.40749368 -1.6685956 0.5141784 0.15748665
-0.042776115 0.8424212 -0.082039736 -0.6988173 0.78940374 1.1215838 -0.281651 0.3172761
-0.8805063 0.4127129 2.6275048 -0.053840607 -1.6144923 0.45011452 0.3863489 -1.0781298
1.470199 -0.096669555 -1.4691257 0.23521172 0.08698041 -0.3080363 0.2782256 0.11391888
-0.5849813 0.44817793 0.5559801 -0.45521286 0.56444144 -0.62415266 -0.53502303 0.18971229
-1.3994968 1.6758372 0.9774032 -0.5075126 1.7813119 -0.46167302 -0.023531904 0.34786198
0.37228042 0.327031 -0.9723385 -1.5307392 -0.57609767 -1.0442815 0.36561033 -0.6362038
-0.5470134 -0.90575695 0.93587524 -2.0363467 1.0603603 0.263004 -0.4659159 -1.0237936
3.8725946 0.36161563 1.3810612 0.6790295 -1.2867193 -0.96947354 0.108362354 0.5184299
0.14756785 0.70297694 -0.99854475 1.0964487 -0.13779804 1.1463696 0.38425288 0.20088959
0.6472746 0.109217644 0.34622842 0.47566825 -1.5430303 -1.3906864 -0.44951105 0.12253214
-0.43492612 -0.027925016 1.2325661 -0.4439226 -2.0503268 0.96548086 0.40434608 0.4365741

0.bias f4 [64]
00000000: da66 853f 9d1b a33c d580 ef3e 093e 833f
00000010: 68c2 c83f d4f9 a3bf 7ce2 743f 1cca 933f
00000020: 9940 5f3f 6a1f 8d3d 4fa5 a93e 4617 f43e
00000030: 50a6 8d3f 20c1 5d3f 465f 21bf ae9d f53e
00000040: 96d6 4abf 1e8a 333f 344c 863f f6ea c23f
00000050: 638a 973e ee88 3b3f d5f2 103d 0fc3 583f
00000060: 1379 073f 0e92 d8be 7989 103f c68e 383f
00000070: 198a 853e 9b9e 113f 5ef7 393f 4fdc be3d
00000080: b081 123f 8b0d bcbd 15e6 8dbf dc8c 29bf
00000090: b916 d23d 2b55 823f fe26 183f ca22 d0bf
000000a0: c811 dd3e 8e9c 343f 93f3 1ebe 7051 7dbf
000000b0: 24d3 d83e 28fb 1c3f 1b9e 703f 599b 9b3f
000000c0: e0ce 863f 2b8a 5c3f f967 9c3f b898 163f
000000d0: defe 9bbf 4fa9 0bbf 09c0 91bf 616c a1bf
000000e0: 22e8 09bf 826b 02bf 2def c33e c6d8 d4be
000000f0: 78d0 9f3f 48a8 f03e 0eab b1be cccf 84be
1.0422013 0.019910628 0.4677798 1.0253307 1.5684328 -1.2810616 0.9565809 1.1546054
0.87207943 0.068907574 0.33133933 0.47674006 1.106638 0.8662281 -0.63036 0.47971863
-0.7923368 0.70132625 1.0492005 1.5227954 0.29597768 0.73255813 0.035387833 0.84672636
0.5291912 -0.4229893 0.56459767 0.72092855 0.26081923 0.5688264 0.7264308 0.09319364
0.5722914 -0.091822706 -1.108584 -0.6623056 0.1025824 1.0182241 0.594345 -1.6260617
0.4317763 0.70551383 -0.15522604 -0.9895239 0.42348588 0.61320734 0.9399125 1.2156783
1.0531883 0.8614833 1.221923 0.5882678 -1.2187154 -0.5455522 -1.138673 -1.26112
-0.5386983 -0.50945294 0.38268414 -0.41571635 1.2485495 0.47003388 -0.34700817 -0.25939786

2.weight f4 [64, 64]
00000000: 08c2 723f 41ba 0c40 185d a93f 9224 993d
00000010: ad43 6ebe 12dd c13f 9010 e7bd 93c2 313f
00000020: dd42 f3bf 9b7e b3bf a73d 143f da7d 2cbd
00000030: 8e25 f83e b359 04c0 23e1 2640 efd5 46bf
00000040: bde4 b7bf f57f fc3e 41e6 d1be df4b 60bf
00000050: 80d4 213f fc10 423b 5f5a 1cbe 3ae6 703f
00000060: 33f6 233f 0d16 c13f 4391 bf3e e22f 6a3f
00000070: c782 f73f 3d21 443f c232 1ebe 04a5 003e
00000080: 94e3 523f e75c 8b3e 8ed9 883f 57ef d1bf
00000090: a06e 03bf ed60 6f3f 9ad4 133e 36b7 45c0
000000a0: 5126 553f 1304 b7bf 9a2f dd3f d93a f03f
000000b0: 6221 9bbf f4ab c2bf 3267 cc3f 6563 a33d
000000c0: 9ad2 e3be 2ad5 4f3e bf21 cc3e c393 e7bb
000000d0: d15f 6dbf f1ae 3a3f e5f7 9bbe 26e2 1ebf
000000e0: d81e 0340 7fc4 eb3f af43 44bf fdb1 bebf
000000f0: dbb3 1340 e1ad 9b3f 52b0 423f f8ec 28c0
00000100: b81c 3d3e 19f7 5bbf 37fc 32bf 144a 9bbf
00000110: a481 4dbf 3caf f3be 3424 883d 5b25 89be
00000120: 2e19 25bf 70db 773e 5f64 0e3e 21e0 54be
00000130: 1b13 04bf 596c 5dbe a245 86c0 6d2d 593f
00000140: ee39 973e 29e3 0640 0e86 e1bf fe9c 04c0
00000150: 60b1 f03e 7ba3 48bf 9636 a5bf 8729 43c0
00000160: 1757 b93e 92d2 2fbd 481f f9bd 661a 94bf
00000170: a1ba ea3f f012 81bf 0eb2 303e 99d2 89bf
00000180: cb5c 93be cace bd3c 9140 8fbf ca58 4ebe
00000190: 7e71 8b3f 37ee cf3b 7cd5 3e3f 217f 9a3f
000001a0: 7c05 843f c383 99bf d4b7 2240 3bf6 fc3f
000001b0: 2fe8 ccbf 6a16 4b3e 3673 f0be 74ed 4cbe
000001c0: bbbd a6bf 2fcd 363c 5ea0 31bf 4301 723f
000001d0: bdd8 abbf f99e 2e40 6914 ed3f 2839 5fbe
000001e0: 89a6 c6bf ec4c 073d a2bc 07c0 fbf3 b13f
000001f0: 0e2e ca3d 2862 1abf 69ef 0ac0 b208 b0bf
00000200: 6ebd 22bf 3fa7 57be 405c 9dbf 199e c13e
00000210: c166 4ebf 140a f0bf 5c74 173d 7c27 143f
00000220: d1bb 48be d0e3 6c3f e5ef 24be 7a36 c8be
00000230: 431d 1dbf ac14 383e f675 4ec0 e4b0 223e
00000240: 3d29 79bc 99c6 013f c35b cb3e 476d 6a3e
00000250: f951 433f 5372 a53d f5b1 02be a9a7 f9bd
00000260: cd46 b9bf b78a c6bf dce1 88bc 67ec 87bf
00000270: 612e c33e eaf5 0abf 3db5 ebbc f120 00c0
00000280: 8ee2 3cbe 8b93 0f3f 62b8 33bf 1912 053d
00000290: e370 393f 7f36 e3bd bccf 343f 470c 6d3f
000002a0: 6826 96bf a75c 7cbf d588 1d3f 6a5e 90c0
000002b0: cbca 2f3d 37e9 a53f bd4a e4be 9a5e 96bf
000002c0: 8f53 35c0 77de 3a3d 287b d4bf 81b8 bbbe
000002d0: 2b08 273f cd12 aa3f ea08 1a3f 7a8a c2bf
000002e0: f2b1 dcbf 56c9 363d f2da cfbd 1607 e5be
000002f0: 720a 05bf 6f8f e5bf 85da e8bf b887 d1bf
00000300: 2cf9 04bf 190d ba3f 7f26 45bf cdfa 2b3f
00000310: b4e8 93be 2564 c1bf 2aa0 b83f 7013 983b
00000320: f867 9abf da80 d93f b9d1 e23c 756f d23e
00000330: 1da3 bebf da6f a23e 31e8 14c0 3bee 413f
00000340: 38c4 e43f 1de6 8e3f 0ed0 0e40 db7a 0dbf
00000350: da02 d33f 5834 2c3f 5db8 16c0 c669 55bf
00000360: 6eb4 bcbe ab1c 463f db21 643e 624a 19bf
00000370: 787b e0bf 08d7 aabf 5e5e 8cbf ebf5 0fc0
00000380: ac12 a73e 7a8e ab3f c3ad 923e 7e1b b13e
00000390: fabd c63f 4ae9 46bf 17d8 b43f 0034 3a40
000003a0: bbc9 a53f ef33 b63d 5dce 2ebe 01ae 033e
000003b0: eb86 943f 6e5e 853e 4853 eebf b6e2 16be
000003c0: 2305 88c0 12b6 babe ed7b 0ac0 f2f7 3bbe
000003d0: 41d2 ff3f f8c5 693f 2535 8d3f d042 be3e
000003e0: 6342 fb3f 8094 6bbf 76fe 9e3f 8a25 2940
000003f0: 161b 50bf 4ac5 d3be 1809 03bf c02c d03e
0.9482732 2.198868 1.3231535 0.07477678 -0.23268004 1.514559 -0.11282456 0.6943752
-1.900478 -1.4023012 0.57906574 -0.04211221 0.48466152 -2.0679748 2.6074913 -0.77670187
-1.436668 0.49316373 -0.40995982 -0.8761577 0.63214874 0.0029612174 -0.15268849 0.941013
0.64047545 1.5084854 0.37415513 0.91479313 1.9336785 0.7661322 -0.1544905 0.12562948
0.82378507 0.27219316 1.0691392 -1.6401166 -0.51340675 0.9350727 0.1443657 -3.0893073
0.8326159 -1.4298118 1.7280152 1.8767959 -1.2119563 -1.5208726 1.5968993 0.079779424
-0.44496614 0.2029616 0.39869496 -0.007067175 -0.9272433 0.7292319 -0.30462566 -0.62063825
2.0487576 1.8419341 -0.76665777 -1.4898068 2.3078525 1.2162439 0.76050293 -2.6394634
0.18467987 -0.85923916 -0.699161 -1.2131982 -0.8027594 -0.4759463 0.0664753 -0.26786312
-0.64491546 0.24204803 0.13905476 -0.20788623 -0.5159165 -0.21623363 -4.196 0.8483494
0.29536384 2.1076148 -1.7619035 -2.072082 0.47010326 -0.7837445 -1.2907283 -3.0494096
0.36199257 -0.042925425 -0.121641695 -1.1570556 1.8338205 -1.0083904 0.17255422 -1.0767394
-0.28781733 0.023169894 -1.1191579 -0.20151058 1.089401 0.006345536 0.745445 1.2070047
1.0314174 -1.1993335 2.54247 1.9762644 -1.6008357 0.19832769 -0.469629 -0.20012456
-1.3026651 0.011157318 -0.69385326 0.94533175 -1.3425518 2.728453 1.8521854 -0.21799147
-1.5519572 0.033032343 -2.1208882 1.3902582 0.098720655 -0.60306025 -2.1708624 -1.3752654
-0.63570297 -0.21059893 -1.2293777 0.3781593 -0.8062554 -1.8753076 0.036976203 0.5787275
-0.19602896 0.92535114 -0.16107138 -0.39104062 -0.61372775 0.17976636 -3.2259498 0.15887791
-0.015207586 0.5069366 0.39718446 0.22893248 0.76296955 0.08078446 -0.12763198 -0.12190182
-1.4474732 -1.5511082 -0.01670926 -1.0619019 0.38121322 -0.54281485 -0.028772945 -2.0020106
-0.18445799 0.5608451 -0.7020322 0.032487962 0.72437876 -0.11094379 0.7062948 0.9259686
-1.1730471 -0.98578876 0.61536914 -4.511525 0.042918008 1.2961797 -0.4458827 -1.174762
-2.833225 0.045622315 -1.6600084 -0.36664203 0.6524684 1.3286988 0.6016985 -1.519851
-1.7241805 0.044625603 -0.101491824 -0.4473197 -0.51969063 -1.7934397 -1.8191687 -1.6369543
-0.51942706 1.4535247 -0.77011865 0.67179567 -0.28888476 -1.5108687 1.4423878 0.004640989
-1.2062979 1.6992447 0.027687894 0.4110066 -1.4893528 0.3172596 -2.3266718 0.75754136
1.7872381 1.1163975 2.2314487 -0.5526559 1.6485245 0.6726737 -2.3550026 -0.8336452
-0.36856407 0.77387494 0.2227854 -0.59879124 -1.753768 -1.3346872 -1.0966299 -2.2493846
0.32631433 1.3402855 0.28648195 0.34591287 1.5526726 -0.7769972 1.4128445 2.9094238
1.2952188 0.08896624 -0.17070909 0.12859346 1.1603674 0.26048607 -1.8619165 -0.14734921
-4.250627 -0.36467034 -2.1638138 -0.18356302 1.9986039 0.913177 1.1031843 0.3716035
1.9629635 -0.9202347 1.2421405 2.6429162 -0.8129133 -0.41361457 -0.5118575 0.40659142

2.bias f4 [64]
00000000: 87de 733f c649 33be 8172 5dbd b5a4 80be
00000010: ebd3 30be 961b 0ebf b64b 4ebf 3845 863e
00000020: 7a39 863e 0f0e 893c 8ba0 bebd a790 91be
00000030: b3e5 d53c 2102 bdbe 4545 1bbf eb97 573f
00000040: 417a 26be bafc 2f3d 4e38 a43e 89db 21bf
00000050: 0e35 de3d fe35 b9be 603e 773f 7d07 fabe
00000060: 9d20 313d c3ea 0cbf 4670 df3e d6d0 8e3f
00000070: 5016 223f 4848 c63e f665 debc e39c 2c3f
00000080: 5451 b83e d5dd 3f3f 2716 d03e 501d 57be
00000090: e5aa 033e 5fa8 f1be 93d2 a33e 1972 4a3e
000000a0: 1d47 e33d 85e3 a7bd bef3 7d3f 9bbd 823e
000000b0: 590e bc3e 6b71 a43e 0b60 b03e ed79 36be
000000c0: b8dc 2fbd 8252 64be c39d 083f b794 a73e
000000d0: 8a80 b43e bacf adbe 5061 ef3c dcc1 593f
000000e0: 0fa1 ffbe bd78 243d f63c efbd 1557 4b3e
000000f0: 4bcc 0ebf f5c1 24bf d825 7abe eeb9 e73d
0.95261425 -0.17508611 -0.054064278 -0.25125661 -0.1726834 -0.5551084 -0.80584276 0.26224685
0.26215726 0.016730336 -0.09307965 -0.28430673 0.026110506 -0.36915687 -0.6065257 0.84216183
-0.16257574 0.04296563 0.32074207 -0.6322561 0.10849963 -0.36174005 0.9657955 -0.48833838
0.043243993 -0.5504572 0.43640345 1.1157482 0.63315296 0.3872702 -0.027148228 0.6742689
0.35999548 0.74947864 0.406419 -0.21007276 0.1285816 -0.4719877 0.31996593 0.19770087
0.11097548 -0.08197693 0.99200046 0.25535282 0.36729696 0.3211778 0.34448275 -0.17819948
-0.042935103 -0.22297099 0.53365725 0.32730648 0.35254318 -0.33947545 0.029221207 0.8506143
-0.49927565 0.040154207 -0.11681549 0.19857438 -0.55780476 -0.64358455 -0.24428499 0.1131476

4.weight f4 [4, 64]
00000000: 3e8e 1540 976b 3bbf 48e8 f0bf 6e0e 25c0
00000010: f10d 08c0 2860 d9bf 0640 7abf da04 cfbf
00000020: 61a0 c1bf 4dff 06c0 bd42 89bf 330d b6bf
00000030: a9fa 13c0 2139 2c40 ff70 d4bf 42d7 1640
00000040: 447f e1bf 4bd7 5f40 ccfc 7040 5bc5 9bbf
00000050: bc73 0dc0 8095 3340 2894 bc3f 01b4 17c0
00000060: 3f1a 5940 9b98 f8bf 27b5 07c0 b945 e03f
00000070: af22 2240 4af3 ae3f 1233 f2bf 4703 aebf
00000080: 5a08 32bf 5683 2240 dde8 3740 da3e 12bf
00000090: 61ee e0bf d606 2140 ed30 b0bf dfce 3740
000000a0: 29f9 a8be b8d8 d4bf 52e3 b83f 48e0 4e40
000000b0: 4a1b acbf a512 ff3f eec3 26bf 6c41 91bf
000000c0: 1bea 0fc0 90b5 e4bf 0ee4 d03e 40f8 44bf
000000d0: eb90 4440 97f8 d2bf 3347 9cbf ab45 0340
000000e0: b74b 1dc0 a279 fd3f 83c9 a93f a434 7dbe
000000f0: cff9 abbf 15b0 31c0 e95a 6040 2a8e 1bbf
00000100: 8868 0340 8225 b1bf 1168 27c0 f530 afbf
00000110: a958 09c0 dafc 80bf ce6b 05c0 0eba babf
00000120: 93d5 d7bf 7f20 20c0 e249 66bf fab6 2fbf
00000130: 7b5d 08c0 2acf 4540 9941 d6bf 78fd 1b40
00000140: 52d1 0cc0 0ace 4540 2daa 4e40 7cab e7be
00000150: 8e1f f4bf f006 3c40 b056 0940 19bf babf
00000160: d0f0 f83f 3603 e1bf bb39 e9bf 8361 cf3f
00000170: f4d0 1740 c64b bc3f bddf 11c0 5054 bcbf
00000180: 6c94 fa3c 78e4 1440 ec2c 3840 0251 4abf
00000190: c3f3 92bf 99fd 2f40 3585 a3bf 4ca0 2b40
000001a0: 037f 3abf 0768 aabe 0640 d73f 321a 5240
000001b0: b0d4 9ebf 1829 1740 7686 4dbf c560 52bf
000001c0: 34c7 4bc0 54b2 18c0 02d0 b03e 7c5f 0abf
000001d0: 8993 0040 40e2 99bf 9cd2 efbf 8520 ed3f
000001e0: b16d e4bf 6fb4 0140 9f4e 6e40 2c1d 20bf
000001f0: bad6 88bf ef83 9dbf 64fd 7740 8fd0 53bf
00000200: 43b4 1040 2839 98bf 1603 1fbf 2640 fcbf
00000210: 5dfa 27c0 1e2a acbf 831b bc3e 1f80 f8bf
00000220: e4d5 b6bf e45b 11c0 f621 183d 5256 f0bf
00000230: c948 cbbf 1406 2c40 431a 15c0 72c9 0c40
00000240: 6938 d0bf 688b 6940 11ec 7640 ffdc fbbf
00000250: 720c 12c0 db49 7e40 7022 0e40 ccdd efbf
00000260: 7f67 2340 46a0 6cbf 811b f1bf e041 db3f
00000270: 6217 f83f da66 f03f 856c f1bf af9c b7bf
00000280: ad1a f8be ad79 2540 d8e1 1d40 adeb f5bf
00000290: ba76 d7bf a2ff 0b40 7570 04c0 dc03 3e40
000002a0: 5144 6ebf 01ba d1bf 02f2 963f 82d0 4940
000002b0: d0a6 81bf c80c b83f cac5 503f 3251 d5bf
000002c0: a59d bcbf 776f 23c0 4839 bbbf 57af 0fbf
000002d0: 723b 4540 8b62 32c0 c5f4 8bbf dc92 0240
000002e0: 952b 1dc0 1375 0e40 7edd 2b40 3f0f e1be
000002f0: 1578 a0bf f99d a3bf 6f95 6440 32ef 11bf
00000300: a43c 1040 3cc5 d73d db86 b03f 7d80 fabf
00000310: 2ee5 00c0 6806 9abf 354a 8fbf a015 0fc0
00000320: 8d8a dfbf 8a0f 28c0 d2aa 9dbf bdbe 25c0
00000330: ff3a 03c0 4737 1640 17c2 cabf 86f6 1f40
00000340: 647d a6bf b068 4c40 37cd 6c40 9ac8 c6bf
00000350: bf1b f2bf 60b5 3840 d942 793f c401 06c0
00000360: 69f8 2d40 31b5 22c0 15c2 d5bf c562 f03f
00000370: f9c6 2640 d4b0 d63f 24cc cd3d 0a05 b5bf
00000380: f0bc 02bf 5773 2f40 7276 2240 7164 fbbf
00000390: d2e3 f6bf 6e77 fd3f d3f2 e1bf 13f7 5040
000003a0: ce88 10bf a632 2ac0 27c9 be3f d116 4f40
000003b0: 5ec9 a4bf be4a 0240 c370 9abe d659 b6bf
000003c0: 3c4f 1ec0 284d e3be 66cf c3bd 3199 e1be
000003d0: 8eee 3c40 27ef 0dc0 d7ed 61bf 1f37 0340
000003e0: 6c2e 1bc0 f3cc 0340 6e5f bbbf 3347 5dbf
000003f0: 3aaf 75bf c7e5 09c0 62ee 4e40 6758 0bbe
2.3368068 -0.73211044 -1.8820887 -2.5790057 -2.125851 -1.698247 -0.9775394 -1.6173356
-1.5127069 -2.1093323 -1.0723492 -1.4222778 -2.312174 2.6909869 -1.6596984 2.3568883
-1.7616963 3.4975154 3.7654295 -1.2169603 -2.2101889 2.8059998 1.4732714 -2.3703616
3.392227 -1.9421571 -2.1204317 1.7521278 2.533367 1.3667996 -1.8921835 -1.359475
-0.69543993 2.539266 2.8735878 -0.57127154 -1.7572747 2.5160422 -1.3764931 2.8720014
-0.33002594 -1.6628637 1.4444373 3.232439 -1.3445828 1.9927565 -0.65142715 -1.134809
-2.2486637 -1.7867908 0.40798992 -0.769413 3.071345 -1.6482114 -1.2209228 2.0511272
-2.4577463 1.9802744 1.3264621 -0.24727112 -1.343561 -2.7763722 3.5055487 -0.607638
2.053255 -1.3839571 -2.6157267 -1.3686816 -2.1460364 -1.0077164 -2.0847049 -1.4588029
-1.6862053 -2.5019834 -0.89956486 -0.68638575 -2.1307056 3.0907693 -1.6738769 2.4373455
-2.200276 3.0907006 3.2291367 -0.4524802 -1.907213 2.9379234 2.145916 -1.4589568
1.944849 -1.7579105 -1.8220743 1.6201633 2.3721285 1.4710624 -2.279281 -1.471323
0.030588351 2.3264446 2.8777418 -0.7902986 -1.148064 2.7498534 -1.2775027 2.6816587
-0.72850055 -0.33282492 1.6816413 3.2828488 -1.2408657 2.3618832 -0.80283296 -0.8217891
-3.1840334 -2.3858843 0.34533697 -0.5405195 2.0090048 -1.2022171 -1.8736148 1.8525549
-1.7845975 2.0266378 3.7235487 -0.6254451 -1.0690529 -1.2305888 3.8748407 -0.8274011
2.2610023 -1.1892443 -0.62114084 -1.9707077 -2.624656 -1.3450353 0.3673974 -1.94141
-1.4284024 -2.2712336 0.037141763 -1.8776343 -1.5881587 2.687871 -2.329728 2.1997952
-1.6267215 3.6491337 3.8581583 -1.9676818 -2.2820096 3.9732578 2.220852 -1.8739562
2.553192 -0.9243206 -1.8836519 1.7129478 1.9382136 1.8781388 -1.8861243 -1.4344691
-0.48457852 2.5855515 2.4669094 -1.9212548 -1.6833107 2.1874776 -2.0693638 2.9689856
-0.9307299 -1.6384889 1.1792605 3.1533513 -1.0129032 1.43789 0.815518 -1.6665404
-1.4735609 -2.5536783 -1.4626856 -0.5612692 3.0817533 -2.7872646 -1.0934073 2.0402136
-2.455785 2.2258956 2.6853938 -0.43956944 -1.2536646 -1.2782584 3.5716207 -0.5700561
2.2537012 0.10535666 1.3791155 -1.9570462 -2.013988 -1.2033205 -1.1194521 -2.235695
-1.7464157 -2.6259484 -1.2317755 -2.5897667 -2.0504758 2.3471239 -1.5840482 2.4994216
-1.3007016 3.1938896 3.7000253 -1.5529969 -1.8914717 2.8860703 0.97367626 -2.0938578
2.7182868 -2.542309 -1.6699854 1.8780142 2.6058943 1.6772714 0.10048702 -1.4142163
-0.51069546 2.7414148 2.5384793 -1.9640027 -1.9288275 1.9802072 -1.7652229 3.2650802
-0.5645875 -2.6593413 1.4905137 3.2357676 -1.2873952 2.035812 -0.30164155 -1.4246166
-2.473586 -0.44394803 -0.095610425 -0.44062188 2.9520602 -2.2177217 -0.8825354 2.0502393
-2.4247084 2.059384 -1.4638498 -0.86436766 -0.959705 -2.1546495 3.2332997 -0.13607942

4.bias f4 [4]
00000000: fde7 b6be b9d8 3b3e d04b ca3c 5443 4bbd
-0.35723868 0.18344392 0.024694353 -0.049624756
