LV6/lander/saved_models/dqn_LunarLander-v3_final_2026-01-13_19-40-36.pth (torch, 7187 bytes, 8 tensors)

0.weight f4 [16, 8]
000000 cd 35 8c 3e 3a c2 d9 3e b1 b2 10 3f 1c 29 75 3e
       0.27384797 0.42530996 0.5652266 0.23941463
000010 de 79 1d bf b0 44 a2 bf bc ee 57 bf f7 42 b0 3d
       -0.6151408 -1.2677212 -0.84348655 0.086065225
000020 ea 27 47 3e 18 65 03 bd 35 04 92 bd 7b b9 f0 bd
       0.1944882 -0.032078832 -0.07129709 -0.117541276
000030 0b 40 20 bf 39 84 f2 bd 08 6f bd 3e fc ce a7 bd
       -0.6259772 -0.11841626 0.36998773 -0.08193776
000040 50 7d 6e 3f 19 e6 42 3f 45 db 89 3d 51 e1 93 bf
       0.9315996 0.7613235 0.067312755 -1.1553136
000050 a6 78 2f bf 00 f9 f4 3e b6 7d cd be ae ec 67 3e
       -0.6854347 0.47846222 -0.40134972 0.2264888
000060 67 0f bb bc 94 60 3f 3f 08 68 ed 3e 32 e4 e4 3d
       -0.022834493 0.7475674 0.46368432 0.11176337
000070 35 c5 38 3f 7c 45 a8 be 32 6c b6 3d 27 68 a7 bd
       0.72175914 -0.32865512 0.08907355 -0.08174162
000080 5a 5e 18 be f0 04 20 bf 48 50 0e be d5 52 42 bf
       -0.14879742 -0.62507534 -0.13897812 -0.7590764
000090 89 2d 05 3f a5 aa 1f 3f 36 89 bc 3e 48 22 2e bf
       0.52022606 0.6236976 0.36823434 -0.6802106
0000a0 61 39 65 3e 7f b9 5e 3e 17 13 1e 3e b7 50 b9 bd
       0.2238517 0.21750449 0.1543697 -0.09048598
0000b0 6b c9 8c bf 53 e7 ef be 4b d5 73 3e 91 f6 8c 3e
       -1.0998968 -0.46856174 0.23811834 0.27531865
0000c0 9f f9 58 3f a3 5b be 3e fd e8 be bd b7 09 0c 3e
       0.8475589 0.37179288 -0.09321783 0.13675581
0000d0 cc 56 89 bf c0 0e 2c 3f 4b ed 31 3e ea 15 10 bf
       -1.0729613 0.67210007 0.17375676 -0.5628344
0000e0 ff 91 b0 3e 1d fe 6b 3e c9 8f 25 3f c2 82 96 be
       0.34486386 0.23046155 0.64672524 -0.29396635
0000f0 6f 10 fe bc 29 e5 73 3f 0c cf 14 3f 47 e8 1c 3f
       -0.031013696 0.95271546 0.5812843 0.6129193
000100 6d c3 0b bf 59 2e 14 be b5 d7 b9 3f 38 3e c5 be
       -0.5459507 -0.14470805 1.4518954 -0.38524032
000110 33 b6 6b 3f 20 4f 9e 3f df 6b ea bd 8d 4f 39 bf
       0.9207489 1.2367897 -0.11446356 -0.7238701
000120 33 6b cd bf 1c 0e a6 3e 6c 5a 3d bf 48 57 1d bf
       -1.604834 0.3243264 -0.739661 -0.61461306
000130 66 3e 97 bf c2 52 e1 be 4d 92 d2 bc 66 dd 9c bd
       -1.1815917 -0.44008452 -0.025704527 -0.07659416
000140 61 59 38 bf 97 e1 9d 3e 4f 91 08 bf 17 bc e3 3c
       -0.7201138 0.30836174 -0.53346723 0.02779965
000150 36 d2 a7 3f 83 19 16 3f 84 90 8e be ab 5b 6b bd
       1.3111026 0.5863268 -0.27844632 -0.05746047
000160 b3 ba 3e bf 8b dd 0d 3e 76 e3 82 bd 46 4f b4 be
       -0.7450363 0.13854043 -0.06391041 -0.3521673
000170 20 32 90 3f 45 7f 44 3f 36 49 08 be b8 5a 7f be
       1.1265297 0.767567 -0.13309178 -0.2493695
000180 4e fd 3f be 22 af e0 3e 20 7f 04 be 5f 49 9b 3f
       -0.18748972 0.43883616 -0.1293912 1.2131766
000190 2a d6 89 3e b4 39 2b 3f a3 36 ab 3e 3e 8a d3 3c
       0.26921207 0.66884923 0.33440122 0.025822755
0001a0 c4 06 77 bf a8 25 78 3f c1 da ba 3e 9a 10 15 3f
       -0.964947 0.9693246 0.3649502 0.58228457
0001b0 63 96 0c bd cb 82 92 3f 06 e9 8e 3e b1 55 c7 3e
       -0.034323107 1.1446165 0.27912158 0.38932565
0001c0 67 67 6d be 6c 07 bc 3d c3 95 b5 bd 3e 68 3c bd
       -0.23183976 0.09181103 -0.088664554 -0.04599785
0001d0 50 ec 35 3d 98 54 83 bf d5 12 82 bd f1 2e 5a 3e
       0.04441482 -1.0260191 -0.06351248 0.21306969
0001e0 6b d2 0e 3f bf 6c 28 3f e6 7b 7a 3f 1f e9 0a 3f
       0.5578982 0.65790933 0.97845304 0.54261965
0001f0 fb 37 b0 be 0e 78 2e be 88 53 f4 bd 57 c1 8c be
       -0.3441771 -0.17037985 -0.11929995 -0.27491257

0.bias f4 [16]
000000 6e 22 b2 3e 0e a3 eb be 61 0a 6c 3e b0 66 1e 3e
       0.34791893 -0.46022838 0.23050834 0.1546886
000010 f2 bc 5d bd b9 04 04 3f fe 91 63 3e e9 c2 09 3e
       -0.05413527 0.51569706 0.2222366 0.13453259
000020 1e d5 02 3f 68 cb 8f 3f e4 24 19 3f 87 2d a4 3e
       0.5110644 1.123395 0.59821916 0.32065985
000030 07 6b 32 3e 2b 64 9c 3f 75 8c b9 3e 71 fe 84 3e
       0.1742364 1.2218069 0.36239973 0.25975373

2.weight f4 [16, 16]
000000 9a bf 32 3f 9a bd a6 3e 86 45 a7 bb be e7 9b bf
       0.6982361 0.3256653 -0.0051047234 -1.2180097
000010 d6 1e dd be 7e e6 fd 3e 47 be a4 be db 29 1b 3e
       -0.43187588 0.49589914 -0.3217642 0.15152685
000020 59 a2 24 bf ac e5 bf 3e 1d d5 a3 3d 0e 36 36 3d
       -0.6431022 0.37479913 0.079996325 0.044485144
000030 c9 e3 80 3e 29 5c 96 be c2 84 4b 3f 21 2d 25 3f
       0.25173786 -0.29367188 0.7949945 0.64521986
000040 aa 8d 25 3f e1 64 49 3f 22 6d 94 3e 77 e1 62 bf
       0.6466929 0.78669554 0.28989512 -0.8862528
000050 39 78 0d 3f 77 61 24 3e 91 c9 42 be 6b 74 e7 3e
       0.5526157 0.16052805 -0.19022204 0.45206007
000060 91 e5 c7 3d b7 57 65 3e ee d5 e3 3e 34 a6 10 3f
       0.09760583 0.22396742 0.44499153 0.56503606
000070 78 23 2b bc ff 55 2f bf 61 54 f8 3e e3 60 7c 3e
       -0.010445468 -0.68490595 0.48501876 0.24646334
000080 a6 eb f9 3e e3 21 17 3f ef 84 38 bc 6d ea 75 bf
       0.48812598 0.5903608 -0.011262163 -0.9606083
000090 45 b0 b0 3e 44 ec 12 3f 7d b7 07 be 1f cd 84 bc
       0.34509483 0.5739176 -0.13253589 -0.01621109
0000a0 bf cb 33 3e 10 2c 8a 3d 91 b3 da 3e 9c 46 19 3d
       0.17558192 0.067466855 0.42715123 0.037420854
0000b0 65 c6 c8 3f e3 9d 50 3d 42 7f 57 3f 33 cb 7a 3f
       1.5685545 0.050931823 0.84178555 0.9796631
0000c0 ab ec 96 3e a2 10 c2 3e c1 e5 14 3d f1 d6 3c bf
       0.29477438 0.37903315 0.036351923 -0.73765475
0000d0 d7 fe fb 3d e8 f4 2c 3f f9 7c 16 3e 6e 22 d8 3e
       0.12304466 0.675612 0.14696111 0.42213768
0000e0 4e c9 83 3e 69 fb f6 3e 0a 3c 80 3e bc eb e3 3e
       0.2573952 0.48238686 0.25045806 0.4451579
0000f0 2b 78 a3 3f cd 74 d9 bd 0f a3 d6 3e dd 40 54 3f
       1.2771047 -0.10617981 0.4192128 0.82911474
000100 39 64 39 3c 77 82 06 3e d1 b9 3d 3f 00 7a 6a 3f
       0.011315399 0.13135706 0.7411166 0.9159241
000110 fc fe f4 3e 60 e6 f6 3e 32 bf 08 3f 1e 2f 93 be
       0.47850788 0.48222637 0.5341674 -0.28746885
000120 51 26 18 bd 9d 20 86 3e f6 aa 10 3f d4 a4 db 3d
       -0.037145916 0.26196757 0.56510866 0.10724798
000130 d4 2d 83 bf 37 5b 3e 3f dd 9a 16 3f 74 07 d3 be
       -1.0248361 0.7435793 0.5883005 -0.41216624
000140 5b 02 db bd c8 c7 7e 3f 7c 2c 85 3f db de 42 bf
       -0.10693809 0.9952359 1.04042 -0.761213
000150 7d 59 d1 bd d0 b0 b5 3e 02 44 2c be 8d 4a 9d 3e
       -0.10222147 0.3548646 -0.16822818 0.3072094
000160 cc e7 60 bd c0 f5 18 3d ba fb bd 3f 7b 91 40 3f
       -0.05490856 0.03734374 1.4842446 0.75221986
000170 b1 f0 ef 3e ef f3 a0 3e a7 43 3b 3f 98 d1 f0 bd
       0.4686332 0.31436107 0.73150104 -0.11758727
000180 40 c4 94 be 1e 8a d6 bf 48 eb b0 bf 44 2c 67 bf
       -0.29055977 -1.67609 -1.3821802 -0.9030192
000190 d2 30 8c bf eb 8a 5f bd 0f a4 06 c0 74 b8 c8 bf
       -1.0952399 -0.054575842 -2.1037633 -1.5681291
0001a0 0e f9 a8 3f 65 69 3f 3f 7a 43 82 bf 74 49 b6 3c
       1.3201005 0.74770194 -1.0176842 0.022251822
0001b0 9a 1b 16 be fe f5 8c 3f 82 85 15 bf 70 c0 75 bf
       -0.14658967 1.1012571 -0.5840684 -0.9599676
0001c0 cb f4 f8 3e 62 dc be bd 64 83 6a be c4 7c b1 3f
       0.48624262 -0.093193784 -0.22901684 1.38662
0001d0 51 48 80 bf bc a3 25 be 92 15 d2 be 46 b2 0c 3f
       -1.0022069 -0.16175741 -0.41032082 0.54959524
0001e0 c0 7c 85 3f 13 90 81 bf a6 76 5c bf f1 fa 2a bf
       1.0428696 -1.0122093 -0.86118543 -0.66789156
0001f0 13 66 0a 3d a5 f1 da 3e 40 94 98 be 15 50 50 3e
       0.03378875 0.42762485 -0.29800606 0.20343049
000200 51 18 fe 3e a2 79 24 3f df 07 1f 3e 8c 44 3f bf
       0.49627927 0.64248097 0.15530346 -0.7471397
000210 8b b1 38 3e b9 4f 1c 3f 58 c3 7f bd 7a af 22 3f
       0.18036477 0.6105915 -0.062442154 0.63549006
000220 bd 27 12 3f 62 6f eb 3e 96 d1 de 3e e0 7c 82 3f
       0.57091886 0.45983416 0.43519276 1.0194359
000230 8f 4f 02 3f 7e 21 c1 3e 54 fd 6e 3e ee 91 70 3f
       0.50902647 0.37720865 0.23338825 0.9397267
000240 26 01 26 3f 36 c8 33 3f 38 cf 2b 3f cb 16 1a bf
       0.648455 0.7022737 0.67113066 -0.6019103
000250 d3 d1 29 be 53 de 1b 3f 8f 41 cb be 29 6d 9d 3f
       -0.16583948 0.60886115 -0.39698455 1.2298938
000260 24 2a 82 3f 8f ee 5e 3f dd 00 f4 3e 79 00 3b 3f
       1.016911 0.8708276 0.4765691 0.73047596
000270 cd 02 46 bf 02 ab 00 3e 15 f2 68 3e 70 cf 7f 3f
       -0.77348024 0.12565234 0.22748597 0.999259
000280 2f 50 93 3e d4 4f 51 3e 2f a8 96 be 02 7c 6d bf
       0.28772113 0.20440608 -0.2942519 -0.92767346
000290 78 5c fc 3e 12 ef ad 3e 15 10 17 bd 6d 45 f4 3e
       0.49289298 0.3397146 -0.03688057 0.47709218
0002a0 bd 31 d5 3e 55 05 62 3e 37 f9 17 3f 1e 5c 88 3e
       0.4163951 0.22072347 0.59364647 0.2663278
0002b0 e3 d7 c5 3f b0 92 26 3e d6 6a 06 3f ef 5f 38 3f
       1.5456508 0.16266894 0.5250677 0.72021383
0002c0 bf 15 10 3f 5b 50 b0 3e 62 eb d5 3e ab d1 0a bf
       0.5628318 0.34436306 0.41781145 -0.5422618
0002d0 2a 20 e4 3d dc c3 0e 3f cf 1a 61 be 51 f5 3a 3f
       0.11138947 0.5576761 -0.21982883 0.73030573
0002e0 b1 ad 46 3f 8d 83 1a 3f 90 45 9e 3e 04 2f e3 3e
       0.7760878 0.6035698 0.30912447 0.44371808
0002f0 4e d6 9e 3d 47 e6 85 be 3d 56 71 3e ff 04 87 3f
       0.07755719 -0.2615225 0.23568054 1.05484
000300 f9 de d6 3e 5d 43 1f 3f 30 c7 8f 3d fb f0 5d bf
       0.4196699 0.62212163 0.07020414 -0.8669583
000310 38 7e fc bd e2 6b 1e 3f d9 ff 0f 3e f2 92 f9 3e
       -0.12328762 0.61883366 0.14062442 0.48744923
000320 2f ea 03 3f 51 95 0d 3f 3f be b6 3e fe d0 9f 3e
       0.5152921 0.55305964 0.3569202 0.31214136
000330 23 40 dc 3e 9c 68 8d be 01 b8 a1 3e 94 4d 30 3f
       0.43017682 -0.27618873 0.31585696 0.68868375
000340 5d 95 d0 be cf 61 30 3e 2f c1 06 3f 06 52 53 3f
       -0.40738955 0.17224811 0.52638525 0.8254703
000350 5a d7 be bf fa 5d 61 be e7 34 0b 3f 82 0b 94 be
       -1.490947 -0.22008505 0.543776 -0.2891503
000360 df 11 9a 3d 3e fb 5a 3f a4 20 4d be 32 00 8b be
       0.0752294 0.85539615 -0.20031983 -0.27148587
000370 fd 32 ab bf 24 92 6a 3f ce 6b 56 bf d4 51 80 bf
       -1.3374935 0.9162924 -0.83758247 -1.0024972
000380 59 48 8b be 2a 72 4b 3f e4 9d f6 3d 52 5b 73 bf
       -0.27203634 0.79471076 0.12041834 -0.9506122
000390 2b 56 48 3e e1 19 14 3e fc 29 12 3e 66 8b 9f 3f
       0.1956412 0.14462997 0.14273828 1.2464416
0003a0 e7 a0 74 3f 11 5c 90 be d6 3d 32 3f 89 ed 4a 3f
       0.9555802 -0.2819524 0.69625604 0.792687
0003b0 54 5e e8 3e 8a 05 10 bf 0a 5e c8 bd 90 f6 01 3f
       0.45384467 -0.5625845 -0.097835615 0.5076685
0003c0 0d a4 36 3f 55 c2 16 3f 95 2f 26 3e 10 57 49 bf
       0.7134407 0.5889028 0.16229089 -0.7864847
0003d0 96 42 50 be d5 30 0e 3f ee 92 85 be 5f 33 1d 3f
       -0.203379 0.5554326 -0.2608866 0.6140651
0003e0 89 b5 c1 3e bd a8 fb 3e 78 9e c3 3e c4 fe a6 3e
       0.37833813 0.49152175 0.3820684 0.32616246
0003f0 38 50 c4 3e 44 0e 0d be b2 72 ac 3e 57 f3 9e 3f
       0.38342452 -0.13774973 0.33681256 1.2418011

2.bias f4 [16]
000000 70 66 b9 be 09 25 00 3e 04 d8 14 3e 7f f5 69 3e
       -0.36210966 0.12514128 0.14535528 0.22847556
000010 29 4b bc 3b d3 b9 1b 3f 42 06 90 3f df 61 a8 bc
       0.0057462645 0.6083042 1.125191 -0.020554481
000020 a9 4d c3 3e e9 2b 82 be 1a 88 cb bc 5f c3 59 3e
       0.38145187 -0.25424126 -0.024845172 0.21265934
000030 b5 2c 57 3e ec e8 12 3f 62 05 db be 71 c5 0a be
       0.21013148 0.5738666 -0.42777544 -0.1355188

4.weight f4 [16, 16]
000000 2d ef ba 3e 6f c6 f8 3e 01 eb fc 3d 40 55 7a 3e
       0.36510602 0.48588893 0.12349511 0.24446583
000010 60 ad 9f bf b4 3c 71 3c c3 3c 52 c0 3d 90 e2 bf
       -1.2474785 0.014723945 -3.2849586 -1.7700268
000020 6d 96 25 3d fc 4b 7d 3e fb 52 52 be 66 04 c2 3d
       0.04042666 0.24736017 -0.20539467 0.09473495
000030 cc 44 a8 3e 87 7b 0f c0 a6 fe 11 3f d1 4d f1 3e
       0.32864988 -2.2419145 0.5702919 0.47129682
000040 45 4d d1 be 6e 57 4c bd ce 16 1b bf 76 61 28 bf
       -0.40879264 -0.049888067 -0.6058167 -0.65773714
000050 6c 81 14 40 18 a7 6a 3d 59 61 64 40 37 ba f8 3f
       2.3203993 0.05728826 3.5684416 1.9431828
000060 6b 58 a3 be a2 91 16 3d 46 38 7e bf 9b 77 06 be
       -0.31903395 0.03675998 -0.99304616 -0.13131563
000070 a3 75 14 bf d8 8b d3 3f 46 21 96 bf 9e c2 be be
       -0.57992 1.6527052 -1.1728904 -0.37257856
000080 b7 05 24 3f fa 2e 12 3f 5d 29 99 3e 10 2e 35 3e
       0.6407122 0.5710293 0.2991437 0.17693353
000090 4e 79 9a bf 61 8b c6 3d cb ed 69 c0 6f 0f ec bf
       -1.2068269 0.09694553 -3.6551387 -1.844221
0000a0 c5 17 9e 3d fb 92 ab 3e 8a c3 30 be 75 ce 79 3b
       0.077193774 0.33510575 -0.17262092 0.0038117443
0000b0 cd 91 a7 3e 22 95 20 c0 1f ab 10 3f be 3f 7b 3e
       0.32728425 -2.5091023 0.5651111 0.24536034
0000c0 42 3f e6 3e 36 fa 99 3e ad 72 54 3f 3e e0 14 3f
       0.44970137 0.30073708 0.8298748 0.58154666
0000d0 fa d5 95 bf a5 a1 9a 3e 6c 3c 4b c0 e1 3f 2f c0
       -1.1705925 0.3020145 -3.1755629 -2.7382739
0000e0 4e 62 3d 3f 3d 05 d2 3e f9 49 4c 3f f9 c5 df 3e
       0.73978126 0.41019621 0.79800373 0.4370573
0000f0 4d f2 d5 3e 84 18 92 bf d3 74 d5 3e 8d 96 3a 3f
       0.41786423 -1.1413732 0.41690692 0.7288597
000100 97 96 2d 3c a8 eb e0 3d a3 ab 5a 3d 9a 78 45 be
       0.010594985 0.10982448 0.05338634 -0.19284287
000110 cb 1f e2 3e 98 66 51 3f 4e f2 66 bf 48 f6 0a c0
       0.4416488 0.8179717 -0.9021348 -2.1712818
000120 d1 cc b1 bd e3 3e d9 3d 0b bf 18 3e eb 55 35 be
       -0.08681644 0.10607698 0.14916627 -0.17708556
000130 6d 0c b3 3d 9f 75 40 bf 7b 0a e8 3e b3 4e 76 bd
       0.087426044 -0.75179476 0.45320496 -0.060133647
000140 dc e6 db 3d 80 bb 2a bf e6 26 e8 3d 0e 17 a6 3d
       0.10737392 -0.6669235 0.11335544 0.08109866
000150 35 15 a2 3f cf 2d 88 3e 42 fa 8f 40 6f 70 16 40
       1.2662722 0.2659745 4.499299 2.3506124
000160 19 50 14 be 71 2d d7 be 01 69 59 bd f6 b5 75 be
       -0.1448368 -0.42026857 -0.053078655 -0.23995194
000170 76 c7 43 be 81 d4 d1 3f 52 bb a3 bf 79 2f aa be
       -0.19119057 1.6392976 -1.2791541 -0.33239344
000180 03 02 9a 3e 53 a2 b9 3e 9c b7 4b 3f e9 11 01 3f
       0.3007966 0.36256656 0.7957704 0.50417954
000190 6c f0 87 bf 7b d6 67 3e 5e 1b 37 c0 03 68 1b c0
       -1.0620246 0.22640412 -2.8610454 -2.4282234
0001a0 84 9c e2 3e 34 fe f1 3e 06 fe 17 3f 28 46 0d 3f
       0.44260037 0.47264254 0.59371984 0.55185175
0001b0 02 20 1b 3f 3a 13 8b bf 06 34 fe 3e 14 5a 0d 3f
       0.60595715 -1.0865242 0.49649066 0.55215573
0001c0 dd 8f 08 3f 0d 81 a5 3e 17 c2 e6 bd ce 1b 25 be
       0.5334452 0.3232502 -0.112674884 -0.16123888
0001d0 d9 6b 98 bf 93 c6 36 3e 7a b8 4c c0 97 58 44 bf
       -1.1907912 0.17849188 -3.1987596 -0.7669768
0001e0 39 b5 e6 3d 39 be fc 3e bd 3c cb be b0 49 e5 3e
       0.11265034 0.49363878 -0.39694777 0.44782782
0001f0 2a 3f ac 3e 02 2c 26 c0 ef a4 06 3f 80 2e 95 3e
       0.3364194 -2.596436 0.5259542 0.2913704
000200 fd 06 0c 3d 67 e0 35 3f 2c 1e 6a 3d 7b 80 24 3d
       0.034186352 0.71045536 0.05715768 0.04016159
000210 85 e4 63 be 49 55 7f 3f 0a 8a 28 c0 e9 8b 44 c0
       -0.22255142 0.9973951 -2.6334252 -3.0710394
000220 01 c8 cb 3e 09 14 f4 3e 60 fd 68 3e 05 4a c3 3e
       0.39801028 0.47671536 0.22752905 0.3814241
000230 82 0e 60 3e 2f 3a a9 bf e9 24 2c 3f d1 86 c4 3e
       0.21880534 -1.3220881 0.6724382 0.38384107
000240 cf 38 48 3e 0b 69 92 3e 15 73 9b 3e 94 91 2b 3f
       0.19552921 0.28595766 0.30361238 0.6701901
000250 f8 33 5b bf f3 6a 02 3f 1f 1b 57 c0 2b 8e 12 c0
       -0.85626173 0.5094444 -3.3610303 -2.2899272
000260 7c ff c0 3e b0 99 2a 3f c6 a5 21 3f 53 a3 37 3f
       0.3769492 0.6664076 0.63143575 0.7173359
000270 94 d5 25 3f e6 3d ce bf d5 43 4b 3f 64 83 2b 3f
       0.6477902 -1.611264 0.7940038 0.6699736
000280 6b 52 a6 3e e9 d2 50 3e f0 4b 72 be 3e 0c 81 bd
       0.32484755 0.20392956 -0.2366178 -0.06301163
000290 ea 57 9d bf 23 b2 73 3b e9 7f 10 c0 6e d0 c8 bf
       -1.2292454 0.0037185035 -2.257807 -1.5688608
0002a0 32 c7 b7 3c d8 c9 9d 3e 35 be b5 3d d8 14 45 3e
       0.02243385 0.30818057 0.0887417 0.19246233
0002b0 d5 6c b3 3e 83 e3 1c c0 95 60 9c 3e 4e 21 f5 3d
       0.3504397 -2.4513862 0.30542436 0.11969243
0002c0 20 b2 c7 3e 31 fe b8 3e 3b 79 51 3f da 5d f6 3e
       0.39003086 0.36131433 0.8182561 0.48118478
0002d0 a3 f3 6e bf 7a 14 46 3d cf fd 36 c0 55 1b 2b c0
       -0.9334051 0.04835937 -2.8592412 -2.6735432
0002e0 68 69 ba 3e b5 f5 a6 3e 28 3f 2a 3f a1 ee 0f 3f
       0.36408544 0.32609335 0.6650262 0.56223494
0002f0 f7 a9 e6 3e 68 0c 5d bf 64 34 29 3f 7c 7e 5f 3f
       0.45051548 -0.86347055 0.66095567 0.87302375
000300 5c a1 92 3e 1e 87 0c 3e e1 63 f7 3d 0d f1 55 3e
       0.28638732 0.13723418 0.12079597 0.20892735
000310 c6 f1 a8 bf 5f 02 dc bd 2f fe 52 c0 fd ee dc bf
       -1.3198783 -0.1074264 -3.2967641 -1.7260433
000320 62 89 3a be 3f a2 d6 3e 0d b5 e9 3d a5 ff bd 3e
       -0.1821647 0.4192066 0.11411486 0.37109104
000330 4c 02 9c 3e a2 84 e8 bf 58 d4 50 3e 4e 52 bc 3e
       0.30470502 -1.8165476 0.20393503 0.36781543
000340 b4 5c 7c be a4 f3 af 3d 87 bf 5f 3c c0 09 bb bc
       -0.24644738 0.08591393 0.0136565035 -0.022831798
000350 91 f8 07 3f 8e 5a 74 3f 0a 7b 18 bf 34 90 5c 3e
       0.5311366 0.95450675 -0.5956274 0.21539384
000360 be 51 64 bd bd 93 a9 be 6c 9c dd bc ee fc 0e 3d
       -0.055742018 -0.33120528 -0.027052127 0.03490918
000370 ee 2a d3 3c 2c 52 68 be 33 a2 0e 3f f1 53 c9 be
       0.025777306 -0.22687596 0.55716246 -0.39321855
000380 d0 3c fc be d8 2e 11 3f 8a 81 09 bf c5 c7 8b 3d
       -0.49265146 0.567121 -0.53713286 0.068252124
000390 68 ee 39 3f 59 97 30 3e 97 5f e8 3f 88 3d 89 3f
       0.72629404 0.17245235 1.8154172 1.0721903
0003a0 e8 53 9a 3e 49 a0 54 3f b7 41 cc be 08 b2 b0 3e
       0.3014214 0.83057076 -0.39893886 0.34510827
0003b0 40 98 4d 3e 6a 1b ea 3f e4 31 cc be 7a eb 1d 3e
       0.2007761 1.8289616 -0.39881814 0.15421858
0003c0 62 fd 64 3b b6 c4 42 bf a5 78 63 3e 1d 08 12 3e
       0.0034941067 -0.7608141 0.22213991 0.14260907
0003d0 f6 f9 98 3f 5c c8 f5 3e 47 f3 83 40 0e cc 1c 40
       1.1951282 0.48004425 4.123447 2.4499545
0003e0 b5 80 9f 3e d3 af b1 be 76 50 81 3e c8 67 04 bf
       0.31152883 -0.34704456 0.252567 -0.5172086
0003f0 79 2f 4a be 2b f2 fe 3f 38 f1 b1 bf 2d 3b 03 bf
       -0.19744672 1.9917654 -1.3901739 -0.5126217

4.bias f4 [16]
000000 df 5c 4a bf 84 d3 1f be e2 3b 39 bf 2a 2d 0b 3e
       -0.7904796 -0.1560803 -0.72357 0.13591447
000010 e9 dc 32 3e cc 18 3e 3f 3a 93 13 3e 26 1f 35 bf
       0.17467083 0.7425659 0.14411631 -0.70750654
000020 ed f1 2d 3f 21 d1 b6 3d 69 ce 39 3e 9a da d5 3d
       0.67947274 0.08926607 0.18145145 0.104420856
000030 a1 a3 49 bf c4 33 4d 3e b5 52 78 3f 49 8d be 3f
       -0.787653 0.20039278 0.970012 1.4886867

6.weight f4 [4, 16]
000000 2a 1a cf be 40 d9 c2 3f 70 e0 b9 be f8 3d f7 be
       -0.4044965 1.522255 -0.36304045 -0.48289466
000010 ab cb d1 be f3 87 fd 3f c6 9a 22 bf f7 6b d3 be
       -0.409757 1.9807113 -0.63517416 -0.41293308
000020 47 5d 23 bf a7 7f f1 be 0f c6 49 bf ac 88 01 bf
       -0.63814205 -0.47167704 -0.7881784 -0.5059917
000030 80 a5 c7 be a2 60 d1 be af f0 6b 3e af 5c 24 40
       -0.38993454 -0.40894037 0.23041032 2.568157
000040 a8 3d 38 bf d8 9b b3 3f 7a d6 06 bf 34 22 c8 be
       -0.7196908 1.4031935 -0.52671015 -0.39088595
000050 f6 61 83 bf 25 df e7 3f 24 4c 71 be 40 1d 58 bf
       -1.026427 1.8114973 -0.23564202 -0.8441963
000060 34 74 88 bf 1e 32 2f bf d0 6b 28 bf 1d ca d5 be
       -1.0660462 -0.6843585 -0.6578951 -0.41755763
000070 c7 67 8d be 46 1b b8 bf 15 17 93 3f e5 fc f8 3f
       -0.27618238 -1.4383323 1.1491419 1.9452177
000080 48 b7 18 bf c7 86 11 40 95 32 19 bf 1c a0 52 bf
       -0.59654665 2.2738512 -0.5984281 -0.8227556
000090 f0 e2 60 be 50 2d a7 3f 8f 81 68 bf ba 70 93 be
       -0.2196157 1.3060703 -0.9082269 -0.2879694
0000a0 ed 13 3c be b3 90 44 bf 69 78 b8 be 59 dc 5a bf
       -0.18366976 -0.76783293 -0.36029366 -0.85492474
0000b0 38 e4 09 bf 9c c6 e2 bd c9 12 e5 3f 49 01 ae 3f
       -0.5386386 -0.11073038 1.7896358 1.3594142
0000c0 55 24 2e bf 8f 2e d4 3f 0f 70 06 bf 8e d5 3b bf
       -0.6802419 1.6576709 -0.5251474 -0.73372734
0000d0 c1 07 1b 3e d2 3a f5 3f fa 58 28 bf d0 36 2f bf
       0.15139677 1.9158576 -0.6576077 -0.6844301
0000e0 18 01 ed be b7 dc 47 bf c0 d7 b5 be 1e 93 32 bf
       -0.46289897 -0.7807116 -0.35516167 -0.69755733
0000f0 95 5f 5b bf d1 12 61 3f a2 4c 03 3e 45 67 24 40
       -0.8569272 0.87919337 0.12822202 2.568803

6.bias f4 [4]
000000 f2 bf 18 bf 19 87 8c 3d 83 21 85 3e 28 ba 63 3f
       -0.59667885 0.06861705 0.2600213 0.88955927
