LV6/lander/saved_models/dqn_LunarLander-v3_final_2025-12-18_10-50-08.pth (torch, 23505 bytes, 6 tensors)

0.weight f4 [64, 8]
00000000: 6310 be3d 91e9 283f d9f3 01bf 6443 283e
00000010: 8653 873f b859 e93e 9c40 153f d0a5 b9be
00000020: b34d 123f 4f8f 593e 1a40 af3e 52d2 7ebf
00000030: 63d8 02be fdec 87be a5dc 2b3f 22ef d83d
00000040: c7dc 853f b3d2 5a3f bc04 35bf f9a8 323d
00000050: f6f3 56bf cffa 59be 6527 b8bf d0fb c6bf
00000060: 781a 2abf 3007 3f3f 3d67 1fbe 7a4a aabe
00000070: 1f6a d7bf 511b 8a3c 3d89 ca3e ebaf 02bf
00000080: a4c1 d3be 0ba9 fabe f2db 9a3d 65df 46bf
00000090: dc0e 98bf fad0 163e 2794 173e 34d4 f73d
000000a0: 9b06 203f b4d4 693e fcc7 a13e 707f 8c3e
000000b0: f961 abbf f076 aabf e866 3cbf 6499 dc3e
000000c0: e258 163e 5160 ce3e 8066 33bf b25a d43e
000000d0: 5340 973e b40d 5a3f c26e 323f 082f 12c0
000000e0: ceee 0dbf 8485 2c3e e834 d93d a7c0 b8bf
000000f0: 703e 63be 964b 063f 36dc e93d 55cf fa3d
00000100: 5c5a 853f 538f f1be feb3 423f d530 aabe
00000110: 96e8 bebe 8a6e 773f 8e10 633e 0877 e13e
00000120: 67c6 183f d0c3 793f 4855 96bf 9770 b7bf
00000130: 3a3c ca3e 9bbf 58bf 960c 6d3d 6191 983e
00000140: 404a 533c 3bff 1a3f 60d3 453e 47bd 00bf
00000150: fcbe 9cbf 834f 933e 9bbe cc3e 9c06 94bc
00000160: dd56 25bf 3cfc 29be d683 d6be e346 acbe
00000170: 43f0 4d3f 85a8 cbbc f887 093e 2e3c 63bf
00000180: 7cd5 533f 33d6 30bf ab8d 0ebf 1dcc 1440
00000190: 300e 89be 520a cd3e 284d a5be 3aff 213e
000001a0: 5962 9b3f 369d 633e d7c7 51bf 985a 45bf
000001b0: 2cc8 aebf f34d 65be 6d5c e73b fbce 07be
000001c0: 79c4 343f 1288 eb3e 2b87 c6bf a187 d7be
000001d0: 1ad8 afbf b6af 20bf 837d 723f b879 b8bd
000001e0: c4cd bc3f 9127 85be 69b0 15bf 09a6 af3e
000001f0: f2c4 b63d 9acf a8be aeb8 383f 80ef 193d
00000200: 863c acbf 4994 a9bf 46bb 05bf 26e5 09c0
00000210: 87c0 cb3f 6441 c73e 4adf 113e 6484 08bf
00000220: fd66 f03e 06f7 27bd 7fac 11c0 ce53 ffbf
00000230: 8528 b13e ffef babe 3abb 32be 282d aa3e
00000240: a866 513e 6481 0fbe 590c f53e 88c0 02bf
00000250: 955f 4b3e 610f d53b 47d5 69bd 34a3 bc3e
00000260: 3864 6abf 53e7 17be 27e9 e63d d3a4 f9bd
00000270: 6889 1cbf a231 003f 350e 6fbd 2732 683d
00000280: 0880 2d3b 977a 453f 2c86 4dbf df09 98be
00000290: 706f 74c0 6217 353f 1bcf 2c3e c1e4 5fbf
000002a0: 2e35 cb3e 1e83 ba3e 61f9 febe 6c9a 81bf
000002b0: acc1 163f 53d5 d03c 8676 1bbf cfb2 38be
000002c0: 0e85 2b3f e874 6dbf 4717 2bbd 7cb9 91bf
000002d0: 6fec 66bf e23d 95bf d16b fdbe 8b32 47bf
000002e0: 8b72 9b3e 0223 61be 8e67 103c e4bc 40bf
000002f0: d329 6dbd fc4d 7cbe e0f9 843c 37a6 0c3f
00000300: ad85 fd3d a753 a8bd 56bb a0bf 6970 78bf
00000310: 127c 3ebe 29b7 143e 6cf7 e8be e819 b1bf
00000320: 271f 19be a799 ecbd 26ce 9d3c 61da 34bf
00000330: bbb5 cd3d ba3a 5dbe 06d4 473e 8e1e 163f
00000340: f9c2 51bf 3229 7c3e e404 99bf 2036 86bf
00000350: a429 04bc 585f 003e 2d8b ba3e fe73 8c3d
00000360: 5d53 b93d 5b79 f0be f3ee 993e 9405 f9be
00000370: 646b 743f aedf a5be 55ef 48be 552e 8f3d
00000380: 2b6f bc3e 2119 113f 5653 963e 66bc 12be
00000390: e4b3 9f3e 0a72 06bf f2ec 243f a23a 33bf
000003a0: 6c3b 52be f52d b4be f1e3 53bd 6113 10bf
000003b0: 20e1 abbe 744b 54bf 857d 0fbe 874e c33d
000003c0: f386 b7be dd69 00bf b49f d03e b444 bcbf
000003d0: 168d 103f d713 1c3f 70c3 1ebe 37a6 8a3d
000003e0: 10bb 903e 68f3 0a40 b995 0bc0 4d36 783f
000003f0: 38e6 123f 2e63 9fbe d41e b2bd 3ebc 0c3e
0.09280469 0.65981394 -0.50762707 0.16431957 1.0572364 0.45576262 0.5830171 -0.36259317
0.5714981 0.21246074 0.34228593 -0.99539673 -0.12777857 -0.26547995 0.6713355 0.10592486
1.0458001 0.8547775 -0.7071035 0.043618176 -0.83966005 -0.21287082 -1.4387022 -1.5545597
-0.6644664 0.7462034 -0.15566726 -0.33259946 -1.682926 0.016858729 0.3955783 -0.5104968
-0.41358674 -0.48957095 0.075614825 -0.77684623 -1.1879535 0.14728156 0.1480261 0.121010214
0.6251008 0.22835046 0.31597888 0.27440977 -1.3389274 -1.3317547 -0.7359452 0.43085778
0.14682344 0.4030786 -0.7007828 0.41475445 0.29541263 0.8517716 0.69700253 -2.2841206
-0.5544251 0.16847807 0.10605794 -1.4433793 -0.22191787 0.52459085 0.11418955 0.12246577
1.04182 -0.4717966 0.76055896 -0.3324038 -0.37286824 0.96653044 0.22174284 0.44036126
0.5967774 0.9756441 -1.1744776 -1.4331235 0.39499074 -0.84667367 0.05787333 0.29798415
0.012896121 0.605457 0.19318914 -0.50288814 -1.2245784 0.287716 0.3998917 -0.018069558
-0.6458567 -0.16600126 -0.41897458 -0.33647832 0.80444735 -0.02486063 0.13430774 -0.887637
0.82747626 -0.6907684 -0.5568492 2.324958 -0.26768637 0.40046936 -0.32285428 0.15820017
1.2139388 0.2222794 -0.81945556 -0.7709136 -1.3654838 -0.22393017 0.0070605786 -0.1326255
0.70612293 0.4600225 -1.551 -0.42095664 -1.3737824 -0.62768114 0.94722766 -0.09007591
1.4750295 -0.2600675 -0.58472306 0.34306362 0.08924283 -0.32970887 0.721568 0.03758192
-1.345597 -1.3248378 -0.5223888 -2.154611 1.591813 0.38917077 0.14245334 -0.5332701
0.46953574 -0.041007064 -2.2761533 -1.994745 0.34601226 -0.36511227 -0.17454234 0.33237576
0.20449317 -0.14014202 0.47860983 -0.5107503 0.1986068 0.0065020774 -0.057088163 0.36843264
-0.9155917 -0.14834337 0.11274939 -0.12189641 -0.61147165 0.50075734 -0.05836316 0.056688454
0.0026474018 0.7714018 -0.80282855 -0.2969503 -3.8193016 0.70738804 0.1687588 -0.87458426
0.3968901 0.3642816 -0.49799636 -1.0125251 0.5888927 0.025492346 -0.6072773 -0.1803696
0.669999 -0.9275651 -0.041770246 -1.138473 -0.9020452 -1.165951 -0.4949632 -0.778115
0.30360827 -0.2198601 0.008813752 -0.75288224 -0.057901215 -0.24639124 0.016232431 0.54941124
0.12379012 -0.082190804 -1.255717 -0.97046524 -0.18602017 0.14522995 -0.45501268 -1.3836031
-0.1495329 -0.11552744 0.019263338 -0.7064572 0.10044428 -0.21604434 0.19514474 0.5864037
-0.8193813 0.2462509 -1.1954618 -1.0485268 -0.0080665685 0.12536371 0.36434308 0.06858061
0.090491034 -0.46967587 0.30065116 -0.48637068 0.95476365 -0.32397217 -0.19622548 0.06991259
0.36803564 0.5667897 0.29360455 -0.14329681 0.31191933 -0.5251776 0.6442405 -0.7001134
-0.2053048 -0.35191312 -0.051731054 -0.5627957 -0.33570194 -0.8292763 -0.14012726 0.09536462
-0.35845146 -0.50161535 0.40746844 -1.4708467 0.5646528 0.60967773 -0.15504241 0.06769984
0.28267717 2.1711063 -2.1810133 0.96957856 0.57382536 -0.31130356 -0.08697286 0.13743684

0.bias f4 [64]
00000000: 2e01 213f 7572 b33e 8e40 113f 1283 bc3e
00000010: 7f70 543f 1a6c 25bf 045d 313e 486a 153f
00000020: 4d95 abbc f7be 87be d9e2 b33c e7f6 0e3f
00000030: 1c7e 7dbf e26e 11bb c600 7abe 2979 483f
00000040: e937 a5be 2afd 023f ae2b 483f 51d1 6a3e
00000050: f1e6 4ebe 1859 ad3e 536b 0e3d b6de 2e3f
00000060: 2386 653f 5a8b 083f a02d d53e b346 813f
00000070: bdd2 f53d 6f9c 6a3f 8e13 403f 857f 233f
00000080: b11b c43e c702 24bf 4ef7 113f 4b06 673f
00000090: 73ec 263d f735 1c3e e3e9 533f 321f cf3e
000000a0: 1635 aebe 5881 fe3e c517 fa3c dc19 cf3d
000000b0: 779c fe3e f3be 293e 3ff0 c83e cbea 6bbe
000000c0: 9f57 f83e f4f3 c4bc c127 60be 83fe 803f
000000d0: d34f fd3e 42ee 59ba 00cb c63e 5a93 b23e
000000e0: 8593 0f3f 6fb0 39be 9025 813e 4761 123f
000000f0: b469 09be c0a5 1e3f a1a9 233f 3a4a 29bc
0.62892425 0.3504826 0.5673913 0.3681875 0.82984155 -0.64618075 0.17320639 0.583653
-0.020945216 -0.26512882 0.021958755 0.55845493 -0.9902055 -0.0022191335 -0.24414358 0.78309876
-0.3226922 0.5116755 0.7819165 0.2293141 -0.20205285 0.33857036 0.03477032 0.6830858
0.896578 0.53337634 0.41636372 1.0099701 0.12003086 0.9164495 0.7502984 0.63866454
0.38302377 -0.6406674 0.5701798 0.9024398 0.04075284 0.15254961 0.8277876 0.40453488
-0.34024876 0.49708056 0.030528912 0.10112354 0.49728748 0.16576748 0.39245793 -0.23038785
0.4850435 -0.024042107 -0.21890165 1.0077671 0.49474964 -0.0008313396 0.38826752 0.34878045
0.5608447 -0.1813371 0.2522397 0.57179683 -0.13419229 0.61971664 0.6393071 -0.010332638

2.weight f4 [64, 64]
00000000: 1cf4 16be 178e 8b3f 4ff0 c43e b8fd 043f
00000010: 4edf 343f e33f aa3f 0560 793f 2aac b83e
00000020: 4ed2 e3be 7b84 0bbe e7f4 8a3d fea4 8cbf
00000030: 7ab3 9bbf fd3f f73d 1410 68bf ad6d d5bf
00000040: 63f2 173f 1cfe 9ebd 760f 1bbf 8e7d 8dbf
00000050: 4d84 f3be fd37 223f e3b2 89be 9490 f63e
00000060: c269 f8bf 3d46 353e 1eba da3d bdf6 1d3f
00000070: 5320 b0be edd1 3a3f d839 1d3e 2be3 243f
00000080: 7b3e 583e 0ebf 16c0 8450 ad3d 2548 413e
00000090: 3dfa d13d 814b f63f bd09 51be cbb7 673e
000000a0: 988a d2bf e559 023f d84c 273f 1f44 f5be
000000b0: 380d f53e 8c55 cd3e 43d1 0f3f 0758 2a3d
000000c0: 21ae 4bbf 947a 833f 028c 3dbf be78 17c0
000000d0: 43a4 8cbe e07b 05bf 53fd 5dbf 2739 503f
000000e0: ebe7 bb3f 181d dbbf 253d 393f 59b2 fc3e
000000f0: a57d 48be a9a5 7e3f 1eaa 90bc 6c8c 433e
00000100: 0785 4cbe a519 553f 0205 3f3a 29e4 d7be
00000110: 5e22 98be a5b6 103f 64fe 333f 66fa ddbe
00000120: 7b76 f93e 7692 c63e a0f7 14c0 028b c9bf
00000130: 0bde afbf 3c9d 513f 0658 33bf a889 d9bf
00000140: 0566 8b3f 620d 6d3d 11ad cabf 8c2f 4bbf
00000150: fab3 9dbf fcdf d13f 0632 973f 8c94 d0be
00000160: dcfa 98bf 42a4 03bf 01af 083f c331 133e
00000170: b058 24bf 00df 31bf 66bd 2f3b 80a3 953e
00000180: 90ea c8be db20 c5bf 299c bfbe 8fc7 d6be
00000190: a507 6bbf 0ab8 f53f 4508 363e 8e16 9cbc
000001a0: 1c9e d6bf df40 393e 78bd 143f dcd4 713e
000001b0: 5938 fdbe 3e37 95be d0ac b7be 562c 8abe
000001c0: 492e 17bf 3310 37be 3e00 5abf 402e 02c0
000001d0: 19eb 0abf 3a2c 35bf 5859 23bf 230c 5e3f
000001e0: 4f06 023f f1fd fbbf 5fef d73e 3a8a 153d
000001f0: 588e 1a3e 0f56 123f c2d4 30bd 88f0 bd3e
00000200: d95f 153f 332d 85bc f119 9bbc 6af9 babe
00000210: ced1 e4bf fd98 96bf 0d27 f0bf 236d 973d
00000220: b3a7 2ac0 03c6 3a3f 91a8 e93e c24f b0be
00000230: a45f c0be a195 18c0 a207 96bf 378c 12be
00000240: 1ea3 f6bf 0824 76be 62ef 8f3f 11a3 c43f
00000250: 8934 0ac0 907c 86be 565b 223f 52dd d5be
00000260: 8cba c3bf 9c05 3dbe 55d0 19c0 4891 c53d
00000270: 2fcb d53e cecd debf af69 fa3e 4e40 7b3e
00000280: 0230 3cbf ac80 d4be 0ac9 80bf 1530 52bd
00000290: 267b cbbf cd30 1d3f f248 57be 9bdf 2bbc
000002a0: 08fe e8be cdf9 9dbe 7554 cb3e 608a 45bf
000002b0: 24d8 3d3f c6f3 4bbf 45bf 4abe 7dad 15bf
000002c0: adfd d1bf d5b6 f13e 7606 ad3f 847e 19bc
000002d0: a012 23be 7952 51be 1903 f23d 9907 f03e
000002e0: eaf4 5e3f e9d2 973f 8f29 9fbe 03b1 74bf
000002f0: e16a a23f d6bb 65bf 1042 68bd ad91 ab3f
00000300: 812d aa3e 3ad9 e3be eb73 83be d550 00bf
00000310: 98b0 9cbd d389 8abd 596d 59bf 3dd2 983e
00000320: ec7a 82bd 1ef3 133f 37f2 9d3f 6303 7b3f
00000330: ee6b 533f 3557 63be 2ad7 b33f bdb2 5e3f
00000340: a9b6 2ec0 dad5 333d 4a61 3d3f 4d96 903f
00000350: e5de 923e 607d efbf d377 40bf c6ee c6be
00000360: 1bec d63d 0a79 16bf 4401 99be 7381 30bf
00000370: 5d65 693f 4dc9 64bf 94a0 1d3f 7db1 26be
00000380: b656 843f cab4 1f3f 25e4 73bf d6fe 953e
00000390: 2a10 833f 4bff 27bf 560a 513f 07b6 3d3e
000003a0: 8216 f13f 67aa 04bf 6cb5 4e3e b659 f3bf
000003b0: 21bc aa3f d188 6dbf 133b 363f 82bb 8b3f
000003c0: 64d6 3c3f 9ac7 96bf 257c d23f 3cfa 873f
000003d0: 5867 cf3e b40a 883f 0656 a53e 95f3 58be
000003e0: 236c 103f 6ebf 963f 48ee 62bf b972 a1bf
000003f0: 6d1d bb3e cb83 0fbf 88f5 343f c077 c3bf
-0.14741558 1.0902737 0.3846459 0.51949644 0.70653236 1.3300747 0.9741214 0.3606885
-0.44496387 -0.13624756 0.06784993 -1.0987852 -1.2164147 0.12072752 -0.90649533 -1.6674095
0.5935423 -0.07763311 -0.60570467 -1.1053941 -0.47561875 0.6336668 -0.26894292 0.4815718
-1.9407275 0.17702575 0.1068003 0.6170462 -0.3439966 0.7297657 0.15354097 0.6440913
0.21117584 -2.355411 0.08462623 0.18875177 0.10252807 1.9241792 -0.20413871 0.22628705
-1.6448545 0.5091842 0.6535163 -0.47903535 0.47861648 0.4010433 0.56178683 0.041587856
-0.79562575 1.0271783 -0.7404176 -2.3667445 -0.27469072 -0.52142143 -0.8671467 0.8133721
1.4680151 -1.7118254 0.72358924 0.49354818 -0.1957918 0.9947153 -0.017659243 0.19096535
-0.19972621 0.83242255 0.0007286818 -0.4216626 -0.2971372 0.56528693 0.70310044 -0.433551
0.48723206 0.38783616 -2.3276138 -1.5745547 -1.3739637 0.81880546 -0.7005619 -1.6995134
1.0890509 0.05787409 -1.5834066 -0.79369426 -1.232055 1.639648 1.1812141 -0.40738332
-1.1951556 -0.5142251 0.53392035 0.14374451 -0.64197826 -0.69480896 0.002681577 0.29226303
-0.39241457 -1.5400652 -0.37423828 -0.41949126 -0.9180854 1.9196789 0.17776592 -0.019053724
-1.6767001 0.18091153 0.58101606 0.23616356 -0.49457052 -0.2914371 -0.35874033 -0.2698695
-0.59055 -0.17877273 -0.8515662 -2.0340729 -0.5426498 -0.7077061 -0.638082 0.8673727
0.50790876 -1.9686872 0.42174813 0.036508776 0.15093362 0.57162565 -0.04317165 0.37097573
0.58349377 -0.016256904 -0.018933268 -0.36518413 -1.7876527 -1.1765438 -1.8761917 0.07393863
-2.6664855 0.7295839 0.45636418 -0.3443585 -0.37572968 -2.3841326 -1.1721079 -0.143113
-1.926853 -0.24037182 1.1244929 1.5362264 -2.1594565 -0.2626691 0.6342062 -0.41770416
-1.5291305 -0.18459171 -2.4033406 0.09646851 0.4175658 -1.7406557 0.48908755 0.24536249
-0.73510754 -0.4150442 -1.0061352 -0.051315386 -1.5896957 0.6140259 -0.2102392 -0.010490323
-0.4550631 -0.30854645 0.39712873 -0.7716427 0.7415793 -0.79668844 -0.19799526 -0.5846785
-1.6405541 0.47209802 1.3517597 -0.009368543 -0.15925074 -0.20441617 0.11816997 0.46880797
0.8709246 1.186124 -0.31086394 -0.955826 1.2688867 -0.8973974 -0.056703627 1.3403832
0.33237842 -0.44501668 -0.25674376 -0.5012334 -0.0765087 -0.06764569 -0.84932476 0.298479
-0.06371102 0.5779284 1.2339543 0.9805204 0.8258656 -0.22201236 1.4050038 0.8699148
-2.7298987 0.043905117 0.73976576 1.1295868 0.2868568 -1.8710136 -0.7518284 -0.38854045
0.10494252 -0.5877844 -0.29883778 -0.68947524 0.91170293 -0.8936966 0.6157315 -0.16278644
1.0338962 0.6238524 -0.95269996 0.29295987 1.0239308 -0.6562392 0.81656396 0.18526469
1.8834994 -0.51822513 0.20186394 -1.9011753 1.3338662 -0.9278689 0.7118389 1.0916598
0.73764634 -1.1779664 1.6444136 1.062324 0.40508533 1.0628266 0.32292193 -0.21186669
0.56415004 1.177717 -0.8864484 -1.2613136 0.36545888 -0.56060475 0.7068715 -1.527092

2.bias f4 [64]
00000000: 7f9d 2a3e 0a8c 13bf d302 4bbf 519d f5bb
00000010: 7a54 9f3d 956d 18bf 3b6c c7be 8b46 433e
00000020: f43d 183e 4725 8e3d 4506 0abc b9b0 3fbf
00000030: 1ee3 3cbe de84 28bd 6145 89be 39e0 09bf
00000040: b412 3dbf 64aa 263e 07cc f7be 6a14 223e
00000050: 74ed 193f 58b9 b2bd d32f 7fbd 05fa e93e
00000060: 6c07 9c3d b7f7 343d 6d17 443e 1cd6 2fbf
00000070: 452e 3bbe db67 be3e 258b 38be f34d eb3e
00000080: 3668 92be 8591 633c c57e d5bd 5303 afbe
00000090: f50c 25bf 839c 803e e6a2 413c 473b a33d
000000a0: ed98 dbbe 5595 023e f279 f6bd a9b3 02be
000000b0: 65da 0b3d c93e 54bd 9623 f83d a4c6 093e
000000c0: 9a32 6b3d 61b3 023f d7cf e33e 2e1c 313f
000000d0: ae8e a23e 6ad5 25bc 2b16 ec3e 1bf7 cebe
000000e0: 914a f03e 7b35 afbe e138 1c3f 2d16 03be
000000f0: 6450 e23e be53 aabe 04bd 5c3e 9d7b b33d
0.16661642 -0.5763556 -0.79301184 -0.00749556 0.077797845 -0.5954221 -0.3894976 0.19069879
0.14867383 0.06940704 -0.008424346 -0.7487903 -0.18446013 -0.041142337 -0.26810744 -0.5385776
-0.73856664 0.16275936 -0.48397848 0.158281 0.6012795 -0.08726758 -0.062301468 0.45698562
0.07618603 0.04418155 0.19149561 -0.6868608 -0.18279369 0.3718861 -0.1802183 0.45957908
-0.28595132 0.013889675 -0.1042457 -0.34182224 -0.64472896 0.2511941 0.011818623 0.07970291
-0.4289011 0.12752278 -0.12034978 -0.12763847 0.034143824 -0.05181769 0.121161625 0.13454682
0.057421304 0.5105496 0.44494507 0.69183624 0.3174948 -0.010121683 0.46110663 -0.40422902
0.4693189 -0.3422049 0.6102429 -0.12801428 0.44201958 -0.33267015 0.21556479 0.08763812

4.weight f4 [4, 64]
00000000: db3b abbf 58e7 d6bf 289e 0040 e5ba 2740
00000010: 6e76 b03f e1d8 95bf 57b9 95bf 6a9c 513f
00000020: 96c9 6640 52a8 41be 4052 35bf 228e e3bf
00000030: ecea d7bf 5523 1440 431a af3f 1f3f 42bf
00000040: 0bf7 dcbf d9f5 1740 9745 4ebf d43b 3c40
00000050: a65c 983f cffa 92bf 30f5 48bf 58cf 033f
00000060: 8b4d 6cbf 32ab cabf 59fc 4fbf 79c3 a4bf
00000070: ca61 a0bf c88f b93f badd d8be 4414 2e3f
00000080: 9629 14c0 f8b2 c03f 696b 70bf 89a8 c7bf
00000090: 4e85 eebf 948b f23f b91c 07c0 058e 733f
000000a0: c496 09c0 f7f6 49bf 2cfc 51bf 976e 6bbf
000000b0: 4fb9 27bf 2231 f5bf 12bc 89bf 0b67 0040
000000c0: b7f4 bd3f 5435 32bf 5632 9b3f 72a5 f23f
000000d0: 3b7c c13f 4255 99bf 8500 8b3f ca27 1840
000000e0: 28a4 203f 695b d8be d43d c53f adbb 3a40
000000f0: 161a 453f 7534 e7bf 2bd0 1abf ac21 10bf
00000100: 309f acbf c1e6 a9bf 57b3 1140 734b 1740
00000110: f836 ba3f 4463 e9bf da02 61bf f481 8d3f
00000120: 751f 4740 8f84 2cbf 7468 05bf 2514 b3bf
00000130: 3493 b3bf 55a4 1740 f58a c43f 3501 0fbf
00000140: edfb 04bf 6d0a 3940 1ec8 70bf 79ef 3940
00000150: f42c 263f fe16 bbbf 5e4a 9abf 80e1 263f
00000160: 707c e5bf a521 82bf 1845 b6be 2603 bdbf
00000170: 71b8 24c0 7830 cc3f 1109 4c3f 50c8 e53f
00000180: 567f 0bc0 3b27 a83f dfc2 88bf c920 bbbf
00000190: e818 03c0 d103 fc3f deef 0ac0 1fba 863f
000001a0: 9721 afbf 2fe8 2dbf 01c2 49bf 4e5a a7bf
000001b0: f017 43bf d331 fbbf 412b 78bf 85b8 f73f
000001c0: d649 703f a96d 243f 95a9 c13f f1ed d83f
000001d0: 29e9 843f fa76 f3be 1556 8d3f 0b43 0740
000001e0: 3f7e 8e3f 257a 043e 8adf 943f cdd9 3a40
000001f0: af88 f63e 88b0 0cc0 c2b3 3ebf 8636 8ebe
00000200: 06f3 a2bf 61f9 c3bf 2a58 2840 e911 db3f
00000210: 3df2 f83f edfb c1bf 6635 8abf e96e 3d3f
00000220: 96b7 4f40 4858 96be eb68 a0bf f40c cbbf
00000230: e3b9 1ac0 9470 ec3f 5b02 de3f a0d9 9dbf
00000240: a11e ccbf 2448 1740 1431 a7bf d9e4 5e40
00000250: c0ea b43f e5b7 23bf 571d 973e 52c2 b03f
00000260: c401 9bbf 6698 75bf c147 77bf 64a0 61bf
00000270: b650 14c0 19ed bd3f fb20 97bf b6a7 563f
00000280: 3036 1bbf b6d3 a03f 70a1 3dbf f901 d2bf
00000290: eeee 11c0 1ca5 0640 6762 e6bf 3b83 673f
000002a0: 4cfb 14c0 8320 bdbf b9eb 97bf 5759 8dbf
000002b0: ff21 0dbf b0dd f53e adc5 3fbf 4785 dd3f
000002c0: dab2 2840 853b a4bf bcc0 b53f 0783 a83f
000002d0: 54ba 2a3f 547b c9bf 40f0 a63f 0d05 1640
000002e0: 7017 d23f 262e c3bf 86db 893f 4446 2240
000002f0: 0df2 ab3f d8c1 0dc0 a1e9 713e ba00 9dbf
00000300: 28d5 71bf 134f 13c0 29d2 0c40 04ae 1440
00000310: 5882 9a3f 9f50 113d 3673 01bf ec6d a43f
00000320: 28c1 4340 fcbd 23bf 11d1 a2bf 0af6 c5bf
00000330: adb6 c6bf ee56 f33f 7951 ac3f b113 1bbf
00000340: ebd8 eebf f006 2640 8454 c1bf 41a0 3440
00000350: 0a76 913f cb88 17bf a260 43be 7f2a 6a3f
00000360: ccb5 d6be 7c0b 97bf 746f 9dbf 4da1 8bbf
00000370: b2fd 46bf 7cfe be3f a396 36be b3e1 e53e
00000380: 9134 d5bf ca55 fd3f 4688 12bf bb6f 07c0
00000390: 5371 0ec0 bfa5 0240 0018 0fc0 1f9a 9b3f
000003a0: 668b 3cc0 0563 81bf fae5 22bf bbc3 9cbf
000003b0: ffff 80bf 241f 97bf 275b 53bf 3c7d 0940
000003c0: b045 863f 7166 89bf b638 823f 1f08 df3f
000003d0: 10c7 c23f 0386 75bf 83fe aa3f abc1 4440
000003e0: e06c 7a3b c35c 0bc0 205f 0440 75fd 4240
000003f0: 41d9 563f b2de 29bf 86d9 5fbf 1041 57bf
-1.3377641 -1.678935 2.009653 2.6207821 1.3786142 -1.1706811 -1.1697186 0.81879294
3.6060538 -0.18911865 -0.7082863 -1.777775 -1.6868567 2.3146565 1.367989 -0.75877565
-1.7262892 2.3743804 -0.80574936 2.9411516 1.1903274 -1.1482791 -0.78499126 0.51488256
-0.9230582 -1.5833495 -0.81244427 -1.2872154 -1.2529843 1.4497004 -0.42356664 0.6799967
-2.3150382 1.5054617 -0.93913895 -1.5598308 -1.8634431 1.8948846 -2.111128 0.9513858
-2.149827 -0.78892463 -0.8202541 -0.9196562 -0.65517133 -1.9155619 -1.076052 2.0062892
1.4840306 -0.6961262 1.2124736 1.895674 1.5116037 -1.1979144 1.0859534 2.3774285
0.6275048 -0.4225724 1.5409493 2.9177048 0.7699293 -1.8062884 -0.6047389 -0.5630138
-1.348608 -1.3273546 2.276571 2.36398 1.4548025 -1.8233418 -0.87894976 1.1055284
3.111295 -0.6738977 -0.5211251 -1.3990523 -1.4029298 2.369405 1.5354906 -0.55861217
-0.5194691 2.8912613 -0.94055355 2.9052413 0.64912343 -1.4616392 -1.2053945 0.65187836
-1.79286 -1.0166517 -0.3559959 -1.4766586 -2.5737574 1.5952291 0.79701334 1.7951756
-2.179647 1.3136972 -1.068447 -1.461938 -2.0483952 1.9688665 -2.1708903 1.052555
-1.3682126 -0.6793241 -0.7881165 -1.3074434 -0.762084 -1.962458 -0.96941 1.9353186
0.93862665 0.6422983 1.5129877 1.6947614 1.0383655 -0.4755171 1.1041895 2.113467
1.1132277 0.1293722 1.1630719 2.9195435 0.48151156 -2.1982746 -0.7449304 -0.27775973
-1.2730415 -1.5310479 2.630381 1.7114841 1.9448925 -1.5155007 -1.0797546 0.7399736
3.2455802 -0.29364228 -1.2532018 -1.5863328 -2.4175956 1.8471856 1.7344469 -1.2332039
-1.5946847 2.363778 -1.3061852 3.4827178 1.413414 -0.63952476 0.29514572 1.3809302
-1.2109914 -0.95935667 -0.9659386 -0.8813536 -2.3174262 1.4837981 -1.180694 0.83849657
-0.6062956 1.2564609 -0.7407446 -1.6406852 -2.280208 2.1038275 -1.799878 0.90434617
-2.327838 -1.4775547 -1.1868812 -1.1042889 -0.5513 0.48020697 -0.74911004 1.7306298
2.6359162 -1.2830664 1.4199443 1.3164986 0.66690564 -1.5740762 1.3042068 2.3440583
1.6413403 -1.5248458 1.0770118 2.5355387 1.3433243 -2.2149563 0.23624279 -1.2265847
-0.94465876 -2.3017013 2.2003272 2.323121 1.2071028 0.035477277 -0.5056642 1.2846045
3.0586643 -0.6396177 -1.2720052 -1.546571 -1.5524498 1.9010904 1.3462363 -0.6057692
-1.8659948 2.5941734 -1.5103917 2.8222811 1.1364148 -0.59193105 -0.19079831 0.91471094
-0.41935575 -1.180038 -1.2299638 -1.09086 -0.7773086 1.4921412 -0.17830901 0.44898757
-1.6656667 1.9791806 -0.57239187 -2.1161945 -2.2256668 2.0413663 -2.2358398 1.2156409
-2.9460082 -1.0108343 -0.63632166 -1.2247232 -1.0078124 -1.1806378 -0.8256096 2.1482687
1.0490017 -1.0734388 1.0173557 1.7424353 1.5216999 -0.9590761 1.3358921 3.0743206
0.0038211867 -2.1775367 2.068306 3.0467198 0.83925253 -0.6635543 -0.8744129 -0.8408365

4.bias f4 [4]
00000000: 98b4 813e 324e 7d3e 6d63 0fbe ea7b a0bd
0.25333095 0.2473686 -0.14002772 -0.07836135
