LV6/lander/saved_models/dqn_LunarLander-v3_final_2026-01-13_20-37-01.pth (torch, 7187 bytes, 8 tensors)

0.weight f4 [16, 8]
000000 6e a9 ce be 64 54 b9 3d 0c ec 12 be 6b 00 d1 be
       -0.4036364 0.09049299 -0.14347857 -0.4082063
000010 c4 62 9a be cf 90 d8 bf 36 b3 e2 3e 8c 3a 5a 3f
       -0.30153477 -1.6919192 0.44277352 0.85245585
000020 9e be 90 bf 2e 3f 9d 3e 0c c0 4f bf b7 76 b5 3c
       -1.1308172 0.30712265 -0.81152415 0.022151334
000030 11 20 49 3f b5 d7 97 3e 5c 8f 89 be 0d 59 57 be
       0.78564554 0.2965676 -0.26867187 -0.21030064
000040 fb 33 34 bd 38 d5 03 3f 3c 4a 72 bf 66 05 35 3f
       -0.043994885 0.5149722 -0.9464452 0.7071136
000050 9a 21 26 3f 7b 0c 00 3d 2d fb dc 3e cd 94 e7 bf
       0.6489502 0.031261902 0.43160382 -1.8092285
000060 31 a2 1b 3f 71 48 d8 3e 44 c0 8c 3d e5 3f 8e be
       0.6079436 0.42242768 0.06872609 -0.27783123
000070 4d 50 95 3f 1f d1 17 3f 8a c8 9c bf fc eb 4f c0
       1.1665131 0.5930347 -1.22487 -3.2487783
000080 ef 02 2b be 50 46 8a 3f 4d c7 fa be f2 22 96 bf
       -0.16700338 1.0802708 -0.4898018 -1.1729414
000090 71 6c 2c 3f 8d c1 2f 3f 83 b8 2e c0 97 b3 31 bf
       0.6735297 0.6865471 -2.7300117 -0.6941466
0000a0 e5 bf bc bf a1 94 bb 3f 90 11 08 c0 be ad 11 40
       -1.4746062 1.4654733 -2.126072 2.2762294
0000b0 b3 98 48 be e0 6c 24 c0 94 a8 9e bf bb c5 2c 3d
       -0.195895 -2.5691452 -1.2395196 0.042180758
0000c0 30 7d 97 3f 10 a1 7e 3e 8e 83 f1 be bb e0 21 be
       1.1835079 0.24866128 -0.4717068 -0.15808384
0000d0 d0 4f a6 3f 54 a9 09 c0 9f c7 62 be 23 36 b7 3f
       1.2993107 -2.15096 -0.22146462 1.4313396
0000e0 bd 06 6d bf 2c 70 dc 3e f6 ca d5 3f 38 5a 1e 3f
       -0.92588407 0.4305433 1.6702564 0.6185641
0000f0 85 91 ce bf c5 b9 79 3f 6f 2d 91 bf 9e ac 2b bf
       -1.6138159 0.97549087 -1.134199 -0.6706027
000100 8a ea 32 bf 98 d8 35 3f ad 6f 57 bf 5d 17 57 3f
       -0.6988913 0.7103362 -0.8415478 0.84020025
000110 13 4d df 3e 15 ca 2f 3f e2 c7 5c 3f 6f 10 14 3f
       0.4361349 0.6866773 0.86242497 0.57837576
000120 3b 11 37 bf 41 7c c6 be 1c f1 83 bf 84 b2 f5 bf
       -0.71510667 -0.38766673 -1.0307956 -1.9195104
000130 a3 6d a4 3e 03 d9 f3 bf d5 70 ec be 76 2d 8d 3f
       0.32114896 -1.9050602 -0.46179834 1.1029499
000140 8e 7b d8 bf 60 36 28 bf cf 6e 49 bf 67 53 f4 bf
       -1.6912706 -0.6570797 -0.78684705 -1.9087952
000150 d2 ac 8f 3f 61 f5 47 3f 4c dc 97 3d 99 b0 ef be
       1.1224616 0.78108793 0.07415065 -0.4681442
000160 77 e6 06 bf 47 23 f5 3e aa c9 40 bf 32 b3 44 be
       -0.5269541 0.47878477 -0.75307715 -0.19208983
000170 11 47 05 3e e4 61 e0 be 88 a1 20 3e e0 0a 34 bf
       0.13015391 -0.43824685 0.1568662 -0.70329094
000180 cb 98 12 3d 6b cd 41 3f e1 00 1b 3f 36 2d ce 3f
       0.035790246 0.7570407 0.60548216 1.6107547
000190 60 eb 33 3f b8 c9 ce 3f 4c ac 89 3f fe 03 f4 3d
       0.7028103 1.615531 1.0755706 0.11914824
0001a0 c8 c8 07 bf d3 1b b7 3e 84 e6 7e 3f 20 07 f0 3e
       -0.5304074 0.35763416 0.9957049 0.46880436
0001b0 3b 8a bc bf 09 d0 8b 3f 4d 89 67 3d 12 02 8b 3e
       -1.4729685 1.0922862 0.056527425 0.27150017
0001c0 ab 6d 03 3f 6f 64 bc 3c 49 c7 9e 3e f3 85 ae 3e
       0.51339215 0.02299711 0.31011418 0.3408657
0001d0 ff 75 37 bf d6 b1 dc bd ae a0 16 bf 40 4b a8 3e
       -0.7166442 -0.10776107 -0.5883893 0.3286991
0001e0 e9 34 48 bf 86 1f c7 3f ce 22 87 bf 7c 6f ef 3f
       -0.78205734 1.5556495 -1.0557497 1.8705897
0001f0 ff 80 2e bf e3 45 70 bf f7 f1 1f be 8b da e8 be
       -0.6816558 -0.9385664 -0.15619646 -0.45479235

0.bias f4 [16]
000000 46 67 08 3e 1e 6d 89 be f8 d2 ba 3e 02 d1 97 be
       0.13320646 -0.26841062 0.3648908 -0.29651648
000010 33 88 5b 3f 2c 87 d0 3f 22 a7 39 3f 71 4e 6a 3e
       0.857547 1.6291251 0.7252065 0.22881486
000020 cd 53 48 3f 83 26 27 3f 55 bd 0b 3f 2a e6 99 3f
       0.7825287 0.6529314 0.5458577 1.2023365
000030 93 6c 67 3e df d1 84 3f b6 f3 86 3e 5a 6a a7 3f
       0.22600012 1.0376548 0.26357812 1.3079331

2.weight f4 [16, 16]
000000 fb 7f 97 3f bd 3d 35 40 c7 7d e0 3e 89 c6 9f bf
       1.1835932 2.8318932 0.4384596 -1.2482463
000010 4e b8 cb 3e eb b6 04 3f 75 c9 be 3d d8 30 48 bb
       0.3978905 0.5184161 0.09315769 -0.0030546691
000020 4a 68 40 bf 53 8b 35 be d9 03 d0 3e c5 f6 06 bf
       -0.7515913 -0.17728929 0.40627936 -0.5272029
000030 bf a7 cf 3e 33 56 01 40 25 00 1c 40 50 18 1e 3f
       0.40557668 2.0208862 2.4375088 0.6175585
000040 a7 dc b2 bf 15 8c 00 c0 33 86 17 be f0 47 c5 3f
       -1.3973588 -2.00855 -0.14797287 1.5412579
000050 fc dd 0b bf 77 22 ce be 51 4d de bf 9c ee 57 3f
       -0.54635596 -0.4026067 -1.7367345 0.84348464
000060 1b c1 a6 3f 79 28 2b c0 75 41 36 bf 33 41 53 3d
       1.3027681 -2.6743453 -0.7119363 0.05157585
000070 17 4b 33 c0 3b 38 04 c0 b5 da ab bf d1 6f d0 3e
       -2.8014581 -2.065932 -1.3426119 0.4071031
000080 2b d5 9d 3e a9 14 85 3f 1f 9f ee 3e 4a 69 3f 3d
       0.30826697 1.039693 0.46605775 0.04673127
000090 79 b9 ca 3f cd 9f 19 3d f7 f6 66 bf 7b bd cb 3f
       1.5837852 0.037505914 -0.9022059 1.59172
0000a0 6f 5f eb 3b ab 76 1f bf 6d d8 7f 3f fd 6f b4 3f
       0.0071830074 -0.6229045 0.99939615 1.4096676
0000b0 cc 02 d7 be 3f e0 0b 3e b1 2b 74 bf d4 dc bc 3f
       -0.4199432 0.13659762 -0.9537917 1.4754891
0000c0 d2 7f 34 c0 37 12 e4 be e8 dd 5f bf ed ec b0 3f
       -2.8203015 -0.44545147 -0.8744798 1.3822304
0000d0 e9 ff 76 bf 67 d6 b9 3e ad e5 43 bf 7c cf 76 bf
       -0.9648424 0.36296389 -0.7652233 -0.96410346
0000e0 a7 30 38 3f 6a 38 68 3f 13 7c 39 bf e5 f4 8a 3f
       0.7194924 0.9071108 -0.7245495 1.0855986
0000f0 09 9d e7 3e 11 6f 17 bf 6c 00 39 c0 47 a4 0a 3e
       0.45236996 -0.5915385 -2.8906507 0.1353923
000100 9c 50 d4 3e 0a 67 35 40 ee 66 01 3f d2 99 df bf
       0.4146775 2.834414 0.50547683 -1.7468817
000110 21 a4 84 3f 45 d6 f2 be fc e4 bb be 07 36 c3 3e
       1.0362588 -0.474291 -0.3669814 0.38127157
000120 4c 37 01 be ce 2e c6 be 03 46 43 3f 68 c0 a0 3e
       -0.1261875 -0.38707584 0.76278704 0.31396794
000130 80 1f 3d 3f 42 54 42 3f ea 3e 05 40 02 fb 83 3f
       0.7387619 0.7590982 2.081965 1.0310977
000140 95 4e d5 be 03 68 03 40 de b7 95 3f 5c 1e 41 3d
       -0.41661516 2.0532234 1.1696737 0.047148094
000150 af f8 a0 be c7 8b 99 3f ae 31 d2 3f 7b 15 1f c0
       -0.3143973 1.1995782 1.6421411 -2.485686
000160 87 5d 23 3f 89 be e2 3f be 6c 16 be 19 c8 2a bf
       0.63814586 1.7714397 -0.1468992 -0.66711575
000170 f9 09 f0 be 81 64 ea be a8 59 ba bf d7 3c 3e bf
       -0.4688261 -0.45779803 -1.4558611 -0.74311584
000180 91 47 be 3e 0b 05 29 c0 38 0f ee bf 6c e0 0b 40
       0.37163976 -2.6409328 -1.8598394 2.1855726
000190 e2 0d eb 3d 11 73 10 3e f4 89 0b c0 43 71 43 bd
       0.11477257 0.14106394 -2.180295 -0.047715437
0001a0 5b 54 e8 3e 4d 4f 74 bf ca 2b f0 bf 83 66 02 bb
       0.45376858 -0.95433503 -1.8763363 -0.0019897528
0001b0 eb 7f 39 c0 79 39 cd bf 24 43 cd 3e dd 2e 96 3e
       -2.8984325 -1.6033164 0.40090287 0.2933263
0001c0 2c 1b 2a bf 11 ee dc 3e 21 b9 0b 3f fb 15 21 c0
       -0.6644771 0.4315038 0.5457936 -2.5169666
0001d0 da 3c 95 bf a7 41 7a 3f 1c 55 eb 3e 95 84 92 3f
       -1.1659195 0.9775643 0.4596337 1.1446711
0001e0 6e a3 a7 3f 6a ed 81 bf 07 6f 8c c0 22 48 11 3f
       1.309675 -1.0150578 -4.388553 0.5675069
0001f0 a1 5d a0 be 94 58 8e be 5e 24 a5 3f bf 3f c8 3f
       -0.31321433 -0.27801955 1.2901723 1.5644454
000200 7a a8 e8 bf b0 fd 0a c0 0c d5 f2 bf 89 7b 8e 3f
       -1.8176415 -2.1717339 -1.8971267 1.113145
000210 9a e6 fc be fd 69 3a bf 7d 50 9a be 5e 0d e9 bf
       -0.49394685 -0.72817975 -0.30139533 -1.8207204
000220 e7 96 12 3f 62 1b 01 3f d0 40 39 3e 2e c9 95 3e
       0.5726151 0.5043241 0.1809113 0.2925505
000230 e4 28 74 bf b3 6a 04 c0 79 9e a2 be 5a 1d 5f be
       -0.95374894 -2.0690124 -0.3176153 -0.2178854
000240 bd 53 ce be b5 56 ea 3e a9 63 f3 be 91 72 9b bf
       -0.40298262 0.45769277 -0.47536972 -1.2144338
000250 86 f8 4d 3f c8 2e e3 3f 13 12 97 be f0 92 48 3f
       0.8045734 1.7748652 -0.29505977 0.7834921
000260 d7 3e 04 c0 51 33 53 3e 0f 3d 8f bf 61 98 81 be
       -2.0663354 0.20625044 -1.1190509 -0.25311568
000270 e0 4d c5 be 9d 7f e0 be 89 f5 09 40 de e3 b8 3f
       -0.38535976 -0.4384736 2.1556113 1.444454
000280 85 72 ba 3f 80 99 27 40 62 07 ce be 66 ac 81 bf
       1.4566199 2.618744 -0.40240008 -1.0130737
000290 3e 0c 2c 3e c0 c9 fa 3d a2 d2 50 3b c2 9a a0 be
       0.16801545 0.12245512 0.0031863828 -0.3136807
0002a0 72 0f 8e bf 3f 84 1e 3f d0 ec 38 3f 98 1e 05 bf
       -1.1098464 0.6192054 0.7223635 -0.5199981
0002b0 bc 72 3b 3f 69 10 e3 3f 21 29 00 40 94 c9 ef 3e
       0.73221946 1.7739383 2.0025103 0.4683348
0002c0 c2 43 16 be 50 69 a4 bf 74 4d 80 bf dc db 37 be
       -0.14674285 -1.2844639 -1.0023637 -0.17954963
0002d0 ae 28 5d 3f 1b 79 2b c0 a5 fa 88 3f a1 26 a9 3e
       0.863902 -2.6792667 1.0701491 0.33037284
0002e0 73 32 f6 be ba 61 e3 be 9e 22 fa bf 6f b9 0a 3f
       -0.48085365 -0.44410497 -1.9541814 0.541892
0002f0 dd 19 9c 3e 35 a6 4a c0 ed 9e cb bf df e5 f8 bd
       0.30488482 -3.1663945 -1.5907875 -0.121532194
000300 b5 2b 16 c0 bf b2 37 be c8 2c 94 3f 01 21 ad 3f
       -2.3464177 -0.1793928 1.1576166 1.3525697
000310 8a df 0e 40 0b 11 6c be 7e 5c dc bf 23 6b 5d 3f
       2.2323937 -0.23053376 -1.7215726 0.864916
000320 3c 1f 05 bf d8 93 6a 3f b4 a2 2e 40 3d 6e 9e 3f
       -0.52000785 0.9163184 2.7286806 1.2377392
000330 6e 82 54 bf 2a 0b d0 3e 19 4b f4 3f 37 21 8e 3f
       -0.8301152 0.40633518 1.9085418 1.1103886
000340 69 96 cc 3e 1d 33 9b bf f7 83 98 be fa 3b 5f bf
       0.39958504 -1.2124974 -0.2978818 -0.8720089
000350 b3 6f 93 3f 2f a0 8b bd 22 05 f7 3e e6 39 88 3f
       1.1518463 -0.06817662 0.48246104 1.0642669
000360 7c 59 9d 3f 9e 7c 19 be e6 2a 08 bf d6 b3 b3 3f
       1.2292933 -0.14988944 -0.5319046 1.4039257
000370 4f 6c ff bf 04 e9 cc bf 69 40 57 c0 1b 8d 75 3c
       -1.9954928 -1.6008611 -3.3633063 0.014987255
000380 dd 87 53 bf be 49 e0 bf 92 3e 68 c0 29 84 8f bf
       -0.82629186 -1.7522504 -3.628819 -1.1212207
000390 71 11 fe 3f 25 e0 7b c0 61 53 27 c0 c8 50 74 3f
       1.9849073 -3.9355557 -2.614464 0.9543576
0003a0 2f 2a 82 3f 78 7f 09 c0 e5 9a 2f bf 0e a7 a1 3f
       1.0169123 -2.148405 -0.68595725 1.2629106
0003b0 3a 05 06 3e dc f9 b7 3e 96 e4 ca bf 46 f2 b8 be
       0.13087931 0.35932815 -1.5851009 -0.3612234
0003c0 c0 6a 18 3e 9e a1 15 40 e2 c5 ec 3d bf cb 02 c0
       0.14884472 2.3379893 0.11561181 -2.0436857
0003d0 54 aa c2 3f 84 20 fe be 6a b0 b8 bf 48 19 5f bf
       1.520823 -0.49634182 -1.4428837 -0.8714795
0003e0 86 45 25 be f8 c9 ea bf 35 84 ce 3f c3 36 f9 3e
       -0.16139802 -1.8342886 1.6134096 0.48674592
0003f0 1e d7 d8 3e cb 67 01 bf 25 b7 85 3d db 4f 4d 3f
       0.4235162 -0.50549 0.06529073 0.80199975

2.bias f4 [16]
000000 bb 75 6c 3f 32 d0 9d bd 44 b3 08 3f 04 26 0b 3e
       0.9236714 -0.07705726 0.5339854 0.1358872
000010 ef 60 13 3f c6 30 d4 3e b8 3f d9 3e b6 21 ef 3e
       0.57569784 0.4144346 0.42431426 0.46705407
000020 be 38 90 bf 7b d0 95 3f 21 3d 1e 3f f6 97 8c be
       -1.1267316 1.1704248 0.61812025 -0.27459687
000030 aa 64 19 3e 49 f6 07 bf 66 a1 bf be eb 2a 68 be
       0.14979807 -0.53110176 -0.37427825 -0.22672622

4.weight f4 [16, 16]
000000 36 22 44 3f cc 44 06 c0 46 56 2a 3f 67 01 2d c0
       0.766147 -2.097949 0.6653789 -2.7032106
000010 0f b7 6c 3f d3 6f 8d 3b fa 35 5a c0 58 50 6e 3f
       0.92466825 0.004316309 -3.4095445 0.93091345
000020 d8 99 e6 bf 69 60 9f 3e 6b 4c c7 3d b9 3a d2 bf
       -1.8015699 0.31128243 0.097313724 -1.6424171
000030 66 58 81 be 30 61 ce bf 95 29 93 bf 32 e2 82 3f
       -0.25262755 -1.6123409 -1.1497065 1.0225279
000040 2f fe 99 3e 2f 67 0f c0 32 c0 f6 3e 08 85 c7 bf
       0.3007674 -2.2406728 0.48193508 -1.5587473
000050 1c 4a 05 3f 7d c8 1e be 35 86 3a c0 2f db 44 3e
       0.52066207 -0.15506168 -2.9144413 0.19224237
000060 dc d8 a4 bf 7d 3f ea 3e e3 65 dd 3e 74 86 ae bf
       -1.287868 0.45751563 0.43241796 -1.3634782
000070 cd 92 dc 3d b4 7d 7d bf 04 eb 9c bf de da 91 3f
       0.107701875 -0.9901993 -1.2259221 1.1394918
000080 4f ef ce bc d7 c8 f7 bf 8f c0 b0 3e 48 09 45 be
       -0.025260596 -1.9358166 0.3452191 -0.19241822
000090 7d 24 f8 be fd 48 8d be e3 82 4e 3f 7c d9 36 3d
       -0.48465338 -0.27594748 0.8066847 0.044641003
0000a0 ba c1 35 3e a8 ee ce 3f 5d a1 c7 3e 26 5b 74 bf
       0.17749682 1.6166582 0.38990298 -0.9545158
0000b0 c6 ea 75 be e1 23 be bf 68 e0 8c bf d8 48 19 be
       -0.2401534 -1.4854699 -1.1005983 -0.14969194
0000c0 4e 23 31 3f c1 28 d7 bf 40 27 d8 3e 7e c0 9e bf
       0.69194496 -1.6809312 0.42217445 -1.2402494
0000d0 de f5 4c 3c ee 20 08 3f 8e bb e5 be ba 16 c7 3e
       0.012509791 0.53175247 -0.44869655 0.38884526
0000e0 f2 94 48 bf fe db c5 3f eb 4b 6f 3f 38 39 57 c0
       -0.7835227 1.5457761 0.93475217 -3.3628674
0000f0 b9 a3 85 3f 04 b4 b2 bf d2 ce e7 bf 2a a4 e5 3e
       1.0440589 -1.3961186 -1.8109992 0.4485181
000100 05 d7 42 3f 41 2b 14 c0 03 78 cf 3e 49 19 25 c0
       0.76109344 -2.31514 0.4052125 -2.5796683
000110 87 2b 09 3f 7a 2b a6 3e 5e ac 18 c0 aa 70 96 3e
       0.5358204 0.32455045 -2.3855205 0.2938283
000120 aa 52 c0 bf df 90 45 3f d6 44 2d 3f ab f0 09 c0
       -1.5025227 0.7717418 0.6768316 -2.1553142
000130 a2 b0 b4 bd cf 3a bf bf af ef 1b bf 53 ae 86 3f
       -0.088227525 -1.4939822 -0.60912603 1.052195
000140 6d 3f 25 bf dd 1a 3e 40 97 0d c2 3e c6 f6 aa 3f
       -0.64549905 2.9703896 0.37900993 1.3356559
000150 09 01 a1 3e 76 82 08 c0 fe cf 64 40 1d 6a 32 3e
       0.31446102 -2.1329627 3.5751948 0.17423292
000160 70 41 ed 3f ba 08 ae be 09 12 95 bd 23 d4 30 40
       1.8535595 -0.33991033 -0.072788306 2.7629478
000170 52 ab 39 3f bf 32 2a bf 56 f3 c2 3f 70 9d 6f bd
       0.7252704 -0.6648368 1.523051 -0.058499753
000180 13 ba 33 3f b3 fe ed bf 93 30 32 3f 03 d0 28 c0
       0.702058 -1.8593353 0.6960537 -2.637696
000190 cc f2 92 3e 30 41 3a 3e ed 8d 00 c0 d5 01 7b 3b
       0.28700864 0.1818893 -2.0086625 0.0038300653
0001a0 ca 7d ce bf ab 2c 64 3f b2 c5 82 3f ac 21 39 c0
       -1.6132138 0.8913066 1.0216582 -2.8926802
0001b0 21 51 22 3f 6c 7e 94 bf 01 b4 5a bf 57 ab 8f 3f
       0.6340504 -1.1601081 -0.85430914 1.1224164
0001c0 a6 25 8b be e2 b2 24 40 94 88 9c 3e 50 29 14 40
       -0.2717716 2.5734181 0.3057295 2.3150215
0001d0 65 e0 8c be 93 e3 99 3e 1e 8b 6b 40 91 47 81 3f
       -0.2751495 0.30056438 3.680366 1.0099965
0001e0 2a 4d 3c 3f b3 f1 a0 3c 7c 43 97 bf 08 38 06 40
       0.73555243 0.019646501 -1.181747 2.0971699
0001f0 c0 b4 d8 3d 0a 40 1c 3f ca 44 69 bf bf c1 ec bf
       0.1058135 0.61035216 -0.9112059 -1.8496627
000200 90 fd 30 bf 03 58 77 40 f2 10 45 3e 25 85 9a 3f
       -0.69136906 3.8647468 0.19244745 1.2071882
000210 31 91 8b bf 7f e7 1f 3f 39 aa 7a 40 11 b0 9e bd
       -1.0903684 0.6246261 3.9166396 -0.07748426
000220 c9 49 cf 3e e8 72 d5 3d c3 74 cf bf 90 e7 d5 3f
       0.4048598 0.10422307 -1.6207508 1.6711292
000230 70 97 7f bd e4 cf d9 3f 19 52 9d be ba ea 1d c0
       -0.06240028 1.7016568 -0.30726698 -2.4674516
000240 aa 1e e9 be d4 56 03 40 33 60 e1 3e 2a b0 34 3f
       -0.45531207 2.0521746 0.44018707 0.70581305
000250 f3 a7 01 be 53 b7 c6 3d 83 a6 23 40 a8 37 f5 3a
       -0.12661724 0.09702935 2.557038 0.0018708603
000260 dc a2 84 3f af 93 30 3e 62 46 4a bf f6 32 b3 3f
       1.0362201 0.17243837 -0.79013646 1.3999927
000270 df 19 a5 3f 18 af 36 3f 6b 00 c0 3d 0f 43 c7 be
       1.289852 0.7136092 0.0937508 -0.3891835
000280 80 9d 36 3f 18 0e 17 c0 1d 3a ee 3d 9e 48 0a c0
       0.71334076 -2.3602352 0.11632178 -2.1606822
000290 b4 df 32 3e 57 af 2c be 72 f2 e3 bf 41 23 f9 3d
       0.17468148 -0.16863762 -1.7808363 0.12164927
0002a0 74 1a b1 bf de 78 8d 3f fe 94 16 3f c1 a2 d3 bf
       -1.3836198 1.1052511 0.58821094 -1.6534044
0002b0 e1 71 30 bd f8 46 66 bf af 7e 43 bf 15 86 80 3f
       -0.043077353 -0.8995204 -0.7636518 1.0040919
0002c0 c6 00 93 3e a4 3a 09 c0 a7 03 84 3e 8e 8f 39 c0
       0.28711528 -2.1442041 0.25784037 -2.899387
0002d0 9d af ed 3e 79 52 55 be 4c 5f 22 c0 5e fa d9 3e
       0.46423045 -0.20832242 -2.5370665 0.42573828
0002e0 78 4e a4 bf 55 9e 37 3f e8 79 d0 3e ce 10 fe bf
       -1.2836447 0.7172597 0.40718007 -1.9848878
0002f0 55 18 c3 bc f7 45 c4 bf 81 e7 0b bf 29 f3 8f 3f
       -0.023815313 -1.5333852 -0.5465012 1.1246082
000300 af e6 05 bf 1f 14 4d 40 16 10 68 3e 70 94 d1 3f
       -0.5230512 3.204353 0.22662386 1.6373425
000310 7b 13 5b be 2a 3c c9 be 62 9f 73 40 b8 77 5c 3f
       -0.2139415 -0.39303714 3.806603 0.86120176
000320 c8 7b 03 3f 81 6f 2a 3f e3 b0 f9 be 39 c1 a2 3f
       0.5136075 0.6657639 -0.48767766 1.2715217
000330 2b bb a6 3e 44 74 52 be d8 11 4a 3f b8 0d b2 bf
       0.32564673 -0.20552164 0.7893348 -1.3910437
000340 a7 2e 54 3f 5c bc 1c c0 34 95 17 3f 9e 8a 26 c0
       0.82883686 -2.4489965 0.5921204 -2.6022105
000350 8c c1 f9 3e 66 c3 ad 3d b1 e1 38 c0 3d a1 ba 3e
       0.48780477 0.08484535 -2.888775 0.3645114
000360 68 65 d8 bf ec 15 0e 3f 1b 1b 1e 3f 75 45 14 c0
       -1.6905947 0.555022 0.6176011 -2.3167393
000370 ee 41 eb bc 4a 8b cd bf 10 eb 14 bf 54 76 ab 3f
       -0.028717961 -1.6058133 -0.58171177 1.3395486
000380 cb aa d5 3e fa a9 10 c0 aa 5d 44 be 1c 24 dc bf
       0.41731867 -2.2603745 -0.19176355 -1.719852
000390 84 56 ab 3e dc 0d 59 3f ca 74 83 c0 8b 2a 3e bd
       0.33464444 0.8478677 -4.1080065 -0.04642729
0003a0 39 ef 9d be 54 c5 5b 3c 43 0f fc 3d fd f5 02 c0
       -0.30846575 0.013413746 0.123075984 -2.046264
0003b0 f5 8d 9c 3e de 62 a7 bf 09 2b 42 bf 6e 33 98 3e
       0.30577055 -1.3077047 -0.75846916 0.29726738
0003c0 e2 79 f5 3d 0b dc 49 40 b6 35 2e 3f 8b c2 f8 3e
       0.11986138 3.1540554 0.68050706 0.48585925
0003d0 3d 85 13 3f 20 b5 49 bf 01 a1 6d 40 58 4a cb 3f
       0.5762518 -0.78792 3.712952 1.5882063
0003e0 3f 8c 1f 3f 5d 1d a9 3d b4 cb e6 be 71 86 09 40
       0.62323374 0.08257554 -0.45077288 2.1488307
0003f0 1d 7d 7c 3f d1 cd de 3e 96 0e 53 3f 6a 73 2f be
       0.9862841 0.435164 0.8244413 -0.1713387

4.bias f4 [16]
000000 71 71 06 3e ba 6b 20 3f ab 2d b4 3f 2d 11 81 3f
       0.13129212 0.6266438 1.4076437 1.0083367
000010 cc 7c 46 3f fd 46 a7 bf 4a fd 8c 3e 1e 8a bd 3d
       0.77534175 -1.3068539 0.27536994 0.092548594
000020 ed 1b 35 3f a2 65 8c 3c 32 82 59 3f e8 c1 26 3f
       0.70745736 0.017138306 0.8496429 0.6513963
000030 b9 10 32 bf d3 71 9a 3e ae b1 bb bd 25 42 82 bf
       -0.69556767 0.30164966 -0.09164749 -1.0176436

6.weight f4 [4, 16]
000000 23 df ff be 0a 8c ed be 75 7a 39 bf 6f e5 4b bf
       -0.49974927 -0.46395904 -0.7245248 -0.7964696
000010 4e b1 ef be 6c a6 82 40 5a cf 5a bf 3d 52 3b 40
       -0.4681496 4.082815 -0.85472643 2.9268944
000020 3b 3a 33 40 d1 02 00 40 03 c6 47 bf 60 9c e5 be
       2.800429 2.000172 -0.78036517 -0.44845867
000030 73 20 8b 40 78 d0 09 bf 88 ce 82 bd 57 40 70 40
       4.347711 -0.53833723 -0.06387049 3.753927
000040 84 e0 50 bf bf 83 9e bf 2b a7 01 3f 0f 7f 04 bf
       -0.81592584 -1.2383956 0.50645703 -0.51756376
000050 87 77 12 bf 8b 39 83 40 9f 4c 56 bf 72 7c f4 3f
       -0.57213634 4.1007743 -0.83710665 1.9100478
000060 33 25 1f 40 20 c3 b9 3f 20 ce 1f bf 71 77 07 bf
       2.4866455 1.4512672 -0.62423897 -0.5291663
000070 7f 2d 77 40 96 93 54 bf 7f 28 97 3c c0 8d 88 40
       3.8621519 -0.830377 0.018451927 4.2673035
000080 f3 43 7b bf b6 7a 6d bf 92 5d d8 be e4 86 5a bd
       -0.9815056 -0.9276537 -0.42258888 -0.053351298
000090 06 03 2b bf ea 8b 80 40 f1 10 e9 be ce 10 15 40
       -0.6680149 4.0170794 -0.45520738 2.3291507
0000a0 59 f1 31 40 c4 18 dc 3f 7f 29 78 bf 7c 45 6f bf
       2.7803557 1.7195058 -0.9693832 -0.934654
0000b0 72 c8 5e 40 97 03 5d bf 30 90 d2 be 56 06 8b 40
       3.4809842 -0.863336 -0.4112563 4.3445234
0000c0 9d 4c 77 be 21 b7 ad be 81 4b a8 bf ae 3b f0 be
       -0.2415032 -0.3392878 -1.3148042 -0.46920532
0000d0 b8 f0 3c bf ba 28 78 40 f3 2a 3a bf 04 44 32 40
       -0.7380481 3.8774858 -0.72721785 2.7854013
0000e0 37 37 31 40 9a e1 db 3f ba fa 98 bf 8b 60 38 bf
       2.768995 1.7178223 -1.1951516 -0.7202231
0000f0 bd d0 90 40 a3 b4 22 bf 8c 7a c1 3d b3 a9 7b 40
       4.5254807 -0.6355688 0.09447202 3.9322326

6.bias f4 [4]
000000 18 46 9f 3f 31 a2 77 3f 78 95 27 3e e4 5d e0 be
       1.2443266 0.9673186 0.16365612 -0.43821633
