LV6/lander/saved_models/dqn_LunarLander-v3_final_2026-01-13_17-52-00.pth (torch, 23505 bytes, 6 tensors)

0.weight f4 [64, 8]
000000 59 95 76 bc 90 60 92 3f cd d9 e3 be 5f 04 7d bf
       -0.015050256 1.1435719 -0.44502106 -0.98834795
000010 d5 f6 89 3f cb 8a dc be ff 05 49 bf 32 81 cd be
       1.0778452 -0.4307464 -0.78524774 -0.4013763
000020 1e 84 81 3e e7 f9 be 3d 72 78 eb 3d 40 52 66 3f
       0.2529611 0.09325009 0.114975825 0.89969254
000030 74 24 3a be 5b a2 8d bd 52 ed 22 bf 26 9f 31 be
       -0.18177968 -0.069157325 -0.6364337 -0.17345867
000040 9b 9e 2b 3e 5a 8d 03 3f c1 d4 f9 3e 07 e7 29 be
       0.16759722 0.5138756 0.4879513 -0.16592036
000050 3e ee 3e be 19 b8 01 3e 4e d3 41 3e ab 69 68 3e
       -0.1864557 0.12667884 0.18928263 0.22696559
000060 ab e7 58 be a8 d8 11 3f 02 7f 8f be 25 16 e6 bb
       -0.21182124 0.56971216 -0.28026587 -0.007021683
000070 7a d8 3c be c0 4f 5e bf 1d 9b 1a 3e 28 d3 ab be
       -0.18441954 -0.8684044 0.15098234 -0.33559537
000080 e7 03 15 bd 0c 47 74 3f 8a 91 a6 bc 2d 81 a4 bf
       -0.036380675 0.9542091 -0.02033307 -1.2851921
000090 b4 00 9f be 82 d4 aa 3e f2 36 46 3e 6d d3 d1 3e
       -0.31055224 0.33365256 0.19356897 0.40981618
0000a0 3a e7 5d 3e 74 90 ae 3f 71 c5 de 3c 4b 6a 2c 3f
       0.21670237 1.3637834 0.027193757 0.6734969
0000b0 ea f5 76 be af 86 b6 bc 28 67 27 bf 67 95 59 3b
       -0.24117246 -0.022281019 -0.6539178 0.0033200623
0000c0 3a 05 53 3f f1 5e 59 3d 68 eb 40 3f 44 a5 d5 be
       0.8242985 0.05306906 0.753592 -0.4172765
0000d0 25 8e 01 be 5e 33 6a 3f cb f1 1f 3f cd 5c 53 3e
       -0.1265188 0.9148463 0.6247832 0.2064087
0000e0 ea 94 fa 3e e2 2d ab 3e a9 e6 01 3e 62 87 c0 be
       0.48941737 0.33433443 0.12685646 -0.3760329
0000f0 94 7e 07 bf 05 19 48 bf 49 94 b8 be d7 89 1f 3f
       -0.5292752 -0.78163177 -0.36050633 0.623197
000100 68 af ac be 88 b4 33 be 87 e8 5c be 06 a8 71 bf
       -0.33727574 -0.17549336 -0.21573077 -0.9439701
000110 50 c2 45 be 4c 4f 0e be 65 cf 3a 3f 5d 53 87 3e
       -0.19312406 -0.13897437 0.7297271 0.2643079
000120 bf fc a0 bf 28 5a 41 3e 4d a5 82 bf 35 ee e3 3e
       -1.2577132 0.18882048 -1.0206696 0.44517675
000130 d4 49 73 3f e0 05 dd be 02 27 29 bf 0e 47 ba bf
       0.9503453 -0.43168545 -0.66075146 -1.4552934
000140 e8 8f 12 bf ab 02 96 be 5d a0 35 3f bd 40 85 be
       -0.57250834 -0.2929891 0.7094782 -0.26025954
000150 07 87 f4 3d d6 67 0f 3f 75 2d 26 bf c5 fd 01 c0
       0.11939817 0.56017816 -0.6491311 -2.0311139
000160 06 99 0a be ca 44 4e bd 1a 6e a6 3f 27 4a 72 bf
       -0.13534936 -0.05035857 1.300235 -0.946444
000170 d2 5b 78 be 7c e2 9d 3e ef ee 2f be 0f ae 4c bf
       -0.24253777 0.30836856 -0.1718099 -0.7995309
000180 09 a7 a6 3d 79 27 16 bf 58 d2 51 be b7 a1 27 40
       0.08137328 -0.5865398 -0.20490396 2.6192453
000190 0f 36 45 bf 8a b5 fd 3d 74 5d 48 3f f1 49 65 bf
       -0.7703561 0.123881415 0.782676 -0.8956595
0001a0 c0 66 1f bf 6a 2a 36 bd 02 f1 9f 3d 7e 96 8e bf
       -0.6226616 -0.044474043 0.078096405 -1.1139677
0001b0 72 09 03 40 28 e4 ce bb 8d 00 c3 3e 88 c6 28 3f
       2.0474515 -0.0063138194 0.38086358 0.65927935
0001c0 e9 d1 07 bf c8 96 9e be f4 70 94 3e 7d 0a 08 bf
       -0.5305467 -0.30974412 0.28992426 -0.53141004
0001d0 09 02 fd be 98 2d 51 3f 93 a4 02 3e 38 1c 09 be
       -0.49415615 0.81710196 0.12758093 -0.13389671
0001e0 37 0b 8b 3d 50 22 34 3f ef 8b 99 bc 2f 07 20 3f
       0.067892484 0.70364857 -0.018743483 0.6251096
0001f0 23 56 59 3f 63 1a 60 3e 87 33 b7 3d 93 07 a5 be
       0.8489706 0.21885066 0.08945375 -0.3223234
000200 0f 92 5a 3d e2 15 bc 3e 8e a9 ab be 76 7e 42 bf
       0.05336195 0.36735445 -0.33527797 -0.75974214
000210 f6 86 86 be c7 72 0b 40 9f 41 15 bd 92 0c f6 be
       -0.26274842 2.1788805 -0.036439534 -0.48056465
000220 16 71 a6 be 67 d9 1d bd 62 a7 a4 3f dc 28 58 bf
       -0.32508153 -0.03853741 1.2863581 -0.84437346
000230 b8 d6 77 3f 49 3d 9c be 92 7e 20 be da b0 38 3e
       0.9681201 -0.30515507 -0.15673283 0.18036214
000240 cd 06 6f bf 1d f3 32 40 ac bb 9b 3f 1f e6 42 40
       -0.9336975 2.7960885 1.2166648 3.0452955
000250 94 df 84 be 26 4e 91 be db 40 f7 bc af 85 61 3e
       -0.25951827 -0.28379935 -0.030182293 0.22023652
000260 68 dc a0 3e a6 38 52 3f f3 68 0a be bf bf 0c c0
       0.31418157 0.8211769 -0.13516597 -2.1992033
000270 5f a9 e7 3d cc 50 1d be 0b 2e d6 3e 90 a3 2d 3c
       0.11311602 -0.15362853 0.41832003 0.010598078
000280 db 22 97 bf 59 7e 33 3f 9d 93 01 bd f2 c1 11 be
       -1.1807512 0.70114666 -0.031634916 -0.1423414
000290 25 86 64 3f e2 d9 84 3e 20 3d f9 bc d1 55 17 bb
       0.8926719 0.2594748 -0.030424654 -0.0023091922
0002a0 19 aa 5c bf 70 4e 84 be af 70 de 3f 56 33 31 3d
       -0.8619705 -0.25841093 1.7378138 0.04326185
0002b0 05 71 e0 bf 51 60 2a 3e b2 f2 ad bf 7f 5e 5e bf
       -1.7534491 0.16638304 -1.358969 -0.8686294
0002c0 fb 37 45 bf 92 86 5b be eb c9 2b 3f 70 66 a2 be
       -0.77038544 -0.21438053 0.6710498 -0.3171878
0002d0 76 7a a1 3e 05 21 9b be 8d d2 ae 3d 24 10 9c 3d
       0.31538743 -0.3029863 0.08536253 0.07620266
0002e0 7d 09 bb be 2a 1b cc 3e 08 43 32 bf 70 5d f3 3d
       -0.36530676 0.39864475 -0.6963353 0.11883056
0002f0 f8 51 2f bf ca cd 3c bf 85 6d c1 3d 44 67 f2 be
       -0.6848445 -0.7375151 0.09444717 -0.4734441
000300 c7 13 f4 3e 40 52 2a 3f 1e ba 70 3f 3b 4b c5 be
       0.4767134 0.66531754 0.9403399 -0.3853396
000310 9e ab 28 bf 52 34 cb bd e5 76 25 bf c3 9c 23 be
       -0.6588687 -0.09922089 -0.64634544 -0.15977769
000320 3d 04 9f bf 46 c2 78 3f 45 20 89 bf 94 1d c3 bf
       -1.2423168 0.9717144 -1.0712973 -1.5243402
000330 57 58 b1 3f 2e fb 4b 3f 1e 26 12 be ee 40 05 bf
       1.3855084 0.79680145 -0.14272353 -0.520522
000340 a0 e0 3c 3f 91 a7 31 3e c6 11 11 bf 12 4c 49 be
       0.7378025 0.17349078 -0.56667745 -0.19657925
000350 8b 73 9a 3f 04 7d 36 3f d0 b3 54 bc 69 02 40 be
       1.2066511 0.7128451 -0.012982324 -0.1875092
000360 42 b8 be be 18 ff 40 3e 7a 3c 17 bf cb b8 1f bf
       -0.37249953 0.1884731 -0.59076655 -0.62391347
000370 43 25 03 3e 75 08 9a bd f4 bb b5 3e c7 2e 27 3f
       0.12807183 -0.07521144 0.3549496 0.6530575
000380 fd d9 25 bf 47 65 01 3f ff 46 36 3f 3e 92 69 3f
       -0.6478575 0.5054516 0.7120208 0.9123877
000390 30 10 2c bf 0d 5d b9 3f 5f a5 8f 3d 60 d0 38 3d
       -0.672122 1.4481522 0.07013964 0.045120597
0003a0 3a 6a 08 bf d3 eb 26 be 55 ed 29 3d 6e 2b 52 3f
       -0.5328709 -0.16300897 0.041486103 0.8209752
0003b0 fd 0d a9 bf a0 4a 51 3e d1 15 8e 3f 3d f9 4b bf
       -1.3207394 0.20438623 1.1100408 -0.7967718
0003c0 23 78 6e 3f 0b c7 01 3e 38 57 bf bf ea 1e 82 bf
       0.93152064 0.12673585 -1.4948492 -1.0165684
0003d0 b3 35 cf be f4 50 ab bf 8a b1 d7 be 45 8c b3 be
       -0.40470657 -1.338408 -0.4212764 -0.35067955
0003e0 b8 2e 4e bf 1d f3 1b 3f 35 8f 2c 3f ca da 8e bf
       -0.8054004 0.60917836 0.67406017 -1.1160519
0003f0 bf 74 01 bf 93 f1 20 be 26 6f fd bd 8a f8 9d bf
       -0.50568765 -0.15717153 -0.123747155 -1.2341473

0.bias f4 [64]
000000 2f 11 7c be ca 21 5d bf 36 10 4e 3f 0a c1 3b bf
       -0.2461593 -0.86379683 0.80493486 -0.7334143
000010 ad e8 cd 3e 10 a3 48 3f 28 12 40 bf b3 52 35 bf
       0.4021658 0.78373814 -0.75027704 -0.70829314
000020 b2 48 20 3f a0 d9 06 bf e6 20 68 3f fc 07 81 be
       0.62610924 -0.5267582 0.906752 -0.25201404
000030 25 e1 05 bf 5a 82 66 3f a1 45 55 3f 3a 5b 8a 3f
       -0.5229667 0.9004265 0.8330937 1.080909
000040 b2 1e 38 3f 57 96 43 3f 26 a3 f1 3e bb c2 e9 3d
       0.7192184 0.76401275 0.47194785 0.11414095
000050 bb 70 23 3f e2 c2 68 bf 1d ac fc 3e 6d cd 41 bf
       0.6384389 -0.9092237 0.49350062 -0.7570408
000060 db c5 84 3e 45 7a 33 3f a7 a1 5c bf 35 8c 08 be
       0.25932202 0.70108443 -0.8618416 -0.13334735
000070 00 a6 2b 3f d3 82 4f bf 83 4f 3b bf 73 03 0a bd
       0.6705017 -0.81058997 -0.731682 -0.033694696
000080 75 1c 16 3f 1d 76 7e 3f 17 8c 0f bf f0 a9 06 3f
       0.5863717 0.99398977 -0.56073135 0.52603054
000090 a8 ca c4 3e 95 54 87 3e 7f a1 6b 3e d6 50 2b 3f
       0.38435864 0.26431718 0.23010825 0.6692022
0000a0 39 d0 a8 3e 1a 33 77 be 90 6a d1 3e 7f ba 22 3d
       0.3297136 -0.24140587 0.40901613 0.039728638
0000b0 76 a4 6e bd 5f 0f ed bd b3 84 95 3e 53 15 ae be
       -0.05826231 -0.115751974 0.29202804 -0.34000644
0000c0 48 ba 3b 3f a7 1e 00 bf 17 9d 31 3f 5c b0 16 3f
       0.7333112 -0.5004677 0.69380325 0.58862853
0000d0 23 76 8c bf c2 67 bb 3e 96 75 c0 be 5e d4 79 3f
       -1.0973552 0.36602598 -0.3758971 0.9758967
0000e0 d3 b3 82 bc 50 e8 87 3f 25 e9 2d be 3d 7d 0f 3f
       -0.015954887 1.0617771 -0.16983469 0.56050473
0000f0 7c fa 43 3f 68 07 87 be 96 03 43 3f cc 44 2f 3f
       0.76554084 -0.26372838 0.76177347 0.6846435

2.weight f4 [64, 64]
000000 9d 5b 0e bf 09 aa f0 3f 2d 43 33 be 58 7e bf bf
       -0.5560854 1.8801891 -0.17506094 -1.4960432
000010 00 65 1f 3f 59 3f 16 3e ad 62 cb 3d 33 29 12 3e
       0.6226349 0.14672603 0.0993093 0.14273529
000020 ef 08 24 bf d8 98 07 bd d5 11 29 3f 41 43 6e 3f
       -0.6407613 -0.033104748 0.66042835 0.9307137
000030 32 88 4e 3e 92 2e 1b 3f 36 ba f8 3d 67 17 18 3a
       0.20169142 0.60617936 0.12144892 0.0005801827
000040 ae fd 5b be 12 9d e8 be 1b 16 21 3f 14 ae ff 3d
       -0.2148349 -0.45432335 0.62924355 0.12484375
000050 34 ee 60 3e 4d 4c 5d bf 7e df f9 3d 15 3a 14 3d
       0.21965867 -0.8644455 0.12200831 0.036188204
000060 26 1a 6f bf 47 d0 5d 3f cb 32 e2 3f 4d fe 00 c0
       -0.93399274 0.8664593 1.7671751 -2.0155213
000070 e6 a4 bf bd 1c eb 1c 3d ba 5b eb be 17 92 cd bd
       -0.09357624 0.038310155 -0.4596842 -0.1003763
000080 ee a3 95 bf 43 82 a6 bd 5d 94 1a 3f ba 8b 53 be
       -1.1690652 -0.08130314 0.60382634 -0.2065877
000090 73 06 61 3c a4 f0 eb be a3 2a 03 bf d6 6f 83 bd
       0.013734448 -0.46082032 -0.51236933 -0.064178154
0000a0 af 70 10 3e 2d 61 e6 3e e9 32 8b 3d 6c cc 95 bd
       0.14105485 0.44996014 0.0679682 -0.07314381
0000b0 49 3d 63 bf 4d e4 2e bf 89 a5 80 bb da 26 14 3f
       -0.8876539 -0.6831711 -0.0039259833 0.5787178
0000c0 c2 01 0c 3e 19 3b b7 bf cc b8 2a 3e a9 2e 15 3f
       0.13672546 -1.431491 0.16672057 0.5827432
0000d0 9b 86 c1 bf 9b 92 a7 3e a3 95 9e 3f 94 9f 34 be
       -1.5119203 0.3272904 1.2389416 -0.17638999
0000e0 fb a0 c2 be da cd 8c bd 31 f2 87 3d 5d ae 85 3f
       -0.38013443 -0.068752006 0.06637991 1.0443836
0000f0 e5 01 8d 3f 0e a4 66 bf 27 2f 35 be f6 f1 d4 3d
       1.1016203 -0.9009408 -0.17693768 0.10397713
000100 43 b9 7b 3e c5 ae ab be 8e 12 cd 3e 64 c5 15 bf
       0.2458239 -0.33531776 0.4005322 -0.5850432
000110 c0 f1 49 3d bb ce d4 be 86 81 98 bb b8 68 67 bf
       0.049302816 -0.41563973 -0.0046541123 -0.90394163
000120 e7 a8 0f bd 93 cd 1f be a4 03 5d 3e de 33 69 bf
       -0.035073187 -0.15605764 0.2158342 -0.9109477
000130 a8 c8 95 be f4 be 9e bd 6f dc b6 3e fa c5 23 3f
       -0.2925465 -0.07751265 0.35715052 0.63973963
000140 a8 e4 1f 3f d2 2a d5 3f 78 1f 7d bf 44 22 04 3f
       0.62458277 1.6653693 -0.9887614 0.51614785
000150 d6 44 b9 3e b7 98 8c 3f 87 8c b8 3e 22 a0 b2 bd
       0.3618533 1.0984105 0.36044714 -0.08721949
000160 a8 11 d7 3e 87 82 2f bf c4 77 b3 be 85 52 00 be
       0.42005658 -0.68558544 -0.3505231 -0.12531479
000170 20 60 3c 3f ff e8 2e 3e a8 a1 b7 3f 8e bc c5 3f
       0.73584175 0.17081068 1.4346209 1.5448167
000180 56 76 b1 3f 02 3b ea 3e 21 0b a3 be 1e 66 66 3f
       1.3864238 0.45748144 -0.31844428 0.8999957
000190 c4 7e 03 bf 96 3a d6 bf 56 6f 95 bf fe 45 ac 3d
       -0.51365304 -1.6736629 -1.1674602 0.084117875
0001a0 19 89 ce 3b 1f 03 8d bf 0b 7e 25 bf 33 11 ab 3f
       0.0063029644 -1.1016577 -0.6464545 1.3364624
0001b0 ba 58 c2 3e 7f c0 92 be 31 2c bc be 6b 50 08 40
       0.37958318 -0.28662488 -0.36752465 2.1299083
0001c0 74 84 a7 3e e9 81 09 bf 35 ed 99 3e 12 55 80 3f
       0.3271824 -0.5371385 0.30063787 1.0025961
0001d0 2a 5a ef 3e c9 99 20 bf 52 74 f2 be b1 14 39 3f
       0.46748477 -0.6273466 -0.4735437 0.722972
0001e0 60 82 15 bf e7 09 88 3e 62 59 a7 be 5e 74 81 3e
       -0.5840206 0.26570055 -0.3268538 0.25284094
0001f0 9c bf 5f 3f ef eb 30 3e 25 ab 47 3f bb 1f cc 3e
       0.8740175 0.17277502 0.7799552 0.39867958
000200 22 3d 84 be b5 4b 37 3f 6e 08 30 be 01 e7 1e 3f
       -0.2582789 0.71599895 -0.17190716 0.62071234
000210 f3 2a 3d 3e 4b c2 1a 3e 00 1e 04 3f 33 cf 90 3f
       0.18473415 0.1511318 0.51608276 1.1313232
000220 2b 8a 0d 3f 42 f0 c8 bf 97 75 bb be f1 79 ae 3f
       0.5528895 -1.5698321 -0.3661315 1.3630964
000230 cb c2 83 3e 8b 26 4e be 9b 17 b0 3d 4f 89 2e bf
       0.25734553 -0.2013189 0.085982524 -0.68178266
000240 0a 06 41 be 04 a0 a1 bf 83 29 3a 3f cb 26 91 be
       -0.1884996 -1.2626958 0.7271959 -0.2834991
000250 69 d8 0b bf 4a be c1 be 5c 6f 27 3d e3 01 ac 3e
       -0.5462709 -0.37840492 0.040877685 0.3359519
000260 55 9e 14 3f b4 54 18 3d 82 c0 bc 3e bd a7 06 3f
       0.58054096 0.037190154 0.36865622 0.525997
000270 44 fe 0d bf 94 4a 82 3f ab e7 84 bf 33 7d c1 be
       -0.55466104 1.017901 -1.03832 -0.37790832
000280 5a 7a 79 bf 1b 85 cb bd 5c 85 b3 3f 88 80 7e bf
       -0.9745232 -0.09937497 1.4025073 -0.99414873
000290 1f 90 3e 3e 55 77 81 3e 11 2f 3f 3f e6 82 06 3f
       0.18609665 0.25286356 0.7468119 0.52543485
0002a0 0c 12 8e 3e 19 d3 8a 3c e2 7d cf 3e a1 d0 46 bf
       0.27748144 0.016946362 0.40525728 -0.7766209
0002b0 6a 6a 10 3f 70 1a 80 3f de 33 d7 3e 3d 3b e3 bf
       0.56412375 1.0008068 0.4203176 -1.7752453
0002c0 5c fa 3c be d4 04 68 3f eb 31 80 be 86 c1 9e bf
       -0.1845488 0.9063237 -0.25038084 -1.2402809
0002d0 78 28 07 c0 48 94 12 3f cc ba e1 3f 30 f1 7c be
       -2.111845 0.5725751 1.7635131 -0.2470138
0002e0 58 2c 0d 3f 5a 50 2d 3e 65 84 2d 3f 3c 18 a4 be
       0.5514579 0.16925183 0.67780143 -0.3204974
0002f0 74 da a7 bd e7 50 8f 3e 93 8f 0f bf be cc ff 3c
       -0.081959635 0.2799141 -0.5607845 0.031225558
000300 26 63 51 be e4 18 42 3f 7d 15 19 bd 0d 6c f1 3e
       -0.20447978 0.7581923 -0.03737401 0.4715275
000310 86 06 7b 3f 88 15 b1 3e 75 78 29 3e 52 2b a3 3f
       0.9805683 0.3458674 0.16549857 1.2747595
000320 f7 ad 92 3e 04 b9 be bf 66 7b 62 3c c0 25 9e 3f
       0.2864835 -1.4900212 0.013823366 1.235527
000330 62 98 fa 3e 10 3b c1 3e 59 d5 73 3c 25 dd be be
       0.48944384 0.37740374 0.014882409 -0.37278095
000340 13 8a 9f 3e 50 00 4c bf 4a b4 64 3f 6b 41 81 3e
       0.3116003 -0.79687977 0.893376 0.25245222
000350 2c 82 4b bb d6 a1 2b bf 8f 60 04 3f 19 a0 3a 3f
       -0.003105293 -0.6704382 0.51709837 0.7290054
000360 7a 13 61 3f 9d 3f 28 3f eb ba a3 3f 9b 66 04 3f
       0.87920344 0.65722066 1.2791418 0.51719064
000370 2f f3 2d bf c5 a6 8e 3e 88 72 97 bf e7 05 95 be
       -0.67949194 0.2786161 -1.1831827 -0.29106066
000380 4c 3a 4e bf 76 5f 93 3e 29 fc a3 3f 02 7a 0d bf
       -0.80557704 0.28783768 1.2811328 -0.55264294
000390 56 5e 51 3d 0e 8d 67 3f 9c c6 64 3f 13 ce ba 3e
       0.051115356 0.9044961 0.89365554 0.36485347
0003a0 71 84 a8 3e 62 70 ac 3f 31 37 eb 3e 25 fe dc be
       0.32913545 1.3471797 0.45940545 -0.43162647
0003b0 ca 98 01 3f 93 31 35 3f 9e 5c 13 3f 77 be d1 bf
       0.5062376 0.7077877 0.575632 -1.638625
0003c0 86 8a fe 3d 39 58 bd 3e 8e dd bb 3d f3 c3 bb be
       0.12428765 0.3698137 0.091731176 -0.36672935
0003d0 35 34 95 bf 0f ed 68 3f a5 65 e7 3f 0c 74 aa be
       -1.1656557 0.9098672 1.8077894 -0.33291662
0003e0 fb 64 4a 3f 16 62 83 3e 88 dc a2 3f 28 00 02 3f
       0.79060334 0.2566077 1.2723551 0.5078149
0003f0 0a 5b 54 3e 99 32 d5 3e a5 0f 2d be 55 59 91 3e
       0.20737854 0.41640165 -0.16900499 0.28388467

2.bias f4 [64]
000000 26 91 b5 3e 5e e6 3e 3f 8a 04 ed be 3c ff 1d be
       0.35462302 0.7457026 -0.46292526 -0.15429395
000010 0c 4f 74 be 6f b0 e8 be e4 05 af be e0 0b 12 3f
       -0.23858279 -0.45447108 -0.34184182 0.5704937
000020 9e ab 66 3e 4f 6a 00 3f ed 45 37 bf 87 0c 4e bd
       0.22526404 0.50162214 -0.71591073 -0.050304916
000030 b2 67 b8 3b d7 51 2e 3f 09 eb 17 3f 83 80 45 be
       0.005627596 0.6809363 0.5934301 -0.19287305
000040 e0 96 03 3d 6c 65 a3 be e7 48 f3 3e c3 7f 8a 3c
       0.032126307 -0.31913316 0.47516558 0.016906625
000050 a7 c5 99 3d 27 77 78 3d 77 d6 db be b2 8b 31 3f
       0.07508402 0.060660508 -0.4293706 0.69353783
000060 fd c0 3b 3f 2b b8 06 3e c2 fe 0c 3f 00 a4 5d be
       0.7334135 0.13156192 0.5507623 -0.21644592
000070 b2 0f b3 3e cc b5 ba 3e cd 0f c5 3e 6c 2a a1 be
       0.34972912 0.36466825 0.38488618 -0.31477678
000080 44 5d d3 3e 72 e4 a9 3e 6d f5 d3 3d 3f 95 01 3f
       0.41282094 0.33182102 0.10349546 0.50618356
000090 75 88 00 3f 77 84 c1 be 2a 22 ca be bf be 57 3e
       0.50208217 -0.37796375 -0.3947919 0.21068858
0000a0 c6 93 ba 3e a1 4a 5d 3e dd 10 d8 be a9 1f 16 bd
       0.36440867 0.216105 -0.42200366 -0.036651287
0000b0 0f 7c 93 be 41 0f c9 3c b9 e0 45 3f 7e 72 42 bf
       -0.28805587 0.024543406 0.77296025 -0.7595595
0000c0 1f 25 75 bf 0f bb d2 be 3c 52 98 3c cc 7f 47 bf
       -0.9575977 -0.4115834 0.0185939 -0.7792938
0000d0 b6 d3 a8 3d f3 41 24 bf 62 f1 d0 be 14 16 d6 3d
       0.08243506 -0.6416313 -0.4080916 0.1045343
0000e0 19 66 16 bd ad 7a 3d 3f 4a a0 82 3d 71 e2 aa be
       -0.03671846 0.74015313 0.06378229 -0.33375886
0000f0 36 c0 17 3f b6 12 c4 bc ce 09 e4 be 65 a6 97 be
       0.59277666 -0.023934703 -0.4453873 -0.29619136

4.weight f4 [4, 64]
000000 b0 37 0f bf d4 ce a6 3f 9e 56 b3 bf 6d ae 4c bf
       -0.5594435 1.3031869 -1.4010808 -0.7995365
000010 5b be 61 bf 53 7e 52 bf 0a c6 57 bf 6a b1 c8 3f
       -0.88181084 -0.82224005 -0.8428656 1.5679142
000020 5c 20 69 3f 58 5b f5 3f d9 12 86 bf ed 1e 19 40
       0.91065 1.9168501 -1.0474502 2.3925126
000030 7c 33 4f bf 7e b2 fb 3f e9 09 a6 3f 05 14 3c bf
       -0.80937934 1.9663846 1.2971774 -0.7346805
000040 01 0b fc 3f a1 c4 30 40 45 24 4d 3f 86 39 62 bf
       1.9690858 2.7620013 0.8013347 -0.88369024
000050 25 ff e2 3f 3e 0a 7b bf 36 bc 8a bf 0b aa a0 3f
       1.7734114 -0.98062503 -1.0838687 1.2551893
000060 54 4e d7 3f 48 b3 5c 3f 99 25 b7 3f a9 0c 32 bf
       1.6820779 0.8621106 1.4308349 -0.6955057
000070 ec f5 a8 be 3c c4 90 3f c5 03 64 40 0f 64 36 bf
       -0.33000124 1.1309886 3.56273 -0.7124643
000080 ec dd 24 40 23 8f c4 3f a7 03 55 3f cf d3 f0 3f
       2.576045 1.5356182 0.832087 1.8814639
000090 a8 2c e8 3f 2b fd 25 3f ec bf 82 bf 2a a8 23 40
       1.8138628 0.6483943 -1.021482 2.557139
0000a0 08 77 bf 3f 96 08 be bf 33 b7 db bf ae 8c f1 be
       1.49582 -1.484637 -1.7165283 -0.47177643
0000b0 b8 a7 84 bf 5f de 3c 40 8c 9b a7 3f 11 38 37 bd
       -1.0363684 2.9510725 1.3094344 -0.044731203
0000c0 f6 16 bf bf bb f3 15 bf 04 67 b4 be 20 c5 08 c0
       -1.4928882 -0.5857503 -0.35234845 -2.1370316
0000d0 13 0c fe be 08 25 fb bf be 62 86 bf 9b 9d 46 bf
       -0.49618587 -1.9620676 -1.0498884 -0.77584237
0000e0 60 20 3a 40 94 8d 82 3f 8f cd 4d bf d6 73 95 bf
       2.908226 1.0199456 -0.8039178 -1.1675975
0000f0 9f d4 40 40 4f 10 ae bf 04 35 b0 3f 00 f0 49 bf
       3.0129774 -1.3598727 1.3766179 -0.78881836
000100 9d 97 8f bf 49 2f d1 3f bf 11 a4 bf a0 8d 45 bf
       -1.1218144 1.6342555 -1.2817916 -0.7716923
000110 1e e0 ec be 26 63 02 bf 15 fa c3 be ec 6b ca 3f
       -0.46264738 -0.5093254 -0.38276735 1.5814185
000120 4d 1e 89 3f 04 7f f8 3f 6e ba 20 bf 15 6f 13 40
       1.0712372 1.9413762 -0.6278447 2.303655
000130 36 72 59 bf 6b cc f6 3f c1 0f db 3f 9a 2a 17 bf
       -0.849399 1.9281133 1.7114183 -0.5904938
000140 9c fc 01 40 e1 31 2e 40 b1 fa 9c bf 1f aa 80 bf
       2.031043 2.7217944 -1.2264005 -1.0051917
000150 a0 6e c4 3f c1 91 52 bf 2b 32 8e bf 06 74 8b 3f
       1.534626 -0.8225365 -1.110906 1.0894783
000160 57 fa b4 3f 56 fb 8f 3f 0e c7 df 3f cd 04 2a bf
       1.4138898 1.1248577 1.7482622 -0.66413575
000170 81 14 6c bf 9b 43 b0 3f cf e4 28 40 5e 78 0a bf
       -0.92218786 1.3770632 2.6389654 -0.54089916
000180 17 dc 15 40 5b 64 0d 40 66 cf fe 3e ae 15 d9 3f
       2.3415582 2.2092502 0.49767607 1.6959741
000190 a8 31 b8 3f 25 43 e1 be fb 6a 76 bf b6 93 26 40
       1.4390154 -0.4399654 -0.9625699 2.6027656
0001a0 ed 13 b7 3f db 9b bf bf 47 4e 3f c0 1d f1 26 bf
       1.4302956 -1.4969438 -2.9891527 -0.6521166
0001b0 1c 53 e7 be f1 2c 38 40 d7 c2 86 3f d1 24 34 3e
       -0.45180595 2.877743 1.052821 0.1759217
0001c0 3b 33 e7 bf f5 6a 34 bf 5d 3a 74 bf d6 4c 50 bf
       -1.8062509 -0.70475703 -0.95401555 -0.8136724
0001d0 84 a7 55 bf 33 8d 37 c0 2b 9a 7f bf 5a be 3f bf
       -0.83458734 -2.867993 -0.99844617 -0.7489983
0001e0 fe 23 1d 40 cd b8 66 3f dc f6 0f bf 1e b8 97 bf
       2.4553218 0.90125734 -0.5623605 -1.1853063
0001f0 69 54 2f 40 66 6b c5 bf ca d6 c6 3f a4 08 17 bf
       2.739527 -1.54234 1.5534298 -0.5899756
000200 a3 a8 b8 be 90 ae bd 3f 52 36 3f bf 72 5d 03 bf
       -0.3606616 1.4818897 -0.7469226 -0.5131446
000210 3c 69 b9 bd c6 32 a8 be b9 b5 3c be 7c 9c ba 3f
       -0.09053275 -0.32851237 -0.18428697 1.4579005
000220 0e 8a 9e 3f 5f 3f 0a 40 94 d1 c2 be 3c 42 8e 3f
       1.2385881 2.1601179 -0.3805052 1.1113963
000230 05 ff 1f bf e4 0c 8b 3f 35 45 f7 3f 04 b6 4d bf
       -0.62498504 1.0863309 1.9317995 -0.8035586
000240 7f 9f 07 40 41 06 37 40 db 89 f6 bf bc ea 17 bf
       2.1191099 2.8597567 -1.926082 -0.5934255
000250 39 ee f4 3f 44 76 a6 bf 7d 64 b9 bf 0b cf b5 3f
       1.91352 -1.3004842 -1.4483792 1.420381
000260 7a c3 d1 3f a2 9f 0c 40 ab 3a b9 3f 50 c2 44 bf
       1.638778 2.1972432 1.4471029 -0.76859
000270 f5 57 78 bf 25 eb c8 3f 48 4a 5c 40 2c 7b de be
       -0.9700921 1.569676 3.4420338 -0.43453348
000280 d0 ca 43 40 74 b1 c0 3e 12 c0 8f 3f b9 cf 8a 3f
       3.0592537 0.37635386 1.123049 1.0844642
000290 7d 9e 63 3f 76 44 b1 3f 3b 30 a7 bf 8b cc 2d 40
       0.8891371 1.3849018 -1.3061594 2.7156093
0002a0 f5 4f dc 3f 3c 23 cf bf 13 62 b9 bf 4f 32 da be
       1.7211901 -1.6182628 -1.4483055 -0.42616507
0002b0 af a3 88 bf 87 a9 24 40 56 29 86 3f 0e 7c 0c bf
       -1.0674952 2.5728471 1.0481365 -0.5487679
0002c0 f6 bb 05 c0 73 0a 20 be 5c 4a f8 3b 26 87 f0 bf
       -2.0895972 -0.15628986 0.0075772237 -1.8791244
0002d0 e6 8d b8 bf f3 64 27 c0 cf 5a cb bf 70 43 ab bf
       -1.4418304 -2.6155365 -1.5887088 -1.3379955
0002e0 9f 55 27 40 44 ec c2 3f 54 8a 87 bf 68 e2 b3 bf
       2.614601 1.5228353 -1.0589089 -1.4053469
0002f0 e5 6b 4e 40 b7 91 45 be 3b 64 10 40 39 e9 25 be
       3.2253354 -0.19293867 2.2561176 -0.16202249
000300 34 87 57 3f 9a 16 cc 3f cb e2 7e bf bb 8c 37 bf
       0.8419068 1.5944397 -0.9956481 -0.7169911
000310 30 35 3e bf 1e bf 5f bf b1 30 3d bf 7e 61 97 3f
       -0.7429991 -0.87400997 -0.7390242 1.1826627
000320 d6 2f c5 3e 8f 82 ea 3f b4 6c 8d bf 38 bd 0c 40
       0.38513058 1.8321093 -1.1048799 2.199049
000330 97 ac 41 bf e7 18 b0 3f 99 17 a8 3f ed 65 32 bf
       -0.75653976 1.37576 1.3132201 -0.69686776
000340 de 53 de 3f c1 e3 22 40 5d 60 ad 3f 6b 72 5a bf
       1.7369344 2.545151 1.3545033 -0.8533084
000350 e2 22 f1 3f b7 40 80 bf b2 ae 87 bf 22 6b a6 3f
       1.883877 -1.0019749 -1.0600188 1.3001444
000360 90 da b3 3f a8 01 17 40 e5 8d 7c 3f 0d 95 42 bf
       1.4051075 2.359476 0.98654014 -0.76008683
000370 3a dd 85 be c2 a4 8a 3f d1 77 44 40 be 9d 58 bf
       -0.26145345 1.083153 3.069813 -0.84615695
000380 9e 36 3d 40 4f a3 03 40 b3 bb 9e 3f a5 54 fc 3f
       2.9564586 2.0568426 1.2401031 1.9713331
000390 52 ff 95 3f e3 5e 7f 3f 1b 90 96 bf 30 7e 22 40
       1.1718543 0.9975416 -1.1762727 2.5389519
0003a0 1b 57 e9 3f 32 89 27 bf 26 e7 9f bf 56 6c 3e bf
       1.8229707 -0.6544372 -1.2492416 -0.7438406
0003b0 9a 59 50 bf 8e 35 31 40 33 9a bc 3f de 15 ae bf
       -0.8138672 2.7688937 1.4734558 -1.3600423
0003c0 39 e9 c0 bf eb 97 ca bf 51 40 22 bf d5 37 20 c0
       -1.5071174 -1.5827612 -0.6337939 -2.5034077
0003d0 1a 9e c5 be 35 d6 bf bf 84 a6 c4 bf 07 1e 33 bf
       -0.38597184 -1.4987246 -1.5363317 -0.69967693
0003e0 de 74 35 40 3c c2 83 3f 52 c3 8c bf fe b1 8c bf
       2.835258 1.0293651 -1.0997107 -1.0991819
0003f0 b7 e2 3a 40 d2 cd ea be 6c 88 1b 3f 57 8d 30 bf
       2.9200876 -0.45860153 0.6075504 -0.6896567

4.bias f4 [4]
000000 0f 3b d5 3e ac 4f e1 3c 01 02 c4 3d 31 76 73 3e
       0.4164662 0.02750381 0.09570695 0.23775555
