LV6/lander/saved_models/dqn_LunarLander-v3_final_2025-12-18_10-01-30.pth (torch, 23505 bytes, 6 tensors)

0.weight f4 [64, 8]
0	0x3f4f7ecd	0.8105286
1	0x3e9b7e74	0.30369914
2	0x3df56af1	0.11983288
3	0xbcc09b77	-0.023511631
4	0x3e8e6d08	0.2781756
5	0xbe63d901	-0.22250749
6	0xbf1dbaa1	-0.616129
7	0x3dde0bd7	0.10842102
8	0xbe7a4923	-0.24441962
9	0x3dc26c60	0.09493327
10	0xbf28be80	-0.6591568
11	0x3dafd3cc	0.08585319
12	0x3eb0013c	0.34375942
13	0xbeb2c2be	-0.34914201
14	0xbf65c256	-0.8974966
15	0x3cd32e5e	0.025778946
16	0x3db34861	0.087540396
17	0x3e774ea7	0.24151097
18	0x3dc89e4f	0.0979582
19	0xbe9f42a2	-0.31105524
20	0xbea30cce	-0.31845707
21	0xbed26c65	-0.41098323
22	0x3f368fd1	0.71313196
23	0x3e02ca38	0.12772453
24	0xbd809656	-0.06278674
25	0xbf2d62bb	-0.67728776
26	0xbd9cc8fd	-0.07655523
27	0xbebb5818	-0.36590648
28	0x3f2d65b6	0.67733324
29	0xbe465d42	-0.19371513
30	0x3ed15070	0.4088168
31	0x3ebbadeb	0.36656126
32	0xbf897bdc	-1.0740924
33	0xbf86d9a8	-1.0535173
34	0xbf2ed5a4	-0.6829474
35	0x3dbeaf1f	0.093107454
36	0xbea2ad2e	-0.3177275
37	0xbde23ba0	-0.11046529
38	0x3e5b3012	0.21405056
39	0x3e2e8acb	0.17045133
40	0x3f413f9f	0.75487703
41	0x3c7d965d	0.015477744
42	0x3dfc8aa6	0.123311326
43	0xbd153287	-0.03642514
44	0x3eb6b055	0.35681406
45	0x3ef6bdd6	0.48191708
46	0x3ec78170	0.3896594
47	0x3e10e8ab	0.14151256
48	0x3e3ebdce	0.18627092
49	0xc029250b	-2.642886
50	0xbf04779b	-0.51745003
51	0x3e723c1b	0.23655741
52	0x3e85b205	0.2611238
53	0x3d81ff9f	0.06347584
54	0x3ea2e978	0.31818748
55	0x3ed01d87	0.40647528
56	0x3ea3e446	0.32010096
57	0x3f1e0f75	0.61742336
58	0x3ec36c84	0.38168728
59	0xbeb23930	-0.34809256
60	0xbbd1d165	-0.0064031356
61	0xbf82e5c9	-1.0226375
62	0xbf4cef74	-0.80052876
63	0xbf137850	-0.5760546
64	0x3ce146e8	0.027499631
65	0xbd67d8b5	-0.056603152
66	0xbf6f60fc	-0.9350736
67	0x3fa3732d	1.2769524
68	0xbedb4dbf	-0.42832753
69	0xbf22b188	-0.6355214
70	0xbf5c7a66	-0.86124265
71	0xbeab36b4	-0.33440173
72	0xbdaf38a8	-0.08555728
73	0xbeb0bb28	-0.3451779
74	0x3fb9483e	1.4475172
75	0xbfa54b4f	-1.2913607
76	0x3b842603	0.0040328517
77	0xbf89e747	-1.0773705
78	0x3ee3511c	0.4439782
79	0xbe379ceb	-0.17930953
80	0x3e512127	0.20422803
81	0x3f7ac028	0.9794946
82	0xbf20719a	-0.6267334
83	0xbd68ef46	-0.056868814
84	0x3f0d6c81	0.5524369
85	0x3e175e07	0.14781962
86	0x3ebf5549	0.37369755
87	0xbefe12ba	-0.49623662
88	0x3e946110	0.28980303
89	0xbe9dc97e	-0.3081779
90	0xbf210912	-0.62904465
91	0x3ec9cb68	0.39413
92	0x3ecdadf7	0.40171787
93	0xbed96f69	-0.42467812
94	0xbf23af0c	-0.63938975
95	0x3da1531a	0.078771785
96	0x3e613eed	0.2199666
97	0xbf25f5c7	-0.6482815
98	0x3edcb65f	0.43107888
99	0xbeedb25c	-0.4642514
100	0xbe0083c4	-0.12550265
101	0x3e79381e	0.24337813
102	0x3f1662bd	0.5874441
103	0x3ee50d49	0.44736698
104	0xbf98f004	-1.1948247
105	0xbed4b46a	-0.41543895
106	0xbf6c60ff	-0.92335504
107	0xbf422b50	-0.7584734
108	0x3ee9ba73	0.45650062
109	0xbda2ecfb	-0.07955357
110	0xbdc79b22	-0.09746386
111	0xbd194688	-0.03742078
112	0xbd15b7e2	-0.036552317
113	0xbf12064c	-0.5704086
114	0x3f3de002	0.74169934
115	0xbf880289	-1.0625774
116	0x3e46732a	0.19379869
117	0x3e1a6052	0.15075806
118	0xbdcf8c22	-0.1013415
119	0x3d65f6a9	0.056143437
120	0xbde421c0	-0.1113925
121	0xbe901d3c	-0.28147304
122	0x3e8d8bc4	0.27645695
123	0xbf5d5ff2	-0.86474526
124	0xbe198f3a	-0.14996043
125	0xbd50b2a4	-0.050951615
126	0x3ed24320	0.41066837
127	0x3ece3c80	0.40280533
128	0x3fbe6a31	1.4876157
129	0x3e66767f	0.2250614
130	0x3f2020d7	0.6255011
131	0xbf5627de	-0.8365458
132	0xbf7cb4f0	-0.9871359
133	0xbde13d7b	-0.109980546
134	0x3d849b04	0.064748794
135	0xbda0b7ea	-0.07847579
136	0xbeaa4db0	-0.33262396
137	0x3e9715dd	0.29508868
138	0x3f4bd05c	0.79614806
139	0xbfc482a8	-1.5352373
140	0xbf768cb5	-0.9630845
141	0xbe9181a7	-0.2841923
142	0x3e3b6b8e	0.18302748
143	0x3e1f1779	0.15536298
144	0xbe74547a	-0.2386035
145	0x3e876f3e	0.2645206
146	0xbee5cfb7	-0.44885036
147	0x3ee223a5	0.4416782
148	0x3f8494c1	1.0357896
149	0x3f15f035	0.5856965
150	0x3eb35ce7	0.35031816
151	0xbe0b87e8	-0.13626063
152	0x3efc2f55	0.4925486
153	0xbfa2581a	-1.2683136
154	0xbdb7e336	-0.08978884
155	0xbf9e705c	-1.2378039
156	0x3d9c72de	0.07639097
157	0xbf4e9cd0	-0.80708027
158	0xbd6b6c14	-0.05747612
159	0xbe411668	-0.18856204
160	0x3f3266f4	0.69688344
161	0xbede776e	-0.43450493
162	0x3e856944	0.26056874
163	0xbf0c9551	-0.5491534
164	0xbf2b3fb3	-0.6689407
165	0x3e744adf	0.23856686
166	0x3ec6bd79	0.3881643
167	0xbd8cf560	-0.06882739
168	0x3fa8aa30	1.3176937
169	0x3f2617ec	0.6488025
170	0x3f855552	1.0416663
171	0xbef92233	-0.48658904
172	0xbe90fe36	-0.28318948
173	0x3e578940	0.2104845
174	0xbcddf3c4	-0.027093776
175	0xbd4ca4c8	-0.049961835
176	0xbe8552cc	-0.26039732
177	0x3c396503	0.011315587
178	0x3c963c69	0.018339353
179	0x3bd65164	0.0065404642
180	0xbf2b5954	-0.6693318
181	0xbf61e65c	-0.88242126
182	0xbe51f960	-0.20505285
183	0x3e2d9efb	0.16955177
184	0x3ed5eb89	0.41781262
185	0xbf133328	-0.57499933
186	0x3f35bfba	0.70995677
187	0xbeb06bc5	-0.34457222
188	0xbf7d2832	-0.9888946
189	0xbea3e386	-0.32009524
190	0x3f11aeee	0.56907547
191	0x3ee521a0	0.44752216
192	0x3e7875a7	0.24263631
193	0xbf0a3c7b	-0.53998536
194	0x3e5d802d	0.21630926
195	0xbef701b7	-0.48243496
196	0x3d94ff18	0.07275218
197	0xbecda32e	-0.4016356
198	0xbe022e0e	-0.12712881
199	0xbeba59de	-0.36396688
200	0xbe8a0d9d	-0.2696351
201	0x3f001ee9	0.50047165
202	0xbe1b4ba4	-0.15165573
203	0xbf6f7eea	-0.9355303
204	0x3eb61efb	0.3557051
205	0xbdda1a86	-0.1064959
206	0xbe0162c5	-0.12635334
207	0xbe903749	-0.2816718
208	0x3eba1d8a	0.36350662
209	0x3e95e30e	0.2927479
210	0xbea10974	-0.31452525
211	0x3ed0cd13	0.4078146
212	0x3f02d9c9	0.51113564
213	0x3deeb81f	0.11656212
214	0xbd918d17	-0.07106989
215	0xbf03234c	-0.51225734
216	0x3e12f197	0.14349972
217	0x3dff198e	0.12456046
218	0x3ec87ea0	0.39159107
219	0xbf17d432	-0.5930816
220	0xbab0a182	-0.0013475867
221	0x3b37dcf9	0.0028055294
222	0x3ee09373	0.43862495
223	0x3f08da34	0.5345795
224	0x3e83686c	0.25665605
225	0x3f05cb9d	0.52263814
226	0xbe157380	-0.14594841
227	0x3f28c450	0.6592455
228	0xbdfcd0cc	-0.12344512
229	0xbd8af5c4	-0.06785157
230	0x3da51d6b	0.08062252
231	0xbd2d0d56	-0.042249046
232	0xbf4a1d86	-0.789513
233	0xbf037201	-0.5134583
234	0xbeaa9c1a	-0.3332222
235	0xbf6f14ff	-0.9339141
236	0x3ed18958	0.40925097
237	0x3e3e7f2e	0.18603203
238	0xbe1d23eb	-0.15345733
239	0xbe2b839e	-0.16749427
240	0xbf02af46	-0.51048696
241	0xbe99d538	-0.30045485
242	0x3e4f8923	0.20267157
243	0x3f066064	0.5249083
244	0xbf1d118f	-0.6135492
245	0xbf02be9f	-0.51072115
246	0x3e0f9bee	0.14024326
247	0x3f079a1a	0.52969515
248	0x3ed25fc4	0.41088688
249	0x3e9294bd	0.28629103
250	0xbc325c6f	-0.010886296
251	0xbf0ac54a	-0.5420729
252	0x3f1117d1	0.56676966
253	0x3ea52292	0.32252938
254	0x3e97fbd5	0.2968432
255	0x3e9c2fff	0.30505368

0.bias f4 [64]
0	0xbf1b9c02	-0.60784924
1	0x3ea78320	0.32717228
2	0xbe8a2ba2	-0.26986414
3	0x3f3c85eb	0.7364184
4	0xbe0efe54	-0.13964206
5	0x3ea053d4	0.31313956
6	0x3f2a01ba	0.66408885
7	0x3e887c5b	0.26657376
8	0xbe41be13	-0.18920164
9	0x3e917a74	0.28413737
10	0x3f02695d	0.5094202
11	0x3cff628b	0.031174919
12	0x3dfcad3c	0.12337729
13	0xbe87478b	-0.2642177
14	0xbf0e2c22	-0.5553609
15	0x3dcfa94e	0.10139714
16	0xbdc5aa0e	-0.09651576
17	0x3e9826d5	0.29717126
18	0x3ea3e79b	0.32012638
19	0x3da6276d	0.081129886
20	0x3e7a9629	0.24471344
21	0x3dfc3ad5	0.12315909
22	0x3e5f7313	0.21821241
23	0x3e2b2670	0.16713881
24	0xbeb75519	-0.35807112
25	0x3f4eefde	0.8083476
26	0x3ef29d97	0.47385857
27	0x3cf7f0f4	0.030266263
28	0x3f2a5b7e	0.66545856
29	0xbee58b18	-0.44832683
30	0xbe27797b	-0.16354935
31	0x3dc29d8a	0.095027044
32	0x3ed177b3	0.40911636
33	0x3ed10f76	0.40832108
34	0x3e03e624	0.1288076
35	0x3f0cc358	0.5498557
36	0x3e346275	0.17615683
37	0x3eea7b88	0.45797372
38	0xbca04129	-0.01956232
39	0xbf3e33fa	-0.7429806
40	0x3e98b082	0.29822165
41	0xbdf6289c	-0.120194644
42	0x3da3c5f3	0.0799674
43	0x3cf0d086	0.029396307
44	0xbea0a74d	-0.3137764
45	0xbe9943ce	-0.29934543
46	0x3d944f0c	0.072416395
47	0x3c49bb5c	0.012312736
48	0x3e90e1fe	0.28297418
49	0xbf618ec3	-0.8810846
50	0x3ef7ee83	0.48424158
51	0x3f2f97d9	0.68591076
52	0x3f1a19c0	0.6019554
53	0x3edebb83	0.43502435
54	0x3edd29fe	0.431961
55	0x3f1cb923	0.61219996
56	0xbedb9589	-0.42887524
57	0x3f73c520	0.95222664
58	0x3e759277	0.23981653
59	0x3ca7aa2b	0.020466885
60	0x3d6ff8cc	0.05858688
61	0x3ee6cbc7	0.45077345
62	0xbe995c4f	-0.29953238
63	0x3f2040cf	0.6259889

2.weight f4 [64, 64]
0	0x3f0386de	0.51377666
1	0x3f3313b9	0.6995197
2	0x3e8fe06d	0.2810091
3	0xbf9f4166	-1.2441833
4	0x3bd7c698	0.0065849535
5	0x3e463327	0.1935545
6	0xbf9bb003	-1.216309
7	0xbe4af803	-0.19821171
8	0xbf6ed295	-0.9329007
9	0xbea1c798	-0.3159759
10	0xbead1595	-0.33805528
11	0x3e5e984f	0.21737789
12	0xbcdc260e	-0.026873615
13	0x3f858d08	1.0433664
14	0x3f127b69	0.5721956
15	0x3e4812ae	0.19538376
16	0x3f302f2d	0.68821985
17	0x3e197380	0.14985466
18	0x3ea5864c	0.32329023
19	0x3c2a2eec	0.010387164
20	0x3ea0a2a1	0.31374076
21	0x3f4f53c6	0.80987203
22	0x3dbc562c	0.091961235
23	0x3eae43dd	0.3403615
24	0x3efe3291	0.49647954
25	0x3e3c0554	0.18361408
26	0x3efaf0de	0.49011892
27	0xbcb3409c	-0.021881394
28	0xbdf2db36	-0.118582174
29	0x3f7fc41a	0.999086
30	0xbe8c1348	-0.2735846
31	0x3ebbea21	0.36702064
32	0x3ba5896d	0.005051783
33	0x3c41725a	0.011807049
34	0xbd173d20	-0.036923528
35	0x3e7cf077	0.24701105
36	0xbfc4d414	-1.5377221
37	0x3f80f2d8	1.007411
38	0x3e4ba3eb	0.19886748
39	0x3eccf637	0.40031597
40	0x3ecc951d	0.39957514
41	0xbefda017	-0.495362
42	0x3da0574d	0.07829151
43	0x3eb66fc9	0.3563216
44	0x3f35206d	0.707526
45	0x3ec4c42f	0.38430926
46	0x3ee8e70e	0.4548878
47	0x3f25b9ad	0.64736444
48	0x3e6e5ecc	0.2327835
49	0xbf4d88e9	-0.80287033
50	0x3ec538f5	0.38520017
51	0xbfa2370e	-1.2673051
52	0x3f0c9dc6	0.54928243
53	0xbe1bb260	-0.15204763
54	0x3f2fe0aa	0.68702185
55	0x3e697147	0.22797118
56	0x3d03a22b	0.032137077
57	0x3e1473cc	0.14497298
58	0x3f93a10d	1.1533524
59	0x3f372980	0.715477
60	0x3e5f9a46	0.21836194
61	0xbc69b76d	-0.0142649235
62	0xbf03dfeb	-0.51513547
63	0xbe3de458	-0.18544137
64	0xbf479dd6	-0.77975214
65	0xbefd17d2	-0.49432236
66	0xbeac40ce	-0.33643192
67	0x3e5e1dd6	0.21691069
68	0xbf2dd78a	-0.6790701
69	0xbeeb519d	-0.45960703
70	0x3eba320f	0.36366317
71	0x3f8410a0	1.0317574
72	0x3f3d15e0	0.73861504
73	0x3ec77e57	0.38963577
74	0x3ef94fb4	0.4869362
75	0xbd9f23db	-0.07770511
76	0xbddf19b9	-0.10893578
77	0xbf617c12	-0.8807994
78	0xbf04494b	-0.51674336
79	0x3d3b90e9	0.045792494
80	0xbf36abbd	-0.713558
81	0x3ea216e7	0.31658098
82	0xbc636a44	-0.013880316
83	0x3eaacf4b	0.33361277
84	0xbe729f1f	-0.23693512
85	0xbeda3366	-0.4261734
86	0xbf01eb0c	-0.5074928
87	0xbd98dc84	-0.07463935
88	0xbf00f882	-0.5037919
89	0x3ef772ca	0.48329765
90	0xbf104e8b	-0.5636985
91	0xbea74ecf	-0.32677314
92	0x3f41d429	0.75714356
93	0xbf4d0555	-0.8008626
94	0xbeef8f25	-0.46788898
95	0xbe7390f1	-0.2378576
96	0xbda6e1a0	-0.08148503
97	0x3f2ed5d6	0.6829504
98	0xbf00f9f4	-0.503814
99	0x3e08676c	0.13320702
100	0x3f7f2439	0.99664646
101	0xbf6291de	-0.88503826
102	0xbe34e088	-0.17663777
103	0xbf99159b	-1.1959718
104	0x3e80d3e7	0.2516167
105	0xbf087394	-0.5330136
106	0x3e9ed734	0.31023562
107	0xbef19eb4	-0.47191393
108	0xbe9d8173	-0.30762824
109	0xbe6b09a2	-0.22952893
110	0xbf07d167	-0.530539
111	0xbf0aa992	-0.54164994
112	0xbea347d9	-0.31890753
113	0x3fbfa738	1.4972906
114	0xbe96f708	-0.29485345
115	0x3f4b0a57	0.7931265
116	0x3d8c74eb	0.06858238
117	0x3f0cb07a	0.5495678
118	0xbeb56c97	-0.3543441
119	0x3f0d92aa	0.55301917
120	0xbf471200	-0.7776184
121	0x3f256105	0.64601165
122	0xbf7812cc	-0.9690368
123	0xbf579ee3	-0.84226817
124	0x3d9660b6	0.07342665
125	0x3f20729c	0.6267488
126	0x3e314de6	0.17314872
127	0x3f81b070	1.013197
128	0x3f1677da	0.5877663
129	0x3f02ca15	0.510896
130	0x3f3014f8	0.68781996
131	0xbf31bd58	-0.6942954
132	0x3f880a95	1.0628229
133	0x3ed0df3b	0.4079531
134	0xbf6ffe73	-0.93747634
135	0xbf0ec66c	-0.5577152
136	0xbfb18269	-1.3867923
137	0x3e3c7816	0.18405184
138	0x3d804055	0.0626227
139	0xbd8cd747	-0.068769984
140	0x3eb7b5bc	0.3588084
141	0x3f82bcc4	1.0213857
142	0x3f335684	0.7005389
143	0x3ee112c0	0.43959618
144	0x3f54bd81	0.8310166
145	0x3e1c4768	0.15261614
146	0x3f140088	0.5781331
147	0x3e6efd17	0.23338734
148	0x3e978ba4	0.29598725
149	0x3f53dc23	0.82757777
150	0x3eecf0a0	0.46277332
151	0x3e983246	0.29725856
152	0x3f43cc4e	0.7648362
153	0x3dae2f8c	0.085051626
154	0x3f034199	0.5127197
155	0x3eeea1ae	0.46607727
156	0xbf08089c	-0.53138137
157	0x3f8f6e93	1.120562
158	0x3f0949b5	0.53628093
159	0x3f01674b	0.5054824
160	0x3ec07ed4	0.37596762
161	0xbdce2dc7	-0.10067325
162	0x3f06ce68	0.526587
163	0x3ebc9830	0.3683486
164	0xbf93a70f	-1.1535357
165	0x3f312f59	0.6921287
166	0x3f2fe6e6	0.687117
167	0x3e2cacdf	0.1686282
168	0x3e8a0f29	0.2696469
169	0xbeb11a5f	-0.34590432
170	0xbab5cc91	-0.001387017
171	0x3e4ca5df	0.1998515
172	0x3f69c0fe	0.9131011
173	0x3ee50d36	0.44736642
174	0x3f0b61c8	0.5444608
175	0x3f63bbf6	0.8895868
176	0x3ec2ac53	0.38022098
177	0xbf6905ef	-0.9102468
178	0x3f102b5e	0.56316173
179	0xbf6f8976	-0.93569124
180	0x3e7ef65a	0.24898663
181	0x3d00bbd8	0.03142914
182	0x3f0fcf08	0.5617528
183	0x3e960a2f	0.29304644
184	0x3e1d9391	0.15388323
185	0xbc7aa356	-0.015297731
186	0x3f8a3d28	1.0799913
187	0x3f5abef9	0.8544765
188	0x3eca8a30	0.39558554
189	0x3dedd3bd	0.116126515
190	0xbe9a14dd	-0.30094042
191	0xbe83054e	-0.25589985
192	0x3f942698	1.1574278
193	0x3f4190a4	0.7561133
194	0xbe7c68a6	-0.24649295
195	0xbfa522c6	-1.2901237
196	0xbe33e5d6	-0.17568144
197	0xbf2f39e8	-0.6844773
198	0xbfb5caa5	-1.4202467
199	0x3e74f416	0.23921236
200	0xbf24b745	-0.6434215
201	0xbf567f97	-0.83788437
202	0xbd69c47b	-0.057072144
203	0xbec2efe5	-0.3807365
204	0xbf7e5ae9	-0.9935747
205	0x3f49f972	0.7889625
206	0xbf045788	-0.5169606
207	0xbf089bce	-0.5336274
208	0xbe6c64f2	-0.23085383
209	0xbec91a3a	-0.39277822
210	0x3f0e2faf	0.5554151
211	0xbf410b90	-0.7540827
212	0x3c47dcdc	0.012198653
213	0x3de468f4	0.11152831
214	0x3f4a9e9e	0.7914828
215	0x3ea36993	0.31916484
216	0xbe5f5b9f	-0.21812294
217	0x3eda15ba	0.425947
218	0x3e95f89a	0.2929123
219	0xbe597405	-0.21235664
220	0x3f8b70b9	1.0893775
221	0x3f5ba0c4	0.85792184
222	0xbe2c0d2a	-0.16801897
223	0xbec9e631	-0.39433435
224	0x3d25f2d2	0.040514775
225	0x3c1575fd	0.009122369
226	0x3e9b5c9a	0.30344087
227	0x3ed72edf	0.42027947
228	0xbf8e97e8	-1.1140108
229	0x3f627650	0.8846178
230	0x3ea32abb	0.31868538
231	0x3f5ad709	0.8548437
232	0xbe22bd51	-0.15892531
233	0x3f1514cf	0.58234876
234	0xbf368e82	-0.713112
235	0x3e892ca5	0.26791874
236	0xbe994cfa	-0.2994154
237	0xbf29c6b7	-0.6631884
238	0x3e3327f1	0.17495705
239	0xbf0843b2	-0.53228295
240	0x3f396667	0.7242188
241	0xbfe21909	-1.766389
242	0x3e038308	0.12842953
243	0xbf338be5	-0.7013534
244	0x3ed5eaa1	0.4178057
245	0xbf504695	-0.813577
246	0x3f7f53bb	0.9973714
247	0x3e59d8b1	0.21274067
248	0x3f738a33	0.9513275
249	0x3eb1d39c	0.34731758
250	0xbe468239	-0.19385614
251	0x3d8577a5	0.06516961
252	0xbfcf6121	-1.6201516
253	0xbf34692b	-0.70472974
254	0xbf80d856	-1.006602
255	0x3f0a5382	0.5403367

2.bias f4 [64]
0	0x3e1923ad	0.14955015
1	0x3ed6b376	0.41933793
2	0x3e56bc8e	0.20970365
3	0x3f1fdd01	0.624466
4	0x3ee5a527	0.44852564
5	0x3e22d050	0.15899777
6	0x3f000c36	0.5001863
7	0x3ebf1bfb	0.37326035
8	0x3e684147	0.22681151
9	0x3e0eaec4	0.13933855
10	0xbea93cc9	-0.33054188
11	0xbc06f189	-0.008236297
12	0xbe04c9b6	-0.12967572
13	0x3cb7b73e	0.022426244
14	0x3e2dda48	0.16977799
15	0x3e066bd4	0.1312707
16	0xbeb752fe	-0.35805506
17	0x3da3c932	0.07997359
18	0x3e86ef44	0.2635442
19	0x3e151538	0.14558876
20	0x3e505978	0.2034663
21	0x3ea89ad2	0.3293062
22	0xbe259a7e	-0.16172215
23	0x3ec8c9a6	0.39216346
24	0x3e848fa7	0.25890848
25	0x3e51024b	0.20411031
26	0x3edc832f	0.43068835
27	0x3e3df033	0.1854866
28	0x3de90632	0.11378135
29	0x3ebaa9d6	0.364577
30	0x3ea21128	0.31653714
31	0x3ea97bff	0.33102414
32	0xbe0289c0	-0.1274786
33	0xbb2eb353	-0.0026657179
34	0x3e74c21a	0.23902169
35	0xbe20b374	-0.15693456
36	0x3e9255b2	0.28581005
37	0x3e0f0371	0.13966157
38	0x3e106328	0.14100325
39	0x3e0ca87f	0.13736151
40	0x3e5ab9b4	0.21359903
41	0x3e32ceb9	0.17461671
42	0xbe58c7f3	-0.21170025
43	0xbe8193bc	-0.25308025
44	0x3dcbcd22	0.09951235
45	0x3f04fff5	0.5195306
46	0x3ddc3e77	0.10754102
47	0x3deabc05	0.11461643
48	0x3ee75995	0.45185533
49	0x3daad8a8	0.08342105
50	0x3ea5d35e	0.32387823
51	0x3e300824	0.17190605
52	0x3e9a721c	0.30165184
53	0x3ca1ade7	0.019736243
54	0x3e5a5848	0.21322739
55	0x3e1aa95d	0.1510367
56	0x3e09f371	0.13471772
57	0x3d8b0827	0.06788664
58	0xbc7e5fb9	-0.015525752
59	0x3efa315d	0.48865786
60	0x3e7c280c	0.24624652
61	0x3eee6901	0.46564487
62	0x3e373a13	0.17893247
63	0xbdfe1621	-0.124065645

4.weight f4 [4, 64]
0	0xbf807e09	-1.0038463
1	0x3f78e826	0.9722923
2	0xbee7eb75	-0.45296827
3	0xbf5201ba	-0.82033885
4	0x3f7cc201	0.98733526
5	0x3f9f676b	1.2453436
6	0x3fb2098e	1.3909166
7	0x3f87d822	1.0612833
8	0xbfc020c2	-1.5009997
9	0x3f9bdc51	1.217661
10	0xbf7da997	-0.990869
11	0xbf1d8917	-0.6153731
12	0xbee4719e	-0.44617933
13	0xbf603466	-0.87579954
14	0xbf0f70ff	-0.56031793
15	0xbed25590	-0.41080904
16	0xbf59181b	-0.8480241
17	0xbeb41f98	-0.35180354
18	0x3f55f030	0.8356962
19	0xbf088199	-0.5332275
20	0xbeb195f0	-0.34684706
21	0x3f999cda	1.2000992
22	0xbff217c5	-1.8913504
23	0x3f76ff18	0.9648299
24	0x3f73f314	0.9529278
25	0xbeecff1c	-0.46288383
26	0x3f8ca437	1.0987614
27	0xbf1f4570	-0.6221533
28	0x3ef17492	0.4715925
29	0xbf656afd	-0.89616376
30	0x3fb43d78	1.4081259
31	0x3f9aba81	1.2088166
32	0xbf25d2c6	-0.6477474
33	0xbe961901	-0.2931595
34	0x3f62a01f	0.88525575
35	0xbf831341	-1.0240251
36	0x3f6e7ac8	0.931561
37	0xbed282a5	-0.411153
38	0xbe9c4c2c	-0.30526865
39	0xbf36c1f5	-0.71389705
40	0xbf8df5c6	-1.1090629
41	0x3fa3ad6f	1.2787303
42	0xbf3942cf	-0.72367567
43	0xbf5deb25	-0.8668693
44	0xbeb2c544	-0.34916127
45	0x3f94aea5	1.1615797
46	0xbf294372	-0.6611854
47	0xbf0fb1c9	-0.56130654
48	0x3f6ddc3f	0.92914194
49	0x4035f60e	2.843143
50	0x3f8bfcc7	1.0936517
51	0xbf0c2cc6	-0.5475582
52	0x3f282b7a	0.6569134
53	0xbf2002a1	-0.6250401
54	0xbf01e3bc	-0.5073812
55	0xbec4f26c	-0.38466203
56	0xbec50595	-0.3848082
57	0xbf04fba6	-0.51946485
58	0xbf71a635	-0.94394237
59	0x3f224ca5	0.633982
60	0x3f69ad20	0.9127979
61	0x3f4c2770	0.79747677
62	0xbf41d547	-0.7571606
63	0xbf88b27b	-1.0679468
64	0xbf73f91b	-0.9530198
65	0x3f475fdd	0.7788065
66	0xbed86162	-0.42261797
67	0xbf8eac0e	-1.1146257
68	0x3f556d18	0.8336959
69	0x3fa5c55e	1.2950857
70	0x3fa296bf	1.2702254
71	0x3f7f2743	0.99669284
72	0xbf157861	-0.5838681
73	0x3f9554b9	1.166648
74	0xbf07954e	-0.52962196
75	0xbf35ef85	-0.710686
76	0xbf89e0ee	-1.0771768
77	0xbe4de615	-0.201073
78	0xbedb8e8c	-0.42882192
79	0xbf2db9e9	-0.678618
80	0xbf429330	-0.7600584
81	0xbedbafbd	-0.42907515
82	0x3f50cf94	0.8156674
83	0xbf3c03b4	-0.7344315
84	0xbeeefe3d	-0.46678343
85	0x3f962dc1	1.1732713
86	0xbead20e5	-0.3381416
87	0x3f87a83e	1.0598218
88	0x3f86b11c	1.05228
89	0xbf0583c7	-0.521542
90	0x3f4f7b31	0.8104735
91	0xbf1e3801	-0.61804205
92	0x3f102314	0.56303525
93	0xbf3f1fbe	-0.7465781
94	0x3f70c299	0.9404693
95	0x3f7e1e5b	0.9926507
96	0xbf7452ae	-0.9543866
97	0xbee6e41b	-0.45095906
98	0x3fb754d2	1.432276
99	0xbf930f76	-1.1489093
100	0x3f8232f8	1.0171804
101	0xbef41c1d	-0.476777
102	0xbefd4a7d	-0.49470893
103	0xbf4a8c32	-0.7912017
104	0xbeaced7e	-0.33774942
105	0x3fafd4e0	1.3736839
106	0xbf8cfc77	-1.1014546
107	0xbf3d57bc	-0.73962
108	0xbefb3f58	-0.49071765
109	0x3f9b5511	1.2135335
110	0xbf49db41	-0.7885018
111	0xbf047b92	-0.51751053
112	0x3f5b00a4	0.8554785
113	0x40221d66	2.5330443
114	0x3f92859e	1.1447027
115	0xbf15f630	-0.5857878
116	0x3fbf3a62	1.4939692
117	0xbf26c5c7	-0.65145534
118	0xbf0d0882	-0.55091107
119	0xbeb85f58	-0.36010242
120	0xbf0351ed	-0.51296884
121	0xbeed2f8a	-0.46325332
122	0xbf46dffd	-0.7768553
123	0x3f3b88ae	0.7325543
124	0x3ec9b90a	0.39398986
125	0x3e89bb5e	0.26900762
126	0xbf883264	-1.0640378
127	0xbf5c6544	-0.8609202
128	0xbf8c9f4c	-1.0986114
129	0x3f8ba628	1.0910082
130	0xbed65604	-0.418625
131	0xbf8948a4	-1.0725293
132	0x3fa76cc0	1.3080063
133	0x3f9033e8	1.126584
134	0x3fc15e12	1.5106833
135	0x3f997c15	1.1990992
136	0xbf909c67	-1.129773
137	0x3f687818	0.9080825
138	0xbfaf8dab	-1.3715109
139	0xbf08fb9c	-0.53508925
140	0xbf8fa5d3	-1.122248
141	0xbf89dd63	-1.0770687
142	0xbee103be	-0.43948168
143	0xbed483b7	-0.4150674
144	0xbf77423e	-0.9658545
145	0xbed7a7b4	-0.42120135
146	0x3fb1b9e1	1.3884851
147	0xbed2ad04	-0.41147625
148	0xbed0dc0e	-0.40792888
149	0x3f9d8d7d	1.2308804
150	0xbea3e9b5	-0.32014242
151	0x3faa954f	1.3326815
152	0x3fb332bb	1.3999857
153	0xbf163ec9	-0.5868955
154	0x3f97ff08	1.1874704
155	0xbe93e9df	-0.28889367
156	0x3fabd5d3	1.3424629
157	0xbe7f23d4	-0.24916011
158	0x3f8cf953	1.1013588
159	0x3f8fd592	1.1237051
160	0xbf84dd85	-1.0380102
161	0xbf0e7a21	-0.55655104
162	0x3cd43b1c	0.025907092
163	0xbf3b01b0	-0.7304945
164	0x3f8dbb02	1.1072695
165	0xbef88046	-0.48535365
166	0xbec3e8d6	-0.38263577
167	0xbeaa2e7b	-0.33238587
168	0xbfb3b56d	-1.4039742
169	0x3f5fdd7c	0.87447333
170	0xbf427598	-0.75960684
171	0xbeb86819	-0.3601692
172	0xbf3d1067	-0.73853153
173	0x3f51d493	0.8196499
174	0xbf5b5c3a	-0.856876
175	0xbe436179	-0.19080152
176	0x3f9f3f19	1.2441131
177	0x40159cd1	2.3376963
178	0x3fb28783	1.3947605
179	0xbf1bd37b	-0.6086957
180	0xbe9c05e1	-0.30473235
181	0xbe4cedaf	-0.20012544
182	0xbed92419	-0.42410353
183	0xbf375817	-0.7161879
184	0xbf30f3a1	-0.6912175
185	0xbe966c82	-0.2937966
186	0xbf4f24d6	-0.8091558
187	0x3fa0ed18	1.2572355
188	0x3f60f67e	0.8787612
189	0xbfa20f0a	-1.266084
190	0xbf05d4a8	-0.5227761
191	0xbfa28e42	-1.2699664
192	0xbf2f6a16	-0.6852125
193	0x3fa38c96	1.2777278
194	0xbf005237	-0.5012545
195	0xbfa69a5c	-1.3015857
196	0x3fa8a85f	1.3176383
197	0x3fa2a974	1.2707963
198	0x3f990c86	1.1956947
199	0x3f934d18	1.1507902
200	0xbf3eebb9	-0.74578434
201	0x3f95121d	1.1646153
202	0xbf8618b0	-1.0476284
203	0xbf1f0360	-0.62114525
204	0xbf6624f9	-0.89900166
205	0xbfa28233	-1.2695984
206	0xbef73d05	-0.48288742
207	0xbf2dc410	-0.6787729
208	0xbf09a02c	-0.5376003
209	0x3e3ddb82	0.18540767
210	0x3f47cd61	0.7804776
211	0xbf1d5e32	-0.61471856
212	0xbf0fbc1a	-0.56146395
213	0x3f08d92d	0.53456384
214	0xbfb99a99	-1.4500304
215	0x3f6644c3	0.8994867
216	0x3f377174	0.7165749
217	0xbec90c37	-0.39267132
218	0x3fa26728	1.2687731
219	0xbe90df89	-0.28295544
220	0x3f76a253	0.9634144
221	0xbf1e4f82	-0.6184007
222	0x3f96e6ab	1.1789144
223	0x3f90c476	1.1309955
224	0xbf635498	-0.88800955
225	0xbefb688f	-0.4910321
226	0x3e134b6a	0.14384237
227	0xbf35cb28	-0.71013117
228	0x3fa24126	1.2676132
229	0xbf1256b1	-0.5716353
230	0xbf2aa104	-0.6665194
231	0xbf270f4e	-0.6525773
232	0xbf610a8c	-0.8790672
233	0x3f86bab1	1.0525724
234	0xbf17130e	-0.5901345
235	0xbe9de9b1	-0.30842355
236	0xbf049edf	-0.5180492
237	0x3fb16d2f	1.3861445
238	0xbf57cdbb	-0.84298295
239	0xbf43deb1	-0.76511675
240	0x3fb5af6a	1.4194157
241	0x404dab8a	3.213595
242	0x3f8ce41d	1.1007115
243	0xbf154364	-0.58305955
244	0xbeb9f11b	-0.3631676
245	0xbf28e948	-0.6598096
246	0xbeedd072	-0.46448094
247	0xbe883c8c	-0.26608694
248	0xbe2fa57e	-0.17152974
249	0xbf25b957	-0.6473593
250	0xbf8516a9	-1.039754
251	0x3f8242be	1.0176618
252	0x3fc7e5fc	1.5617061
253	0x3f9864ec	1.1905799
254	0xbf264e52	-0.6496326
255	0xbf31ee8b	-0.6950461

4.bias f4 [4]
0	0x3d3a63fe	0.045505516
1	0xbcc358de	-0.023846086
2	0xbc97ea58	-0.018544361
3	0x3e922e4f	0.28550956
