LV6/cart_pole/saved_models/dqn_CartPole-v1_final_2025-12-18_08-39-05.pth (torch, 21933 bytes, 6 tensors)

0.weight f4 [64, 4]
0.77063894 0.77119815 1.1554302 0.55131936 -1.1832206 0.30599 -0.21885855 0.21557873
-0.40488264 -0.43650702 -2.3035605 -0.5251165 -0.044109054 0.52298576 3.1374028 0.44780597
-0.040968042 -0.28538948 3.8284597 0.13810498 0.76095504 -0.17314436 -1.1332821 -0.48675904
-0.77907526 -0.52163976 -0.5397012 -0.4355317 -0.04024435 0.09387547 4.1185374 1.031979
0.22639199 -0.28726327 -1.3406062 0.045474168 -0.38265276 0.109166496 0.6076734 0.16017616
0.18721786 -0.15046819 -3.9929686 -0.58808714 -0.0048909457 -0.045191485 0.07199512 0.009311091
-0.0050434475 -0.84090143 0.88872397 -0.54464996 0.30829567 -0.5426751 -0.96047306 1.2504557
-0.31519014 1.2213763 0.8124664 0.77057195 -0.20956959 0.117121525 5.9852195 0.5140058
-0.058353692 -0.00818144 -2.1786883 -0.12858042 -0.15818551 -0.36235225 -3.905663 -0.46374565
0.054935887 -0.09590829 -3.907602 -0.5909715 -0.09573326 -0.17292477 2.0227716 -0.9285049
-0.20725033 0.023461018 4.346543 0.26667723 -0.10290343 -0.0154091 4.940571 0.53505343
0.50063825 0.27504557 0.6200738 0.14742292 0.25469187 -1.0402575 -1.9127461 -0.9069925
0.019109309 -0.16675182 -4.384428 -0.59471476 0.2532797 -0.17070256 -0.66721165 -0.18234307
0.08849683 -0.06157429 -4.7269573 -0.8107647 0.4531078 -0.5291627 -0.6288724 -0.5608974
-0.9432431 0.9228174 -0.010391547 0.94460225 0.056455676 0.010011716 4.819967 0.2562494
-0.67623127 0.7204267 -3.3273084 -0.23464501 0.6807652 0.15842022 1.0772673 0.12897824
-0.09175296 -0.08418802 0.17031248 -0.030482944 -0.11150162 -0.8827751 -0.68454397 -1.0224773
-0.3890087 -0.52527 -1.6051805 -0.1449163 1.0850086 0.44931868 2.1930156 0.4270055
-0.6580471 -0.7199105 -3.0312073 -0.7738906 -0.16190705 -0.2715651 -1.8059974 -0.6453617
0.03228812 -0.018491423 -5.361798 -0.56208014 -0.12881728 -0.059385426 5.29317 0.58030856
0.46262535 -0.027419196 1.6835105 0.6384664 -0.069020316 -0.37369615 2.0446873 -0.016505428
-0.222177 0.34313124 2.3477972 0.42843565 -0.07702734 -0.18872195 -4.4900455 -0.4969793
-0.123354085 -0.090549946 0.74516344 -0.0114956265 -0.3586969 0.053034704 -1.7459149 0.17010099
-0.033607922 -0.10489671 -4.0771413 -1.1836659 -0.7761951 -0.7586514 -2.4842439 -0.74396455
0.027962578 -0.15610921 -3.6864526 -0.43896407 -0.021479547 0.2998992 -1.2502068 -0.098881885
-0.23750126 -0.4002903 0.27562305 -0.27093586 0.08176717 -0.21868643 3.745803 -0.13573113
0.039919008 -0.17182757 3.2874663 -0.011738012 0.18861099 -0.2336981 -1.148969 -0.1694353
0.1906831 -0.09163848 0.5880653 0.45852497 0.07949196 0.094428614 0.42189813 0.15878922
0.11406984 -0.010512745 4.6371903 1.164642 -0.075128056 -0.0050009396 -4.6235647 -0.24461415
0.11952761 -0.12579764 -3.0057182 -0.2510424 -0.046822146 0.03162016 5.169752 0.74370736
-0.30104136 0.1255242 -0.13455795 0.23313344 -0.07782431 0.0342191 -5.15925 -0.4126642
0.06419899 0.2846769 0.92594886 0.2709434 -0.060741883 -0.1267404 -4.033365 -0.36939415
00000000: 9848 453f 3e6d 453f 23e5 933f 4423 0d3f
00000010: c673 97bf b9aa 9c3e 751c 60be acc0 5c3e
00000020: c74c cfbe d97d dfbe 896d 13c0 096e 06bf
00000030: b2ab 34bd 65e2 053f 35cb 4840 d346 e53e
00000040: 1bce 27bd 921e 92be 7c05 7540 646b 0d3e
00000050: f3cd 423f c14c 31be 630f 91bf 7b38 f9be
00000060: 7a71 47bf 2f8a 05bf dc29 0abf 03fe debe
00000070: 42d7 24bd c841 c03d 0fcb 8340 e317 843f
00000080: 4dd3 673e 2c14 93be fc98 abbf 1f43 3a3d
00000090: 10eb c3be af92 df3d 7c90 1b3f 3805 243e
000000a0: 0ab6 3f3e 5514 1abe cc8c 7fc0 e18c 16bf
000000b0: 3a44 a0bb b51a 39bd 2d72 933d 8c8d 183c
000000c0: 8143 a5bb 5145 57bf 6a83 633f 2e6e 0bbf
000000d0: eed8 9d3e c1ec 0abf 90e1 75bf ef0e a03f
000000e0: 9a60 a1be 0f56 9c3f ccfd 4f3f 3444 453f
000000f0: 6999 56be 69dd ef3d eb86 bf40 e295 033f
00000100: 4804 6fbd 720b 06bc a16f 0bc0 96aa 03be
00000110: 62fb 21be 3c86 b9be 62f6 79c0 1270 edbe
00000120: 7404 613d 916b c4bd 2716 7ac0 e949 17bf
00000130: cd0f c4bd 3113 31be 1775 0140 7fb2 6dbf
00000140: 6e39 54be 5231 c03c e116 8b40 eb89 883e
00000150: 09bf d2bd 7376 7cbc 2819 9e40 43f9 083f
00000160: d429 003f c6d2 8c3e 28bd 1e3f 09f6 163e
00000170: f966 823e 2827 85bf ddd4 f4bf a930 68bf
00000180: 208b 9c3c fdc0 2abe 3c4d 8cc0 3a3f 18bf
00000190: e0ad 813e a7cc 2ebe 62ce 2abf 24b8 3abe
000001a0: d33d b53d 5335 7cbd 3c43 97c0 468e 4fbf
000001b0: bffd e73e 3577 07bf c8fd 20bf f996 0fbf
000001c0: 6178 71bf c33d 6c3f 4f41 2abc 74d1 713f
000001d0: 113e 673d 2e08 243c 2b3d 9a40 1f33 833e
000001e0: 7e1d 2dbf e26d 383f 9ff2 54c0 c846 70be
000001f0: a146 2e3f e938 223e e5e3 893f df12 043e
00000200: fae8 bbbd c56a acbd 6566 2e3e 5eb7 f9bc
00000210: f65a e4bd 8dfd 61bf 463e 2fbf 89e0 82bf
00000220: 262c c7be 1878 06bf 8e76 cdbf f064 14be
00000230: 90e1 8a3f 190d e63e 5e5a 0c40 77a0 da3e
00000240: c675 28bf 0e4c 38bf 4dff 41c0 b21d 46bf
00000250: f6ca 25be 950a 8bbe ec2a e7bf 6d36 25bf
00000260: 8c40 043d 537b 97bc d993 abc0 7ce4 0fbf
00000270: ade8 03be 223e 73bd a661 a940 1a8f 143f
00000280: 3bdd ec3e 399e e0bc 467d d73f 8972 233f
00000290: 865a 8dbd 1a55 bfbe 28dc 0240 6436 87bc
000002a0: 5e82 63be e6ae af3e 4f42 1640 eb5b db3e
000002b0: 83c0 9dbd 5440 41be 74ae 8fc0 1274 febe
000002c0: 11a1 fcbd 4072 b9bd 08c3 3e3f 2758 3cbc
000002d0: 1fa7 b7be eb3a 593d 247a dfbf f42e 2e3e
000002e0: 76a8 09bd 16d4 d6bd f177 82c0 5d82 97bf
000002f0: b9b4 46bf fa36 42bf dafd 1ec0 7674 3ebf
00000300: c711 e53c 18db 1fbe d7ee 6bc0 e6bf e0be
00000310: e0f5 afbc 638c 993e c706 a0bf 9682 cabd
00000320: 8833 73be daf2 ccbe 771e 8d3e 1bb8 8abe
00000330: 8c75 a73d 56ef 5fbe 3dbb 6f40 1afd 0abe
00000340: 1d82 233d 91f3 2fbe d965 5240 ca50 40bc
00000350: 3d23 413e 8e4e 6fbe 6b11 93bf 7380 2dbe
00000360: 6e42 433e f5ac bbbd 738b 163f c9c3 ea3e
00000370: aecc a23d ca63 c13d 0803 d83e a499 223e
00000380: 739d e93d a63d 2cbc dd63 9440 fd12 953f
00000390: bddc 99bd ecde a3bb 3ef4 93c0 227c 7abe
000003a0: e4ca f43d 19d1 00be b05d 40c0 a188 80be
000003b0: 94c8 3fbd 2484 013d 9c6e a540 9b63 3e3f
000003c0: 1822 9abe 6a89 003e 8fc9 09be 88ba 6e3e
000003d0: 5a62 9fbd 5429 0c3d 9318 a5c0 b948 d3be
000003e0: c37a 833d 2cc1 913e fc0a 6d3f 18b9 8a3e
000003f0: 7bcc 78bd 3cc8 01be 5311 81c0 3b21 bdbe

0.bias f4 [64]
-1.8305513 0.024710298 -1.3729675 -1.278263 -1.432994 -1.4317358 -1.9819807 -1.7112887
-0.5202581 -0.26274088 -1.1947598 -0.2765355 -0.6041227 -0.048364777 -0.36070043 -1.3207597
-0.8883154 -1.3668053 -1.3787005 0.019702451 -0.9055387 -1.2237438 -1.2500467 -0.881601
-1.4688292 -0.57900435 -1.1295607 -0.8425262 -1.049175 -0.9031812 -0.6330761 -1.3812176
-0.26315928 -1.3173658 -1.7627307 -2.227557 -1.63681 -1.714246 -1.080228 -1.0527011
-2.3962681 -0.67448354 0.9282762 -1.6343455 -0.16103034 0.52578014 -1.9759291 -2.0349967
-1.1224713 0.66233736 -1.4009213 -1.0963913 -0.91139656 -0.48486584 -0.62430096 -0.74756885
-1.704788 -0.9320343 -1.1099118 -1.1544334 -0.40703112 -0.89984214 1.0438955 -0.7435377
00000000: 814f eabf 406d ca3c 66bd afbf 1f9e a3bf
00000010: 596c b7bf 1e43 b7bf 8bb1 fdbf 820b dbbf
00000020: a32f 05bf f985 86be e4ed 98bf 1096 8dbe
00000030: c9a7 1abf 251a 46bd baad b8be a70e a9bf
00000040: a368 63bf 7af3 aebf 4279 b0bf 0967 a13c
00000050: 62d1 67bf a3a3 9cbf 8801 a0bf 9ab0 61bf
00000060: 9802 bcbf a139 14bf 7295 90bf ccaf 57bf
00000070: 5e4b 86bf e236 67bf 4611 22bf bdcb b0bf
00000080: d0bc 86be 719f a8bf 29a1 e1bf 4b90 0ec0
00000090: fd82 d1bf 6a6c dbbf e944 8abf e9be 86bf
000000a0: 755c 19c0 f4aa 2cbf 82a3 6d3f 3c32 d1bf
000000b0: 23e5 24be 8799 063f 3feb fcbf 633d 02c0
000000c0: 24ad 8fbf f18e 293f 6451 b3bf 8d56 8cbf
000000d0: 4951 69bf 5640 f8be 30d2 1fbf ac60 3fbf
000000e0: 7e36 dabf cd99 6ebf 9711 8ebf 79c4 93bf
000000f0: 6266 d0be 0e5c 66bf 5e9e 853f 7d58 3ebf

2.weight f4 [64, 64]
-0.5208803 -0.25363076 -0.22540076 1.4213288 -4.5174694 -0.4149272 -0.48588866 -0.34331143
0.12343192 -0.34632054 -1.9111863 0.018641133 0.37702787 -0.16174291 0.75248355 -1.7166021
0.055461086 -2.730219 -0.905972 0.0027433748 -0.21523981 -2.38706 -1.2602209 0.4374276
-2.4774902 -0.0926846 -1.9091221 -0.7640849 0.08993026 -2.13889 0.03326839 -1.9307501
-0.38654435 -1.3608018 -0.77072287 -2.2753994 -0.3518405 -0.6522414 -1.4055786 -2.3292124
-3.992349 0.22569187 0.14331095 -2.2877374 0.36532217 -0.18186134 -0.7176354 -1.278093
-0.3297717 -0.029376762 -0.5021808 -5.0102987 -0.015224212 0.22874215 0.080706395 0.13496703
-0.07730188 -3.0852246 0.9529446 -2.1351867 -0.16410068 -1.9568105 0.18267158 0.6943359
0.69559205 -0.6833687 -0.031844493 2.520989 5.4858294 -1.12607 0.8637979 0.6930064
-0.08703361 0.43893594 0.105049975 0.46455553 -0.6723486 -0.76663053 1.2137545 1.4393095
0.9548212 0.13233039 0.12925826 -0.80631274 3.5634246 1.8124208 0.235055 -0.22133623
0.93394774 -0.3921335 -0.2757458 -0.49636412 0.9116268 2.7451742 -0.005946252 0.77667785
0.6875067 -1.9787161 0.5183532 1.3971678 0.5244598 0.38711902 -1.1518838 1.8883094
1.481053 0.8240253 -0.34111482 1.1995517 -0.16312085 -1.1957686 -0.56267667 0.93913
0.2652379 -0.93746054 0.36542028 5.3018293 1.1959071 -0.2884081 0.811047 -0.69946533
0.9639184 0.041652285 0.62140775 1.6396239 0.054956395 -0.54717666 -0.47469983 -0.07117486
1.6777489 0.6333789 1.0899341 -1.3768026 -0.39958078 0.34994417 0.1121069 0.6207746
0.23022112 0.31931984 2.6826556 0.48944747 -2.9429018 -2.326425 -1.8376248 1.3723483
0.6368657 2.920477 -0.037491284 -5.422221 -0.66893566 -0.4955933 0.6062816 -3.4266186
3.9469428 -0.06618563 2.209208 -4.047344 -0.76246095 -0.64461297 0.51884115 1.6603367
0.24580564 1.0099403 -0.73413426 0.20377405 -1.6288309 0.44409877 2.2558024 0.38032502
1.9505323 0.3355689 -1.4935074 5.8762975 0.29108688 -0.00023731228 -3.6921754 0.30048943
0.227577 -0.67367977 0.23150697 -0.33537537 -0.2468472 0.17546238 0.52281666 0.7705759
-0.12273261 4.2719607 3.2257345 1.4696352 0.20254882 2.3952672 -0.716561 0.6645685
2.1380746 0.39426458 -0.47930393 -0.9260049 1.0837843 0.26690203 0.40127814 0.07322663
-0.04554009 -0.24762212 1.1172913 0.6546816 -0.2030996 0.09376129 -0.67267036 0.7373393
0.7277691 0.73552024 0.5330872 -0.11791788 -1.830712 0.5798491 1.6934755 -1.3957354
1.1042438 0.5419078 0.41060787 0.36167637 0.4709639 0.059680432 0.1424429 1.0252467
0.56122756 1.066648 -0.070202276 1.1110212 -0.68996435 1.2542276 0.8123979 1.1159643
2.5978253 0.5898673 -0.91848576 2.0642002 0.061935198 -0.5465894 -0.1349285 0.77712107
0.47117335 -0.8974063 1.1360133 1.7986772 0.63777345 0.91550195 0.8940636 -0.011890174
-0.3556331 1.2899575 -1.6155325 1.183292 0.24865294 0.72107416 -0.92247534 -0.7285385
00000000: 6958 05bf e4db 81be 75cf 66be 1aee b53f
00000010: 1c8f 90c0 5771 d4be 66c6 f8be 84c6 afbe
00000020: e0c9 fc3d ed50 b1be c1a1 f4bf 4ab5 983c
00000030: cc09 c13e ef9f 25be c3a2 403f 9eb9 dbbf
00000040: 2a2b 633d e8bb 2ec0 c8ed 67bf 31ca 333b
00000050: d367 5cbe 97c5 18c0 eb4e a1bf 83f6 df3e
00000060: 338f 1ec0 6cd1 bdbd 1d5e f4bf 119b 43bf
00000070: 5b2d b83d 93e3 08c0 6f44 083d d222 f7bf
00000080: 24e9 c5be c12e aebf 184e 45bf 25a0 11c0
00000090: 7024 b4be 4bf9 26bf 00ea b3bf d111 15c0
000000a0: a582 7fc0 c51b 673e 1bc0 123e 4a6a 12c0
000000b0: 820b bb3e dc39 3abe f4b6 37bf 8d98 a3bf
000000c0: d6d7 a8be 89a7 f0bc ec8e 00bf 5e54 a0c0
000000d0: f96e 79bc 623b 6a3e 6549 a53d cc34 0a3e
000000e0: 7350 9ebd 5274 45c0 2df4 733f e6a6 08c0
000000f0: 020a 28be c478 fabf 420e 3b3e ffbf 313f
00000100: 5212 323f 40f1 2ebf 5f6f 02bd e257 2140
00000110: ea8b af40 1023 90bf dc21 5d3f de68 313f
00000120: ad3e b2bd 36bc e03e 7124 d73d 39da ed3e
00000130: 0a1f 2cbf e641 44bf 4f5c 9b3f 4b3b b83f
00000140: 2a6f 743f 9e81 073e 475c 043e 836a 4ebf
00000150: 260f 6440 68fd e73f 42b2 703e f7a5 62be
00000160: 3317 6f3f b9c5 c8be 8e2e 8dbe 7023 febe
00000170: 6060 693f efb0 2f40 c7d8 c2bb 5cd4 463f
00000180: 7000 303f 9246 fdbf ccb2 043f 65d6 b23f
00000190: ff42 063f 7734 c63e ee70 93bf 1fb4 f13f
000001a0: 2593 bd3f 52f3 523f 9aa6 aebe e98a 993f
000001b0: 2709 27be f20e 99bf 940b 10bf d36a 703f
000001c0: 43cd 873e 6afd 6fbf 5e18 bb3e 96a8 a940
000001d0: 7c13 993f 3aaa 93be c7a0 4f3f 2910 33bf
000001e0: 5bc3 763f 969b 2a3d 9414 1f3f 32df d13f
000001f0: f519 613d c513 0cbf db0b f3be 20c4 91bd
00000200: 7ac0 d63f 1f25 223f f682 8b3f 113b b0bf
00000210: da95 ccbe e22b b33e 4d98 e53d 16eb 1e3f
00000220: 16bf 6b3e e47d a33e a1b0 2b40 dc98 fa3e
00000230: 8158 3cc0 26e4 14c0 4a37 ebbf 1ca9 af3f
00000240: a109 233f 18e9 3a40 7690 19bd d682 adc0
00000250: 5e3f 2bbf 68be fdbe 4535 1b3f b84d 5bc0
00000260: b69a 7c40 558c 87bd aa63 0d40 d883 81c0
00000270: a430 43bf 5b05 25bf c6d2 043f ea85 d43f
00000280: 79b4 7b3e b945 813f 39f0 3bbf 25aa 503e
00000290: 887d d0bf ea60 e33e 115f 1040 f6b9 c23e
000002a0: 0bab f93f b0cf ab3e 402b bfbf a10a bc40
000002b0: 5709 953e 08d7 78b9 9a4c 6cc0 c0d9 993e
000002c0: f209 693e 4776 2cbf 2a10 6d3e 52b6 abbe
000002d0: 83c5 7cbe 69ac 333e 50d7 053f 7644 453f
000002e0: 3c5b fbbd e7b3 8840 6f72 4e40 021d bc3f
000002f0: f568 4f3e 0f4c 1940 8b70 37bf 2921 2a3f
00000300: 37d6 0840 0cdd c93e 5367 f5be a80e 6dbf
00000310: 72b9 8a3f 62a7 883e 5474 cd3e d8f7 953d
00000320: 3f88 3abd a790 7dbe 6703 8f3f 3799 273f
00000330: 57f9 4fbe eb05 c03d 2034 2cbf 45c2 3c3f
00000340: 134f 3a3f 0e4b 3c3f 6778 083f ee7e f1bd
00000350: c554 eabf fe70 143f cec3 d83f 75a7 b2bf
00000360: dc57 8d3f 78ba 0a3f 323b d23e a52d b93e
00000370: 2e22 f13e 7873 743d 8ddc 113e 493b 833f
00000380: 9cac 0f3f ec87 883f 36c6 8fbd f135 8e3f
00000390: 81a1 30bf 888a a03f 4ff9 4f3f ebd7 8e3f
000003a0: c542 2640 8b01 173f e221 6bbf db1b 0440
000003b0: c3af 7d3d 48ed 0bbf b22a 0abe 68f1 463f
000003c0: a23d f13e 6bbc 65bf e268 913f 0e3b e63f
000003d0: 1f45 233f 565e 6a3f 5ae1 643f 01cf 42bc
000003e0: 8b15 b6be 541d a53f c5c9 cebf 1d76 973f
000003f0: e09e 7e3e 5198 383f 5827 6cbf 8081 3abf

2.bias f4 [64]
2.0608466 -0.41822407 -1.0378823 -2.5980275 -0.74297553 -0.61978537 2.0855405 2.6428566
-1.3458182 -1.5488836 0.4233314 0.270309 -1.1754675 -0.512622 -1.1685685 -0.056430537
-2.4538836 -0.8195184 -0.9446119 1.9813516 1.5492418 1.440286 1.8977495 -0.19882394
-2.0627537 -2.3472311 1.5809827 -0.5399596 -2.4988122 1.3787482 1.8875712 -2.0569553
-1.0181248 -0.54376286 -0.40525112 1.4267784 2.4178524 -1.2957904 2.0130284 1.6296726
-0.8974629 -1.0998507 1.2287918 2.2912736 2.059438 -1.5108327 -0.22168644 1.4350284
1.7592648 2.0278952 1.2379318 1.4123725 2.0297363 2.0728374 0.47803706 -1.256238
-2.6859927 1.9481701 -2.6495125 1.9125328 -0.51715285 -0.859644 -0.35895392 -0.63690144
00000000: e9e4 0340 7721 d6be 54d9 84bf 1546 26c0
00000010: a533 3ebf 41aa 1ebf 7f79 0540 9024 2940
00000020: c543 acbf d141 c6bf e5be d83e f165 8a3e
00000030: b875 96bf 323b 03bf a793 95bf b523 67bd
00000040: 6e0c 1dc0 f5cb 51bf 16d2 71bf ee9c fd3f
00000050: 8e4d c63f 4b5b b83f 75e9 f23f 8198 4bbe
00000060: 2804 04c0 0939 16c0 a45d ca3f cb3a 0abf
00000070: 8aec 1fc0 d27a b03f ef9b f13f 28a5 03c0
00000080: ea51 82bf 0b34 0bbf 137d cfbe ada0 b63f
00000090: 18be 1a40 76dc a5bf 75d5 0040 1d99 d03f
000000a0: 21c0 65bf e8c7 8cbf 0d49 9d3f 3aa4 1240
000000b0: d5cd 0340 f762 c1bf c501 63be 03af b73f
000000c0: 972f e13f 09c9 0140 8d74 9e3f 9fc8 b43f
000000d0: 33e7 0140 5ea9 0440 46c1 f43e 68cc a0bf
000000e0: 4ee7 2bc0 a35d f93f 9d91 29c0 e0cd f43f
000000f0: 2164 04bf a111 5cbf cfc8 b7be f90b 23bf

4.weight f4 [2, 64]
1.3677145 -0.5331416 -7.4168253 -1.0213414 -0.4745143 -6.4337153 1.8468022 1.2167616
-0.905093 -2.8481188 -3.2945225 1.1014622 -2.1127033 -0.5903812 -0.6730124 0.77371
-1.0693685 -3.7944791 -2.4912646 2.1081984 -0.7630027 -1.8617221 1.405203 1.1072824
-1.9017588 -0.83674026 2.5772824 0.63851976 -0.8951651 3.8356202 2.121995 -1.8977054
2.4063265 -0.9922707 1.2826958 2.820568 1.2568798 -3.923355 1.7249404 3.9902575
-6.073708 2.6342325 3.3817258 1.4209832 1.571635 -1.887708 -1.3606772 -1.2939845
1.5859836 1.6966449 -2.1055791 -1.7950101 2.5354013 1.6654934 1.2781597 -2.608468
-1.2384491 1.7238426 -0.9349634 1.8575294 5.6118946 1.1029199 0.3826466 3.0361063
1.533029 4.005294 -1.6123018 -0.86957145 -9.515618 0.37011304 1.6881925 1.4407557
-0.68586576 -1.1660701 0.20743117 2.712083 -1.5154034 1.3108714 -2.0510008 -1.0084847
-0.9116044 -8.074408 -2.1379552 2.1364732 3.3993762 2.6006446 1.8279366 2.7843955
-1.2096955 -1.9583384 -1.7368762 -0.75276923 -0.929511 -1.104884 1.2660003 -0.89974284
0.669282 0.1207058 1.0562556 -1.7185912 1.459836 -3.235121 2.3941677 0.13084474
1.2677287 -7.2253847 -1.9187235 1.5507623 1.9857523 -2.627171 0.3975692 3.2735553
1.8816338 2.6133146 2.5215993 2.4748788 2.0689905 1.6591225 -2.7185166 -3.261693
-0.83315575 2.246578 -1.1308475 2.167197 0.23486622 -4.4056277 -1.903924 -2.2930293
00000000: 4511 af3f f87b 08bf a256 edc0 51bb 82bf
00000010: 8af3 f2be ffe0 cdc0 0464 ec3f d8be 9b3f
00000020: 2db4 67bf 9447 36c0 75d9 52c0 b7fc 8c3f
00000030: 8836 07c0 3923 17bf 8a4a 2cbf dc11 463f
00000040: 11e1 88bf bfd8 72c0 e170 1fc0 b9ec 0640
00000050: 2554 43bf e94c eebf b1dd b33f 6ebb 8d3f
00000060: d56c f3bf 9c34 56bf 32f2 2440 0876 233f
00000070: 8a29 65bf cd7a 7540 c4ce 0740 03e8 f2bf
00000080: 4101 1a40 7405 7ebf 602f a43f 3084 3440
00000090: 70e1 a03f 4018 7bc0 d9ca dc3f 6160 7f40
000000a0: d15b c2c0 4497 2840 326e 5840 c7e2 b53f
000000b0: 562b c93f 6aa0 f1bf ac2a aebf 49a1 a5bf
000000c0: 8301 cb3f a92b d93f cfc1 06c0 e4c2 e5bf
000000d0: 0444 2240 e32e d53f bd9a a33f 24f1 26c0
000000e0: 8085 9ebf e0a6 dc3f c359 6fbf 86c3 ed3f
000000f0: a494 b340 7b2c 8d3f 41ea c33e 914f 4240
00000100: 4b3a c43f 5e2b 8040 e85f cebf 3c9c 5ebf
00000110: f93f 18c1 757f bd3e b116 d83f af6a b83f
00000120: e694 2fbf c941 95bf d668 543e c592 2d40
00000130: bdf8 c1bf a2ca a73f 9943 03c0 0716 81bf
00000140: e85e 69bf c630 01c1 42d4 08c0 fabb 0840
00000150: 618f 5940 f670 2640 d4f9 e93f 8933 3240
00000160: 4dd7 9abf d5aa fabf f651 debf 7cb5 40bf
00000170: 6ff4 6dbf d76c 8dbf 4c0c a23f 8c55 66bf
00000180: 1156 2b3f 9a34 f73d 6233 873f ccfa dbbf
00000190: e8db ba3f 390c 4fc0 0b3a 1940 2afc 053e
000001a0: ef44 a23f 5a36 e7c0 bb98 f5bf 617f c63f
000001b0: 222d fe3f 9223 28c0 318e cb3e ee81 5140
000001c0: 60d9 f03f 8c40 2740 e261 2140 6a64 1e40
000001d0: 576a 0440 205e d43f 2dfc 2dc0 94bf 50c0
000001e0: b249 55bf efc7 0f40 9cbf 90bf 5bb3 0a40
000001f0: c580 703e e7fa 8cc0 c8b3 f3bf fec0 12c0

4.bias f4 [2]
2.4533174 2.3097093
00000000: 2703 1d40 47d2 1340
