LV6/cart_pole/saved_models/dqn_CartPole-v1_final_2025-12-18_08-56-17.pth (torch, 21933 bytes, 6 tensors)

0.weight f4 [64, 4]
00000000: 9e7a 41be 5877 ce3d 99e0 fc3d 2e6d 0f3d
00000010: c472 343d 8988 183d aa1e c240 0cc1 1f3f
00000020: 125a a33e e190 91be e714 523f 8e0f 7ebe
00000030: 8062 503e d7d7 403f d412 0e3f d061 033f
00000040: 80b4 acbe 8b7f 933e 24ac 0fc0 8d97 d83d
00000050: c372 d2bf f003 d43f 6550 a9be 9e68 bf3f
00000060: 9ea6 893d b6eb 573e 87ef 563f fad6 bc3e
00000070: dafe 4abd 3eb9 3a3e d208 9fbe bd48 c33d
00000080: 9d3e 71bd f0ee 0c3d 5686 c6c0 5c3a 08bf
00000090: f6d5 8bbe b3d3 6e3e 7dbc 0cc0 b69d 3d3e
000000a0: 184b 2a3e 4033 67be 9ab7 853f 5bc0 73be
000000b0: 29f4 983d c2cb 2abe 4318 0240 4fa0 3dbe
000000c0: 27d8 9a3f bb7d 1ebf d02d 87c0 aa8d ccbe
000000d0: bb4a 9d3d 8042 02bc d515 453f 9647 18be
000000e0: c57a 043f 394e fcbe 63d4 0e40 876c c8be
000000f0: da7f 38bf 09d9 0ebf 5d65 73bf 8af2 adbe
00000100: 4790 f83d c89c 05bc 0ff6 bec0 c609 e1be
00000110: 664a 00bf 8d16 7a3e 1a2b 673f 50c4 883e
00000120: 29b1 243e ef2c f93d d147 bfc0 e5e0 15bf
00000130: cb70 0240 dbee 493f 160a 0040 88e4 aa3e
00000140: f1f9 6ebd 52ef a53d ea2f a63e c3fb 1abd
00000150: daa3 8d3d 057a 41be bca8 58c0 264e 17bf
00000160: ef39 083d ea1e 40bc ceaf aa3e a663 b2be
00000170: efb3 083d c7f3 5f3e ed34 2fbf 3520 34bd
00000180: 8a81 623e a6c6 ab3d a4d3 bec0 6a8a 82bf
00000190: 08a3 9c3e 3a5d 90bd 3971 673e 0dfe 04be
000001a0: bd17 8bbf c4ca 553f cf02 63c0 fd12 843e
000001b0: 3ecc 72bf ac8e 7f3f 81bb a840 f7e4 39bd
000001c0: 1110 0a3f 0fae ecbe fb50 8c40 6915 a33f
000001d0: e36e 0d40 4012 8f3e 141e c13d a007 e23e
000001e0: 4ce4 5c3e 5219 fd3d 9479 8340 446a ac3f
000001f0: 911f ef3d f2ba 4a3c 3ec2 04c0 81ae 24bd
00000200: 8d59 0dbc e770 86bd 2f43 39bf a3e2 ce3b
00000210: 02f2 923e 5e5f cebd 46d7 a8c0 da3f 81bf
00000220: 8102 0ebd 9ad2 bf3d 9687 c340 d53a dd3e
00000230: b347 31bb f7f8 9b3d cd59 aa40 c2da c43e
00000240: c923 b8be 9c3e 463e 8794 64bf 7fae 943e
00000250: 3ad9 77bd 03fa 983c 5a46 be40 dec3 363f
00000260: 3b1b 8d40 216b fdbe 9f2e b7bf 7357 a83d
00000270: 80af 093f f738 b83b e215 7440 8382 e2bf
00000280: a9a6 b3bf 27f5 9c3e 07e7 90c0 614c 96bf
00000290: c369 7bbd 4313 0f3e ef75 ccbf 44df 583e
000002a0: 2892 22be bc73 cd3d 14f8 18c0 9f15 6dbe
000002b0: cd8d 543f 0041 c1be 5839 f8bf f80f bdbe
000002c0: 3caf d3bf e4f9 843f 46e3 043f 9398 1fbf
000002d0: 5536 643f 62a4 9f3c f3d7 cabf b03c c0be
000002e0: 28f6 ae3f 3965 8e3f 0390 f23e 83ae df3e
000002f0: c064 2fc0 0c87 80be 49b1 2bbe 58e6 5b3d
00000300: 023c 673f fd07 d4be a062 c1bf fac2 b7bb
00000310: c277 05bf db75 a93f 5d54 4bc0 51e2 4c3e
00000320: e0b7 0b3f ec36 23be 1781 cdbf 49b4 72be
00000330: c124 16be 5895 d73d 820c c240 866b 853f
00000340: dce6 df3e 782d 96be 1bdc aabf 7657 95be
00000350: cc2e 67bd d686 afba 3eaa cec0 c76e 31bf
00000360: 1221 a1be b87d 933e a98f 75bf 9f1c a73e
00000370: 98a6 663e 7999 473d 446d 04c0 bf78 1e3d
00000380: 95a7 263e 64c5 d2bd d46b c4c0 31dd fcbe
00000390: 550a 04bd 8c33 b93e 4b54 a2c0 a4a3 16be
000003a0: 3777 393e 441e 26bd 0adb 84bc c502 19be
000003b0: d272 de3e cc93 50bd 81f5 7fbf 89da a0bd
000003c0: 9e85 323c 133d 5e3e 8af2 66bf 8ec8 913e
000003d0: d351 1ebe 66d0 853c ecfd d7bf 42df c1be
000003e0: 6667 0d3e 8ef8 5dbc 116f ad40 45fb c0bc
000003f0: d8a3 30bf d0c1 0940 2714 2d3f 9f45 e13f
-0.18894431 0.10081357 0.12347526 0.03501623 0.04405476 0.037239585 6.066243 0.6240394
0.31904656 -0.28430846 0.82063144 -0.24810621 0.20350075 0.75329345 0.5549748 0.51321125
-0.3373146 0.28808245 -2.2448816 0.10575781 -1.6441272 1.6563702 -0.3306915 1.4953802
0.06721233 0.2108601 0.8395924 0.36882764 -0.04955945 0.18234727 -0.31061417 0.09535358
-0.058897603 0.034407556 -6.2038984 -0.5321405 -0.27311677 0.23322944 -2.1990044 0.18517193
0.16630208 -0.22578144 1.0446656 -0.23803847 0.07468445 -0.1667929 2.0327308 -0.18518184
1.2097214 -0.619106 -4.2243423 -0.3995183 0.07680269 -0.007950425 0.7698644 -0.14871058
0.5174983 -0.4927843 2.231713 -0.391453 -0.72070086 -0.5579992 -0.95076543 -0.33974105
0.12136894 -0.008155055 -5.9675364 -0.4395277 -0.50113523 0.24422665 0.9030014 0.26712275
0.16083206 0.121667735 -5.9775167 -0.58546287 2.0381343 0.7888009 2.0006156 0.3337748
-0.05834383 0.08102287 0.3245843 -0.037837755 0.06916018 -0.18894203 -3.3852987 -0.5910362
0.033258375 -0.0117261205 0.33337253 -0.3484165 0.033374723 0.21870337 -0.68440133 -0.043976028
0.22119728 0.083874986 -5.963335 -1.0198491 0.30593133 -0.070490316 0.22601785 -0.12987538
-1.0866619 0.8351252 -3.5470464 0.25795737 -0.948429 0.99827075 5.2728887 -0.045384374
0.53930765 -0.46226546 4.3848853 1.2740909 2.209893 0.2794361 0.09429565 0.44146442
0.21571463 0.12358345 4.108591 1.346993 0.11675943 0.012373673 -2.0743556 -0.040205482
-0.008627308 -0.06564503 -0.7236814 0.0063136383 0.28700262 -0.100767836 -5.2762785 -1.0097611
-0.034670357 0.09366341 6.110301 0.43208948 -0.0027050793 0.07615846 5.323462 0.3844815
-0.35964802 0.19359821 -0.89289135 0.2903938 -0.060509898 0.018673902 5.946088 0.7139262
4.409574 -0.49495795 -1.4311103 0.082198046 0.53783417 0.005622025 3.8138356 -1.7696079
-1.4035236 0.30655786 -4.5282016 -1.1742059 -0.06138016 0.13972192 -1.597349 0.21178919
-0.15876067 0.1003184 -2.3901415 -0.23152779 0.8302887 -0.37744904 -1.93925 -0.36926246
-1.6537852 1.038876 0.5190929 -0.62342185 0.89145404 0.019487564 -1.5847152 -0.375463
1.3668871 1.1124641 0.47375497 0.4368783 -2.7405243 -0.25103033 -0.16766848 0.05368647
0.9032594 -0.41412345 -1.5108223 -0.00560796 -0.5213586 1.3239092 -3.1770241 0.20008208
0.54577446 -0.1593892 -1.605502 -0.23701586 -0.14662458 0.10526532 6.064027 1.0423439
0.4373082 -0.29331565 -1.3348421 -0.2916829 -0.056441113 -0.0013391625 -6.4582815 -0.6930966
-0.31470543 0.28806853 -0.95922333 0.32639024 0.22524488 0.048730347 -2.069169 0.03868937
0.16274865 -0.102915555 -6.1381626 -0.49387506 -0.032236416 0.3617214 -5.0727897 -0.14710861
0.18111883 -0.040556207 -0.016217727 -0.14942463 0.43446976 -0.0509222 -0.99983984 -0.07854182
0.010896115 0.21702985 -0.90213835 0.28473324 -0.15460901 0.016334724 -1.6874366 -0.37865645
0.13808975 -0.01354803 5.419808 -0.023557315 -0.69000006 2.1524544 0.67608875 1.7599372

0.bias f4 [64]
00000000: 956d 6cbe 0fc3 9cbf 3cd9 92be 1513 e2bf
00000010: b2e6 34bf ac5e 3cbf 0dab 903f 1c7f e73e
00000020: 239f 8fbf 6232 12bf f711 9e3f efd8 5c3f
00000030: afdf 7ebf 6fa0 b5be 3ac5 753e 6fc3 c93e
00000040: 29d2 a1bf c14c 83bf c497 8ebf f058 b6bf
00000050: b001 9e3f c0cf 8c3f d878 4abf 6b62 5fbf
00000060: c9f4 bcbf 177b 703f cb7b 5c3d 4a55 0bbf
00000070: a201 02c0 64c9 89bf 37e5 bebf df0b 3bbf
00000080: 1f9c 82bf 84f7 dbbf 485b 99bf 551a 93bf
00000090: 438a 81bf 5a4b 98bf e8a4 4fbf 2bfd 0a3f
000000a0: 1f7b ebbf 311d ddbe a039 a3bf 2e91 a3bf
000000b0: 8425 39bf a90b a4bf e0cc 79bf da74 f7bf
000000c0: 01fb 143f 14b4 bcbf 6fe7 58bf b546 b6bf
000000d0: 1c4d 81bf 61f4 99bf a39e 9cbe f9ec 4ebf
000000e0: 1699 94bf 87fc 82bf b2ed 683f d312 27bf
000000f0: 6ce3 0abf 266b 7a3f 14a4 7ebf b1a9 ec3d
-0.23088677 -1.2247027 -0.28681362 -1.7662073 -0.70664513 -0.7358196 1.13022 0.45214164
-1.122044 -0.5710813 1.2349232 0.86268514 -0.99560064 -0.35473964 0.24001017 0.39406916
-1.2642261 -1.0257798 -1.1140065 -1.4245892 1.2344265 1.10009 -0.7909064 -0.8725955
-1.4762203 0.9393782 0.053828996 -0.54427016 -2.0313497 -1.0764585 -1.4913701 -0.7306499
-1.0203894 -1.7184911 -1.1980982 -1.1492411 -1.0120319 -1.1897995 -0.81111 0.54292554
-1.8396949 -0.43186334 -1.2751961 -1.277868 -0.7232287 -1.2816058 -0.9757824 -1.9332535
0.581955 -1.4742455 -0.8472814 -1.4240328 -1.0101657 -1.2027704 -0.3058978 -0.8083034
-1.1609218 -1.0233315 0.90987694 -0.652631 -0.5425327 0.97819746 -0.99469113 0.115558036

2.weight f4 [64, 64]
00000000: c4eb f13d 358e f4be 88ab 45be bf3b 823e
00000010: aa09 a93d 9733 15bf 3a35 70be 1294 45be
00000020: 785d 07c0 c69c 21bd 9521 86be fe44 4dbe
00000030: d470 aa3f 9e9d fd3e bf0e 80be 9b37 94be
00000040: 01b2 91c0 9135 3a3e 57b6 413f c2be a23e
00000050: 472c fabd 4e9a 2fbe 62e6 f03e d77b 263e
00000060: c6ad e5bf f735 50be de63 e7be cf57 073f
00000070: 9ba8 25bf 9af0 b2bc c6ac c6bf 8665 ea3d
00000080: cffd ad3e c850 95c0 6967 9e3e 6906 aa3f
00000090: db44 013e 5597 4fbf a229 58bf 3b26 a93e
000000a0: 29e5 b5bf 197a ad3e e1a6 3e3e 0c2c 293e
000000b0: 73fe 60bf 53d9 7c3e e662 8d3d 363d 2a3f
000000c0: 5b19 31bf 5656 923e ddcd e73d 807e b1bf
000000d0: 4185 9b3e 79b4 fdbf 72ae 09be 8368 6dbd
000000e0: 4c63 4bc0 2b7e 8c3e 2379 23be d3e8 943e
000000f0: 79bc 803c 1168 04be 63b9 913f a866 19bf
00000100: f7f0 f83e 34aa 91be 46f9 1ebf 7d54 05be
00000110: 7fc9 613e 4a1e 85be 3250 81be f5aa 66be
00000120: 4615 f1be 1360 5b3d a2a6 89be d169 62be
00000130: 77f2 c63e f3fa f63e 1f1d a8ba f535 993d
00000140: 4b96 913f 22bc e33d 63d3 8a3e 241f 37be
00000150: d750 b8be 5b79 993e ce20 123f f8c6 743e
00000160: 4062 10be d0ec d2bd 944c 3e3f aa05 27be
00000170: 4f94 24bf 9f87 d13e 94dc f3be 3019 9b3e
00000180: cc8c 903e 1321 5dc0 393f a7be 315b b33f
00000190: e4ac b03e cbc0 313e fe69 5dbe 9923 9b3d
000001a0: dca7 6d3f 166a 173f f632 673d 7ad0 ef3e
000001b0: e6b0 573e 7cda 733e 28c3 7a3e ad12 83be
000001c0: f027 e13e 4ef3 24be 5e29 1f3f b8b7 e5be
000001d0: adf6 7c3e 1224 a23e 6f16 84bd 7433 7a3e
000001e0: d88e 8bbf 6205 bbbe a149 1fbe dfab 9a3e
000001f0: 93d1 51bd 011e 66be 2ccd 083f cf8d 15bf
00000200: c65c b43c 493e 2f3f 529a ac3d c657 84bf
00000210: 76dc 3dbe 4350 613f 49d1 453e bb31 c43c
00000220: f236 18c1 2a57 19be 73af f63e 9db2 0d3e
00000230: 372c 18c0 8454 92bd 7b43 353d 40f7 10bd
00000240: 73d4 90c0 b09a 7cbe 029a 86c0 ea2a c7bf
00000250: a980 d83e 6e20 5f3f 73be d03d 83ae 95be
00000260: c520 06c1 56c7 793e 70fd 363f b421 2bbe
00000270: b2dc af3f a4e7 b9bf 9579 ac3f 1d85 cb3d
00000280: 8c0c 87be cf28 b7bf 923e 453f 2603 84c0
00000290: 2b80 d7be 1a1b 9dbd 3838 dd3e 76f3 673b
000002a0: f61d 9cbf ac02 c9be 2768 f8be 5c65 d4bd
000002b0: dcd0 ba3e f3b2 e5bf 388b 9ac0 7da9 46bf
000002c0: 90d5 9a3e 8446 1bc0 06a3 56bc 41a4 0b40
000002d0: dd2d eebd 14d6 14c1 1b08 7fbe 18b5 153d
000002e0: 408d 2cc1 1fb4 6dc0 097c 7e3e 2724 423e
000002f0: ba3a 493e f2a8 d93e 5570 00c0 a214 95bf
00000300: 3ade 313f 8124 22bf 2981 25bf e7fa 823c
00000310: 6240 293e be71 afbe e771 38bf e725 0fbf
00000320: df62 5c3c 7554 253f 726e 0bbf cc20 26bf
00000330: 8919 8f3e 9ecf 623f f267 24bf 7ad6 21be
00000340: b281 b93f e5e3 2d3e a475 b23d 75ef 023e
00000350: a3dd 25bf 183c a0be 6f12 aa3e 2bdc d53e
00000360: 202f 093f d904 24bf bfb4 03be 1e66 51bf
00000370: 6d59 0bbf 4390 b9bd d6a4 32bf 0a36 1c3f
00000380: ccd1 393f 715e b93e 480a 7cbf 8c19 e0bd
00000390: 80c5 0c3f 5a24 18bf e1ac 1dbf be20 03bf
000003a0: 34fd 9abe 18c9 033f 5277 1e3f a268 563f
000003b0: b669 b4bd 5b4f c4bd dcc5 5c3d 22f7 9b3e
000003c0: 56fa 25be 86fe ffbd 533f 493f d8ca 81be
000003d0: ead4 393f 851b 0d3f 5c48 3a3e 744d fa3e
000003e0: cf55 153e 9226 443e 1007 ebbe 3156 003f
000003f0: 8d9c c33e 4639 06bf 1539 f5be b3cb 7ebc
0.11812547 -0.47764745 -0.19303715 0.25436208 0.082537964 -0.58281845 -0.23457804 -0.19294766
-2.1150799 -0.03945615 -0.26197496 -0.2004585 1.3315682 0.49534315 -0.2501125 -0.28948674
-4.552979 0.18184496 0.75668854 0.31786162 -0.122154765 -0.17148706 0.47050768 0.16258179
-1.7943656 -0.20333086 -0.4519338 0.5286836 -0.64710397 -0.021843243 -1.5521476 0.11445145
0.33982703 -4.666111 0.3093827 1.3283206 0.12623923 -0.8109029 -0.84438527 0.3303698
-1.4210559 0.33882216 0.18618347 0.16520709 -0.8788826 0.24692278 0.06903629 0.6649965
-0.69179314 0.28581494 0.11318562 -1.386673 0.30375102 -1.9820701 -0.13445452 -0.057961
-3.1779356 0.2744001 -0.15964179 0.2908388 0.01571487 -0.12930323 1.13847 -0.59922266
0.48621342 -0.28450167 -0.6209911 -0.13020511 0.22049521 -0.2599967 -0.25256497 -0.22526152
-0.47086543 0.05355842 -0.26884943 -0.22110678 0.3885686 0.48238334 -0.0012826062 0.074809946
1.1373991 0.11119868 0.271144 -0.17882973 -0.35999176 0.299754 0.57081306 0.23904026
-0.1409998 -0.10299075 0.743356 -0.16310754 -0.642888 0.40923783 -0.47629225 0.30292654
0.2823242 -3.4551437 -0.32665423 1.4012204 0.34506905 0.17358701 -0.21622464 0.07575149
0.9283426 0.5914625 0.056445085 0.46838742 0.21063575 0.23813814 0.24488509 -0.25600186
0.43975782 -0.16108438 0.62172496 -0.4486673 0.24703474 0.31668144 -0.06449591 0.2443369
-1.0902967 -0.36527544 -0.15555431 0.30209252 -0.051225256 -0.22472383 0.5343807 -0.5841951
0.022016894 0.68454415 0.08427872 -1.0339286 -0.1854113 0.88013095 0.19318117 0.023949495
-9.513414 -0.14974657 0.48180732 0.13837667 -2.3776987 -0.07145026 0.044253808 -0.035392046
-4.5259337 -0.24668384 -4.2063 -1.5559971 0.4228566 0.8715886 0.10192575 -0.29234704
-8.383 0.24392447 0.71480465 -0.16712075 1.3739226 -1.4523816 1.3474604 0.09937499
-0.2637676 -1.4309329 0.770486 -4.1253843 -0.42089972 -0.07671185 0.43206954 0.0035392917
-1.2196643 -0.3925985 -0.48516962 -0.10370895 0.36487472 -1.7945236 -4.8294945 -0.7760237
0.3024106 -2.426179 -0.013100391 2.1819003 -0.116298415 -9.302265 -0.24905436 0.036549658
-10.784485 -3.7141187 0.24852003 0.18959104 0.19651309 0.42511708 -2.0068562 -1.1646922
0.69479716 -0.6333695 -0.6465021 0.01598878 0.16528466 -0.34266466 -0.720488 -0.5591721
0.013451307 0.64581996 -0.544654 -0.64893794 0.2794917 0.8859805 -0.6422111 -0.15804473
1.4492705 0.16981466 0.087138444 0.12786658 -0.64791316 -0.31295848 0.3321719 0.41769537
0.5358753 -0.64069897 -0.12861918 -0.81796443 -0.5443333 -0.09060719 -0.6978277 0.6101996
0.7258575 0.36204866 -0.9845319 -0.10942373 0.5498886 -0.5943047 -0.6159192 -0.51221836
-0.30271304 0.5147872 0.6190082 0.83753407 -0.08809225 -0.09585448 0.05389963 0.30461985
-0.16208777 -0.12499718 0.7861225 -0.2535007 0.72590506 0.55120116 0.18191665 0.48887217
0.14583515 0.19155338 -0.45903826 0.5013152 0.38205376 -0.5243114 -0.47895113 -0.015551495

2.bias f4 [64]
00000000: 30fb c3be 4241 53bf 3ed0 8d3f 8c40 50bf
00000010: 7e52 91bf 5253 bbbf 3e3f d3be 3245 22bf
00000020: 7d34 02bf 04e9 6f3f c778 b23f e7b6 af3f
00000030: 65a3 3fbf 981f 8bbf 051c ecbe 26fb 4bbf
00000040: c118 6fbf 0584 d63f 7022 24bf 9c9e a9bf
00000050: 8088 6abf 6dad e1be 3622 d0bd 7b6c a9be
00000060: fd60 78bf 95d9 05bf ab44 793f 3f46 dcbe
00000070: aaaa 3ebf d12c 7a3f e491 c13f 672e 28bf
00000080: a0c0 01bf 6e0d d33f 775b 48bf 825d 1ebf
00000090: 873a f2be 88a7 85bf 4f72 49be 3eee 4ebf
000000a0: 5332 9b3f 8dc8 c73f 7105 b1be 7065 9a3f
000000b0: aac6 80be e237 61be 1d4c ad3f 120a 983f
000000c0: f145 c6bd 151f 973f 8f02 803f db88 63bf
000000d0: 0ddb 13bf 4fa0 c63f 67d9 463e 6d08 d83f
000000e0: de0e 9c3f 977e ecbe 0e4c 3abf ce79 19be
000000f0: 2292 d83f eb77 12bf 99fd 97bf 4272 c93f
-0.38277578 -0.8252145 1.1079175 -0.8134849 -1.13533 -1.4634802 -0.41259187 -0.63386834
-0.5086134 0.9371493 1.3943108 1.3727692 -0.74858695 -1.0869017 -0.46115127 -0.796801
-0.93397146 1.6759039 -0.6411505 -1.3251529 -0.9161453 -0.44077626 -0.10162775 -0.33090577
-0.9702299 -0.5228513 0.97370404 -0.43022344 -0.7447916 0.97724634 1.5122647 -0.65695804
-0.5068455 1.6488473 -0.78264564 -0.6186143 -0.47310278 -1.0441751 -0.19672512 -0.8083228
1.2124733 1.5608078 -0.34574464 1.2062206 -0.2515157 -0.21993974 1.3538853 1.1878073
-0.09681309 1.180636 1.0000781 -0.888807 -0.5775612 1.5517672 0.1941887 1.6877571
1.2192037 -0.4619033 -0.727723 -0.14987871 1.6919596 -0.5721423 -1.1874267 1.5737994

4.weight f4 [2, 64]
00000000: 366c c03e b5e7 79bd bf41 e3be a7cd c2be
00000010: 545e 39be 3ca4 85be 3737 c63e 3a6f c93d
00000020: a8dc 193c 7d52 f5bf b970 5d40 4dd2 4840
00000030: 8117 4abe 5b30 0fbe 9037 e1c0 b68b 683f
00000040: 8110 3f3f ef60 5a3f 9977 123f 25b4 34be
00000050: 7e57 573e 59d5 433f c45b bf3c fab6 dbbe
00000060: 07bd 11bd 6728 92bd d06c cf3e e0f3 15bd
00000070: 64e1 a7bd 32d4 d9bf a516 1a3f 8666 653e
00000080: 76c9 13be 9ea7 793f 8677 2bbf 9be7 12be
00000090: e62f e7bd 70b0 3fbe 4fb7 9b3d 098c 293e
000000a0: 7cdf 843f ee62 3b40 273d 3ebe 3a28 883f
000000b0: f00e 82be 8b30 29bd 9106 6740 e0ee 893f
000000c0: 6925 e73c 26d3 5e3f 272b 38bf 7632 94be
000000d0: 6a80 8f3e 1210 9f3f cd66 9540 02e0 1c3d
000000e0: 6450 5a3f c329 623d 0a13 023e 1edc b9bd
000000f0: b023 7f3f 22ae 45c0 0e6f 04be 2437 513e
00000100: cb3b 83be 31a7 69bd 5e04 dd3f 9a0a b8bd
00000110: e85b 55bf 1fe1 0cbf c97a f53e bdae c6bd
00000120: 8103 4abd a6e4 af3f c8cd 53be d043 cebe
00000130: a223 14c1 9c7c 82bf dc3f c9bf 542e b5be
00000140: b26d 86be 8fd8 bf3f 9211 493e 143e 86be
00000150: d0dd 27bd 48f2 15bf a334 d73d 897e 473b
00000160: 4997 96bd 0fde bfbd 9bfa de3f 51c9 4b3c
00000170: 44ef 583d 8b08 d23f 5a69 d93f f838 babe
00000180: 732e 36be 5988 d83f ff25 753e b424 b5be
00000190: 0ff7 21bd 0cc9 debd 0a1c 183d 2fcf 273e
000001a0: 7882 973e db72 35c0 08d3 063d 71f0 933d
000001b0: bbab ef3d 2c95 12bd efc6 9abf 745a 273e
000001c0: 70ad 4fbc 3d0d c83d 80d9 f53f 0291 5dbe
000001d0: 577a 07be 76e9 b23f 833b bb3f 9c03 7c40
000001e0: e6be ee3d 8dd4 33be 8e02 e4bd 7f92 053e
000001f0: 44b6 d53f bc51 f440 9fbd 0ebc b5e0 7340
0.37582558 -0.06101199 -0.44386098 -0.38047525 -0.1810239 -0.26101863 0.38714 0.09835668
0.009390987 -1.9165798 3.460005 3.1378357 -0.19735529 -0.1398329 -7.0380325 0.9083818
0.7463456 0.8530416 0.5721374 -0.17646845 0.2102947 0.7649742 0.023359187 -0.42913038
-0.03558066 -0.071366124 0.40512705 -0.03660953 -0.08197287 -1.7017882 0.601908 0.22402391
-0.1443232 0.9752139 -0.66979253 -0.14346163 -0.11288433 -0.1871965 0.07603323 0.16557325
1.0380702 2.9279132 -0.18578015 1.0637276 -0.2540202 -0.04130606 3.6097758 1.0776024
0.02821608 0.87040937 -0.71940845 -0.2894475 0.2802766 1.2426779 4.668799 0.038299568
0.85278916 0.05521561 0.12702575 -0.09075187 0.9966383 -3.0887532 -0.12932989 0.2043119
-0.25631556 -0.05704421 1.7266958 -0.08986397 -0.8334336 -0.5503101 0.4794524 -0.097012974
-0.049319748 1.3741653 -0.20683968 -0.40286112 -9.258699 -1.0194278 -1.5722613 -0.35386908
-0.26255566 1.4987963 0.19635609 -0.26219237 -0.04098302 -0.58572817 0.105080865 0.003044041
-0.07353074 -0.09368526 1.7420229 0.012438134 0.052962556 1.6408857 1.6985276 -0.3637159
-0.17791156 1.691661 0.23940276 -0.35379565 -0.039542254 -0.108781904 0.037136115 0.16387628
0.29591727 -2.8351352 0.0329161 0.07223595 0.11702677 -0.035786793 -1.209196 0.16343099
-0.012675628 0.0976815 1.9207001 -0.21637347 -0.13230263 1.3977497 1.4627537 3.9377203
0.11657505 -0.1756155 -0.111333 0.13044165 1.6696248 7.6349773 -0.008712201 3.81059

4.bias f4 [2]
00000000: 21ef c23f b3e9 be3f
1.5229226 1.4915069
