LV6/cart_pole/saved_models/dqn_CartPole-v1_final_2025-12-18_09-14-01.pth (torch, 21933 bytes, 6 tensors)

0.weight f4 [64, 4]
00000000: d363 d1be 8895 69be 3e05 4ebc dc11 74be
00000010: 05d1 96be f493 01bf a41d 61be 50fc ddbe
00000020: a0f2 713e d8ba 063f 2f41 333f 23e7 013f
00000030: 4b15 88be d485 99be f025 153d a655 aebe
00000040: 7442 b53d 482b a13d fa65 6340 6461 303f
00000050: 0813 5c3d 44f2 323e 2734 36c0 f0d2 b4bd
00000060: a30f 7cbd ec59 7ebe c01d 8bbf 6770 b53d
00000070: f434 1cbe 278a b93e 9fb0 1b3f 30e9 b03e
00000080: ec79 58be 83d5 353d 7ffa 403f 0951 de3e
00000090: 444b 94bd 82f9 f33e a223 6f3f 03e8 173f
000000a0: 75f0 cbbd 4f30 e03d 1897 23bf 5b3a d0bd
000000b0: 4bda 1ebf 3cd5 debe 7a6f ca3f a314 233e
000000c0: 30e5 22bf ffe4 083e 6650 30bf 850c cbbd
000000d0: 49bb 4abf b94d a8be 5811 a83f 19f3 72be
000000e0: 30d4 933e 6c98 08bf ed32 80bf e6fc acbe
000000f0: 7d5f 88bd b3ab 99be c904 83bf 66d5 f83d
00000100: e0f2 1a3f 5088 a63e 0010 893f 410b da3e
00000110: cd0a cbbd 011c 1e3e cafa b6be bc3c e6bd
00000120: 7493 b33c ca45 60bd 0a4e 3740 ed4f db3e
00000130: d1c7 febe e7f4 f7be 0a49 03c0 7ea0 d6be
00000140: d735 24be 73b2 a53e c50f 893f a52e 0d3e
00000150: beac 953e cca2 173f 986e 0440 754f 133f
00000160: c129 93be b4ff 42be d530 d33e 1851 6d3c
00000170: c486 d6bd c5ae 263e bd44 8c3e 850c 9dbe
00000180: a430 8fbe c552 f2be 4178 06c0 0478 d6be
00000190: 8a72 1bbf 3185 0bbe 97c5 193f 7cf8 8abe
000001a0: 72f3 7b3f 8cbe 2e3f 0632 f0bd 41c3 c43e
000001b0: e232 77be 5bae 4abe b512 c53d a0e0 eabd
000001c0: 15b0 18be 0a34 be3e 7dcc 2640 960e 503e
000001d0: 63b1 483f bfd9 93be 74c5 20c0 77fa f6be
000001e0: f709 3f3f 63bf 0e3f f659 9ebd 9ef4 ae3e
000001f0: e6a6 1b3f 2aee e4be 3c15 47bf 5768 babe
00000200: a12c ec3d 321a c9be d9ab 46bf bafb 9a3c
00000210: a15b 6cbe ee53 3fbf 0d36 cebf 0a7a 9d3e
00000220: b894 ebbe 16a2 bdbe 61f0 bfbf f775 cebe
00000230: 8f14 c1bd d17e 8abd 05d2 26c0 ecdb d5be
00000240: 2093 03be 2645 16bf 4078 dbbe 9a08 ddbe
00000250: 7866 63bf c620 4bbf ad3f 12c0 da0d 02bf
00000260: 5e55 0cbf ef9e 9cbe f513 0cbf 1bf9 cabd
00000270: 5a5b 293e ce49 a7be 6e2e 37c0 9cf5 fdbe
00000280: 554a 98be 0b82 afbe ba5d 983c fb19 43be
00000290: 2137 06bf 4dfc 3fbe c526 f2bf b1d4 0dbf
000002a0: da5a 373e 7f7e 313e 9383 2040 9a99 9e3c
000002b0: 782d d73f a48e 24be 6886 8ebf 48b2 a1be
000002c0: 6093 2d3f 4657 733f 0e45 033f 8567 653f
000002d0: 4844 2a3e 686f d0bd ed8b 12bf edd0 64bd
000002e0: d3eb 6fbd 5389 9dbe afea babf 2092 7abd
000002f0: a4c7 4fbe e323 90be 1cef 0f3f 53b4 07bf
00000300: 728b 55be e10d c7be 1e68 1dbf 8206 bb3b
00000310: adb4 243f 8e66 37be 81dc 3bc0 6edd 07bf
00000320: 278e a0be fb04 c8be 4c97 1dbe 2c51 36be
00000330: 96fb cebe 70aa aabd 4ae5 22bf 122e a6be
00000340: d45b aabe 43a6 04bd 2167 75bf ac42 533d
00000350: 7a7b 893f 8093 653f 1078 9d3e 4d66 b53e
00000360: 53a4 253f 2224 62bc 32df 523f e982 803e
00000370: 13a5 0dbe 5c5d d5be ac76 85be 7a37 ecbd
00000380: c00f 71be 892b e0be f6ea e3be 6ef7 b2be
00000390: 828e 6d3d 67cf 803f b081 603f 03b9 06bf
000003a0: 8168 aa3f ce2d e63d 79bd 0abf 6430 3f3e
000003b0: f56d 50be 385b edbd 295a 30c0 053f 07bf
000003c0: f38b 8f3f 5801 093e f8bc 06c0 38b0 c7bd
000003d0: fd6a 2c3f 84b6 1cbe 5748 3dc0 0a04 d1be
000003e0: fd1a a23f 6b44 1f3f 2c24 89bf 34a1 d33e
000003f0: d2fb 2bbf 2d18 9dbe e780 c03f afee 8a3c
-0.40896472 -0.22810948 -0.012574492 -0.23834938 -0.29456344 -0.50616384 -0.21983963 -0.43356562
0.2362771 0.5262885 0.7002134 0.5074331 -0.26578745 -0.29984915 0.036413133 -0.3404972
0.088505656 0.07869583 3.5530992 0.68898606 0.053729087 0.1747523 -2.8469331 -0.08829296
-0.06153835 -0.2483899 -1.0868454 0.0885933 -0.15254575 0.36238214 0.6081638 0.34552908
-0.2114026 0.044393074 0.75382227 0.434212 -0.07240918 0.47651297 0.93413746 0.59338397
-0.09957973 0.10946714 -0.63902426 -0.101673804 -0.6205184 -0.4352206 1.581527 0.15925841
-0.6363096 0.13368605 -0.6887268 -0.09914497 -0.79192024 -0.32871798 1.3130293 -0.23725547
0.28872824 -0.5335758 -1.0015541 -0.33786696 -0.06658838 -0.3001381 -1.0235835 0.121500775
0.6052685 0.32525873 1.0708008 0.4258671 -0.099141695 0.1544037 -0.35738212 -0.11242053
0.021920897 -0.054754056 2.8641381 0.42834416 -0.49761823 -0.48429033 -2.051333 -0.4191932
-0.16036163 0.32362708 1.0707937 0.13787325 0.29233354 0.59232783 2.06925 0.57543117
-0.28742793 -0.19042856 0.41248193 0.014484666 -0.10474923 0.16277607 0.27396193 -0.30673614
-0.27966797 -0.47328773 -2.1010897 -0.4188844 -0.6072165 -0.13625027 0.60067123 -0.27142704
0.98418343 0.682595 -0.11728291 0.38430217 -0.24140504 -0.19793074 0.09622709 -0.11468625
-0.1491092 0.37149078 2.606231 0.20318064 0.7839567 -0.28877065 -2.5120516 -0.48237965
0.7462458 0.5576078 -0.077320024 0.34171003 0.6080154 -0.44712955 -0.77766776 -0.3640773
0.1153195 -0.39277798 -0.7760597 0.01891886 -0.23081829 -0.7473744 -1.6110245 0.3075717
-0.460119 -0.37037724 -1.4995233 -0.40324375 -0.09427749 -0.067624696 -2.6065686 -0.4176935
-0.12849092 -0.5869926 -0.4286518 -0.43170625 -0.8882823 -0.79346883 -2.2851365 -0.50802386
-0.5481776 -0.30590007 -0.5471795 -0.09910794 0.16538754 -0.32673496 -2.8622088 -0.49601448
-0.2974421 -0.34278902 0.01859938 -0.1905288 -0.5242787 -0.18748589 -1.8918082 -0.55402666
0.17905751 0.1733341 2.5080307 0.019360352 1.6810751 -0.16070038 -1.1134768 -0.3158133
0.67803 0.95055044 0.51277244 0.89611083 0.1662761 -0.10177499 -0.5724476 -0.05586331
-0.05857451 -0.30768833 -1.460287 -0.061174512 -0.20291 -0.2815238 0.56224227 -0.5300953
-0.20853975 -0.38877776 -0.61486995 0.005707563 0.6433819 -0.17910215 -2.9353335 -0.5307225
-0.31358454 -0.390663 -0.15389746 -0.17804402 -0.4042632 -0.083332896 -0.6363112 -0.32457024
-0.33273184 -0.032385122 -0.9586049 0.051577255 1.0740807 0.8967819 0.30755663 0.35429612
0.64703864 -0.01380256 0.8237182 0.25099877 -0.13832502 -0.4167279 -0.26067102 -0.11534019
-0.23541164 -0.43783215 -0.44515198 -0.349544 0.057997234 1.0063294 0.8769789 -0.52626055
1.3313142 0.11239205 -0.5419536 0.18670803 -0.20354445 -0.11589664 -2.755503 -0.52830535
1.1214584 0.13379419 -2.1052837 -0.09750408 0.6735075 -0.15303999 -2.9575403 -0.40823394
1.2664486 0.6221377 -1.0714164 0.41333926 -0.6718112 -0.30682507 1.5039338 0.016959516

0.bias f4 [64]
00000000: 4255 0c3f 12b2 1c3f b8e6 c3be acce 063f
00000010: 7d1b 27bf 7059 b4be 7c90 f03e 1851 393f
00000020: a2e8 513f 766a 513f 0a10 633f 62fd c2be
00000030: 7725 ba3e c7ba 6c3e bb4e ac3e eecc 233f
00000040: 4049 d5be 2b33 4c3f 11b0 70bf 5311 073e
00000050: 39f7 7d3e d37a 8d3d ddf0 023f 1f98 623f
00000060: 5527 3b3e 4bf5 8e3e b560 c63e 4ac8 c63e
00000070: 208d ab3c 6d6b 45bf ff70 563f 912d 333f
00000080: cb2f 5a3f 8749 9f3d 9568 1cbe 5a8d 11bf
00000090: 2c44 0f3f b085 fc3e 2fd9 483f 4ffb 183f
000000a0: 289b 0c3f 5501 3dbf 0ffe 143f 6b38 3b3e
000000b0: fe6e ee3e 8817 293f 7d37 d63e c015 f73e
000000c0: 27bb 403f b2d7 21bf 29be 1f3f fb95 5cbf
000000d0: 342a a13e e409 493f 4033 0b3e 2b5e 103f
000000e0: 2259 093f ffbb 1a3f 9296 09be d8e3 26bf
000000f0: 237d 55be fe2a 2abf d743 e33e b1f1 afbe
0.54817593 0.61209214 -0.38261962 0.52659106 -0.6527632 -0.35224485 0.46985233 0.72389364
0.81995595 0.8180307 0.8869635 -0.3808394 0.36356708 0.23118125 0.33653817 0.6398457
-0.41657448 0.79765576 -0.94018656 0.13190202 0.24801339 0.069081925 0.5114878 0.8851337
0.18276723 0.2792152 0.38745657 0.38824683 0.020941317 -0.77117044 0.8376617 0.69991404
0.85229176 0.07777696 -0.1527427 -0.5685631 0.559634 0.49320745 0.78456396 0.59758466
0.5492425 -0.7383016 0.5820016 0.1828324 0.46569055 0.6605153 0.4183921 0.4825878
0.7528557 -0.6321975 0.62399536 -0.8616635 0.3147751 0.78530717 0.13593769 0.5639369
0.5365163 0.6044311 -0.13436344 -0.6519141 -0.20848517 -0.6647185 0.44387695 -0.34364083

2.weight f4 [64, 64]
00000000: 9c8f f73d 2acc 3abd d7fd 21be abf4 3ebe
00000010: 28d5 583e 63b4 0cbf 698d b23e 0fb4 f63e
00000020: ac57 2d3f 525d 663f 677a 15bd 47d5 20bf
00000030: d2d8 fe3d ac19 1b3f b744 d8be c9a0 813e
00000040: a4d4 8bbf fb2e 13bd 3f8f 82bf f812 0bc0
00000050: 20e2 103e 941d b63d 6bd3 bd3e 4450 ac3c
00000060: 953f 11c0 67da 6f3e 8546 013f 9e3b 573e
00000070: 0204 bdbc e903 04c0 1fd5 163f 7599 26be
00000080: 658f f43d 8dab a43e 2c5a babf 8c68 d0be
00000090: 7951 abbe 42ab ccbe e88e e63c a442 c4bf
000000a0: 8ee8 713e c7c0 bebf 7489 223e 8020 333f
000000b0: 4e30 6b3f 0c03 093d 3dc5 d7be 1084 b5be
000000c0: cc52 cb3d 82db 29bf 76d0 23bd 15c7 08bf
000000d0: 7dfe 3cbe affb 223f a7f4 26be 4f9d b33c
000000e0: 3720 34be c930 2ebe a3e3 1ebf 7b87 7bbf
000000f0: 3a2e 07bf 59c8 08c0 08a5 123f 06bf 543d
00000100: 6202 a93e 460c dd3e 7dc7 15bf 51c6 d23e
00000110: 63ed c9bf ed55 5ebf 2ae8 3b3e de5f 873e
00000120: ae0a ab3e a460 fd3e 0d5e cb3e d1da 1fbe
00000130: 679a 763e 1cd4 49be 7c96 273f 0bd8 703e
00000140: 216c 8abf a39b 7a3e 3e58 29c0 c66a 24bf
00000150: 5a4f ce3e ebb2 2cbf 0f06 be3e 5aa7 c43e
00000160: 81af 3abf d13b d73e 0fe4 0d3f a1c6 ac3e
00000170: ccbb 093e f574 17c0 08d9 063f 1da3 c03e
00000180: be68 b63e 6783 333e 70f0 e9be 57c9 84be
00000190: 89af be3e 7071 643d 5643 743e a075 4cbe
000001a0: edc4 cb3e 9a4a f7be 76ae 373e ae3a 553f
000001b0: ad01 403f 0073 013f 6dd3 823e 4919 ab3e
000001c0: ed1e 603e a950 53bf 587e 9f3e fe03 66bf
000001d0: 0dc4 d03e 158a 0a3f 211a b5be 4771 cc3e
000001e0: 1202 d43e 71e5 ae3e c7bd 6ebf df41 7dbf
000001f0: ef91 84bf a47f 02c0 091f e03e 5d5f 39bf
00000200: 5969 2c3e 474a 1c3e 4340 ecbe 551a b33c
00000210: b977 ebc0 ae7e 2b40 c5b0 3a3f 6386 503e
00000220: 46e1 f3bd 576c c73c 67a9 1a3f 5d30 e7bd
00000230: 68c0 e03e b360 20bf 81a1 0cbe c950 833e
00000240: 0602 09bf a57c ca3e fe6e c8c0 f55a aa3e
00000250: 7618 efbd 75f0 78c0 8abe 39be 3611 c03e
00000260: 9a76 f23e f332 b43d 8cec ae3e 9c07 cfbd
00000270: a4b2 b9be 2bcc 5440 8c79 a73e 1a84 073e
00000280: 5388 ab3e b669 b83e c770 a9be 9813 1840
00000290: 1629 1c3e 614c c1bd 2903 8c3e db55 23be
000002a0: 2cc4 78bd 0869 2abf 8649 863f 2a95 b6bd
000002b0: 8a67 503d d6c4 ce3e 9d97 523e bd92 7a3d
000002c0: 7fb1 d73c 7a71 7b40 1bf6 613e 4733 803f
000002d0: 9987 4b3f 956a b03e cc91 69be 80f6 173e
000002e0: 4569 ad3e e3fa c03e 5000 273f a2ac 4740
000002f0: 2e53 b73e a6d2 5c40 ea5f 913e c792 72bf
00000300: c4f1 023f f6cf 073f ccf6 45bf c95e a03e
00000310: 744a 15c0 e75a d8be 0dde 003e 656e c73e
00000320: 8df6 d13e ec78 dc3e ef8a 103f c70b f13d
00000330: 8a0e d93e aac8 7dbe f20b 1b3f c644 f23d
00000340: b89c 8abf 8575 e43e 5c2b 3cc0 070c ebbe
00000350: 2d98 8c3e 6209 52bf 269c 563e 52a5 cd3e
00000360: 327a 2bbf 971f ff3e 0ff1 063f 8af7 b73e
00000370: eaa0 e53b 9485 01c0 8eae 143f f3dc 013f
00000380: 602d a13e e214 973d ed9e f3be 8f3a df3d
00000390: 0045 933e f98a 693c 3100 943e 9eca b3bd
000003a0: ae4b a63e 12ae 35bf 5831 b63e a0af 5d3f
000003b0: 12fe 183f 5f1f 093f 3c3e e1bd c810 e83e
000003c0: 99b2 7e3d 6cd4 d6be 9d60 973e 31b7 3fbf
000003d0: af8a e73e 93c4 233f 3804 efbe 7f95 bc3e
000003e0: 5dd4 d13e a34c 503e 3352 46bf b22f 2fbf
000003f0: bc5e 92bf 7ee6 ddbf 8f17 d93e 719a 86be
0.12087938 -0.045604862 -0.15819488 -0.18648021 0.21175063 -0.5496275 0.34873512 0.4818425
0.677119 0.89986145 -0.036493685 -0.62825435 0.12443699 0.6058605 -0.42239925 0.25317982
-1.0924268 -0.035933476 -1.0199965 -2.1730328 0.1414876 0.0889236 0.37075362 0.021034367
-2.2695057 0.23423158 0.5049823 0.21018836 -0.0230732 -2.0627387 0.58918947 -0.16269477
0.11941413 0.32162133 -1.4558768 -0.40704763 -0.33460596 -0.3997441 0.028144315 -1.5332837
0.23623869 -1.4902581 0.15872747 0.69971466 0.9187058 0.03345017 -0.42142668 -0.35452318
0.099279016 -0.6635057 -0.039993726 -0.53428775 -0.18456455 0.6366529 -0.16304265 0.021925597
-0.17590414 -0.17010798 -0.62066096 -0.982536 -0.5280491 -2.1372283 0.5728307 0.051939987
0.3300963 0.43173426 -0.5850752 0.41166928 -1.577557 -0.8684986 0.18350282 0.26440328
0.33406585 0.49487793 0.39720193 -0.15610816 0.24082337 -0.1970982 0.65463996 0.23519914
-1.0814248 0.24473433 -2.6460109 -0.64225423 0.40294915 -0.6746051 0.37113997 0.3840893
-0.7292405 0.42037824 0.55426115 0.33745292 0.13450545 -2.3665135 0.52674913 0.37624446
0.35626787 0.17530595 -0.45691252 -0.2593486 0.37243298 0.055772245 0.23853812 -0.19966745
0.3979868 -0.48299104 0.17937645 0.83292663 0.7500256 0.505661 0.2555193 0.3341773
0.21886797 -0.8254495 0.3115108 -0.8984984 0.40774575 0.54116946 -0.35371497 0.39930174
0.4140783 0.34159425 -0.9325833 -0.98928636 -1.0357035 -2.0390406 0.43773678 -0.7241114
0.16837062 0.1526271 -0.46142778 0.021863142 -7.3583646 2.679607 0.7292598 0.20363764
-0.11908202 0.024343653 0.6041474 -0.112885214 0.43896794 -0.6264755 -0.13733484 0.25647572
-0.5351871 0.3954822 -6.263549 0.3327252 -0.116745874 -3.8896763 -0.18139091 0.3751313
0.4735611 0.0879878 0.34164846 -0.10108873 -0.36269104 3.3249614 0.3270992 0.13233986
0.33502445 0.3601815 -0.33093855 2.376196 0.15250048 -0.09438396 0.2734616 -0.1595072
-0.06073396 -0.66566515 1.0491188 -0.089151695 0.050879993 0.4038455 0.20565648 0.061175097
0.026329754 3.928801 0.22066538 1.0015649 0.7950378 0.34456316 -0.22809523 0.14840126
0.33869377 0.3769141 0.6523485 3.1199117 0.3580565 3.450357 0.2839349 -0.94755214
0.51150155 0.530517 -0.7732971 0.31322315 -2.3326693 -0.42256853 0.12584706 0.38951412
0.41008416 0.43061006 0.56461996 0.117698245 0.42393905 -0.24783579 0.605651 0.11829524
-1.0829077 0.4462091 -2.9401464 -0.45907614 0.2745985 -0.8204557 0.20958003 0.40165192
-0.6698333 0.4982879 0.52711576 0.35931045 0.007007708 -2.023778 0.5807885 0.50727767
0.3147993 0.0737703 -0.47582188 0.10899841 0.2876358 0.014254325 0.28906396 -0.087788805
0.32479614 -0.70968735 0.3558452 0.8659611 0.5976268 0.53563493 -0.109981984 0.45325303
0.062182043 -0.4195894 0.29565898 -0.748889 0.45222995 0.63971823 -0.46682906 0.36832806
0.40982333 0.20341735 -0.77469176 -0.6843215 -1.1435161 -1.7335966 0.42400786 -0.26289704

2.bias f4 [64]
00000000: 0454 d23e 2453 ee3e 4b70 b03e 5b9d e63e
00000010: 00da a93e 3955 003f d2b7 d5be 3a32 a2be
00000020: 75a3 033f 71b6 ea3e 02e5 fbbe a923 bd3e
00000030: 6b38 d63e 3988 f2be b85f 44be c88d db3e
00000040: 7a5e 7bbe 0189 d6be d9f9 ad3e 6483 f4be
00000050: a9f6 a93e 44e2 863e f5a3 983c 5a13 dd3e
00000060: 6552 023e 2588 de3e aca4 003e 1c04 8cbd
00000070: 397c 9e3e 4e8a 55bc 35e2 b73e c5e6 923e
00000080: b4e6 573d 74eb 733e bdbe a63e 8343 843e
00000090: 7cee c4be 6520 f0bd 48a6 993e 72a9 893e
000000a0: be88 463e 28cf e53e 1504 da3e ce4c 97be
000000b0: cf34 713e 9054 e33e 9d29 ed3e 8762 8c3e
000000c0: 403c d63e af43 173e 1436 e9be ce97 743d
000000d0: 8b8c 683e 476a 0abe 8b9e 853e 32aa ebbe
000000e0: 9b3b b43e 8109 593e f555 093f 72b3 c83e
000000f0: e0e4 863e 4acf 863e 2ea2 ba3e 7da0 c53e
0.41079724 0.46547806 0.34460673 0.45041928 0.33174133 0.5013004 -0.41741806 -0.31678945
0.5142129 0.45842317 -0.49198157 0.3694127 0.41839918 -0.47369555 -0.19177139 0.42881608
-0.24547759 -0.419014 0.3397968 -0.47756493 0.33196 0.26344502 0.018632868 0.43178827
0.12726744 0.43463245 0.12562817 -0.06836721 0.3095415 -0.013033463 0.3591477 0.28691688
0.05271025 0.23820287 0.32567397 0.25832757 -0.384632 -0.11724929 0.30009675 0.2688709
0.193881 0.4488461 0.4258124 -0.29550785 0.23555301 0.44400454 0.4632081 0.2741892
0.41842842 0.14771913 -0.4554907 0.059715085 0.22709863 -0.13517104 0.2609752 -0.46028286
0.35201725 0.21195032 0.53646785 0.39199406 0.26346493 0.26330024 0.36451858 0.38599005

4.weight f4 [2, 64]
00000000: fee8 d03f cf2a 6a3f 7852 27be 7737 6c3f
00000010: 07e4 5f3f 4338 6b3f cd12 36bf 7204 68bf
00000020: 7945 6b3f 20b7 0bc0 0cd9 5cbf 7eeb 603f
00000030: 3347 7a3f 1da7 4fbf 81a8 18bf 3265 0abf
00000040: 1945 ddbf 945d 32bf 8a60 183f b5e9 53bf
00000050: a601 a23f c363 633f aafc b13e d3f6 ebbf
00000060: 8287 2ebe 8e99 653f 47c1 373f c3b8 39c0
00000070: 8e0a 5e3f 848e 5a3f fa14 763f 24ed 2e3f
00000080: 8eed 3d3f 35b2 343f 019c 5b3f b98a 9a3f
00000090: c5de 5bbf 2800 e7bf e771 903f 3276 503f
000000a0: 3775 aa3f 2e6b 6e3f 8cd7 43be 8591 1ac0
000000b0: 72b5 4b3f f243 563f 79d2 0ac0 5620 653f
000000c0: 4cb6 4b3f f37e 7cbf c060 51bf 7ccd 593f
000000d0: 158e 903f 2f03 43c0 3a52 5c3f fbbd 32bf
000000e0: d679 6b3f e7d4 683f 0d6a 0d40 bf63 0640
000000f0: 3e56 83bf 81a2 643f 0ede 703f 1b3a 433f
00000100: 8fe5 9f3f 40d6 363f 5f01 aebf 361c 003f
00000110: 34a5 5b3f 80c6 5e3f 3be1 4abf b957 33bf
00000120: 6f06 cd3e 8266 57bf 4439 03bf ca9f 583f
00000130: ed5b 513f fcd1 3abf 1645 53bf ce29 9cbf
00000140: 1e7a 84be 14b0 39bf c9f4 dcbf c3ab 40bf
00000150: 779c b13f 71be 4d3f 527f 92bf fd92 43be
00000160: fb87 9d3f 9bbb 633f 09b7 483f def5 00c0
00000170: 6c06 363f 683d 5d3f 8dcd 2a3f e7d9 5e3f
00000180: 89c9 453f a406 4d3f 4854 383f 20d1 583f
00000190: be6f 3ebf 84a2 9cbf 435c ed3f 500e 553f
000001a0: 944c 823f 9c4d 4b3f f7b3 a6bf 6b8e 2cc0
000001b0: 6872 4d3f 4947 4a3f 1377 2ebf 6835 603f
000001c0: a238 4d3f 0689 adbf 7d4e 44bf 4829 653f
000001d0: ecd3 3a3f 6627 12c0 a79f 5e3f dcce 4abf
000001e0: 1574 483f e233 a33f ae40 0340 d9b1 6c3f
000001f0: a0fa 7cbf abbd 333f 6df8 363f 6bf5 4e3f
1.6321104 0.9147157 -0.16340053 0.9227213 0.8745732 0.91882724 -0.7112244 -0.90631783
0.9190288 -2.183052 -0.8626869 0.8785933 0.9776489 -0.8111437 -0.59632117 -0.5406066
-1.7286712 -0.6967404 0.59522307 -0.82778484 1.2656753 0.888241 0.3476308 -1.84347
-0.1704388 0.8968743 0.7177929 -2.901902 0.86734855 0.8537371 0.9612576 0.683306
0.74190605 0.7058442 0.8578492 1.2073585 -0.85886794 -1.8046923 1.128476 0.8143035
1.3317021 0.93132293 -0.19125193 -2.4151318 0.7957374 0.83697426 -2.1690962 0.89502466
0.7957504 -0.9863121 -0.81788254 0.8507917 1.129336 -3.0470693 0.8606297 -0.6982114
0.9198278 0.90949863 2.2095978 2.099838 -1.0260694 0.8931046 0.9408883 0.76260537
1.2491931 0.7142067 -1.3594168 0.50043046 0.85798955 0.87021637 -0.79249924 -0.7005573
0.4004397 -0.8414079 -0.51259255 0.8461882 0.8178089 -0.7297666 -0.8252729 -1.2200258
-0.25874418 -0.725343 -1.7262203 -0.7526209 1.3875874 0.80368716 -1.1445105 -0.1909904
1.2307123 0.8895814 0.7840429 -2.0150065 0.7110355 0.86421824 0.66719896 0.8705124
0.77260643 0.8008826 0.72003603 0.846941 -0.74389255 -1.2237096 1.8543781 0.83224964
1.017962 0.794153 -1.3023671 -2.6961925 0.80252695 0.7901502 -0.6815044 0.8758149
0.8016454 -1.3557441 -0.76682264 0.89516115 0.7297962 -2.2836547 0.8696236 -0.7922189
0.7830213 1.2750208 2.0508227 0.92458874 -0.98819923 0.70211285 0.7147282 0.8084323

4.bias f4 [2]
00000000: 6f87 e33e 686e 393d
0.44439265 0.045271307
