LV6/cart_pole/saved_models/dqn_CartPole-v1_final_2025-12-18_09-03-00.pth (torch, 21933 bytes, 6 tensors)

0.weight f4 [64, 4]
000000 7e ba 13 3d 9f 2d 82 bd 49 47 f1 be cf b3 56 3d
       0.036066525 -0.06356358 -0.471247 0.052417573
000010 b6 cc 5d 3c e1 2c 23 3f e2 68 30 40 d1 4c 00 3f
       0.013537576 0.63740355 2.7564015 0.5011721
000020 af 2f d6 3e 1c 26 2b 3f 69 27 5a bf d2 54 f5 3e
       0.41833255 0.66855025 -0.85216385 0.47916275
000030 11 1e c8 3c 8b a4 3c 3d 73 24 21 c0 20 8a 49 be
       0.0244284 0.046055358 -2.5178497 -0.19681597
000040 44 a6 c5 be 84 c8 4e bf 89 5c 9d 3d 0b 03 dd be
       -0.38603413 -0.8077471 0.07683665 -0.43166384
000050 76 72 bc 3e d0 1a 24 bf a0 5d 72 bf 65 45 bc be
       0.36806077 -0.6410341 -0.9467411 -0.36771694
000060 0e db 02 3e 6c e8 53 be 5a d1 e3 3c d4 02 b4 3d
       0.12778875 -0.2069413 0.027809788 0.08789602
000070 12 e0 87 3e d7 97 3f 3f 03 65 e4 bf c0 63 72 3e
       0.2653814 0.74841064 -1.7843326 0.23670864
000080 20 e6 98 bd 94 89 8d 3f f7 b5 59 3f b4 8a 43 3e
       -0.07465768 1.105761 0.8504328 0.1909588
000090 59 9e c2 3d 58 65 da 3d 68 5f 58 c0 61 8f c8 be
       0.09502859 0.10663861 -3.3808231 -0.3917189
0000a0 2b 9e 35 3e 2b 00 1d 3f 22 3b c6 3e 4c a8 ef be
       0.17736118 0.6132838 0.3871699 -0.46808088
0000b0 53 45 da 3e d1 b6 7e be 34 b6 de bf 6f 9d 86 be
       0.42631015 -0.24874426 -1.7399354 -0.26291987
0000c0 8f 2c 2d 3d 6f d2 0d 3e 90 ee 03 bf ff d3 2a 3c
       0.042278823 0.13849805 -0.5153589 0.01042652
0000d0 21 c9 45 3f 88 db 5e 3f 90 4f 82 3f 3d 5f 81 3e
       0.77260023 0.8705373 1.018053 0.25267974
0000e0 ab 19 c5 3e b6 c0 10 bd c3 b6 b8 bd 23 61 a2 3c
       0.38496146 -0.035340033 -0.09019234 0.019821709
0000f0 bf 51 49 bf a5 c0 c2 3d ed b1 7c bf 00 43 bc 3d
       -0.7864036 0.095094 -0.98708993 0.09192467
000100 96 82 29 be db 78 57 3e 33 59 6c 3f b2 9b c5 bd
       -0.16553721 0.21042196 0.9232361 -0.09648837
000110 5f 18 ea 3e 8a 8f a6 be 1e 27 3c bf 6b d8 12 be
       0.4572172 -0.32531387 -0.7349719 -0.1434037
000120 93 0f e4 bc f6 7a 07 be 00 34 1b be df fc b7 be
       -0.027839458 -0.132305 -0.15156555 -0.35935113
000130 4e 73 72 bd 18 9e 0c 3d 81 93 05 c0 9f 12 59 bc
       -0.059191994 0.034330457 -2.087128 -0.0132490685
000140 8f 31 68 be e0 d8 47 be 88 0f 90 3f b1 55 7a be
       -0.22675155 -0.19516325 1.125474 -0.24446751
000150 61 47 63 be 3e a4 be 3e 99 3c 00 40 99 51 73 3e
       -0.22195198 0.37234682 2.0036986 0.23761596
000160 23 04 39 3d 28 ca 8a 3e 84 9f 69 bf f1 3a 4b 3e
       0.04516996 0.27107358 -0.91259027 0.19846703
000170 c9 a8 54 3f 3c 0e e8 be f1 86 9f 3e 80 4c b7 be
       0.83070046 -0.4532336 0.3115764 -0.35800552
000180 ef 0a d0 be f0 6b db be b0 af 8c bf ec 2e 69 be
       -0.40633342 -0.42855787 -1.0991116 -0.22771806
000190 81 35 b9 be 1e 9f 15 3f 98 98 25 40 ca fe 06 3f
       -0.36173633 0.5844592 2.5874386 0.5273253
0001a0 6a 34 2c bf e1 0a ca 3e e5 60 f1 3f 60 93 cb 3e
       -0.6726748 0.39461425 1.8857695 0.39760876
0001b0 c0 ab ba bd 32 9f 11 3b 34 ec 70 3f 4c b0 d6 be
       -0.0911479 0.0022220132 0.9411042 -0.4193138
0001c0 c7 14 08 be a1 1c 32 3d bc cd 34 3f 08 87 99 3e
       -0.13289176 0.043484334 0.70626426 0.29985833
0001d0 61 90 cc 3d d6 28 60 be 4b 36 37 3f 2f 1e 9e 3d
       0.099884756 -0.21890578 0.7156722 0.07720601
0001e0 9b 7c fb 3e 1e 09 2a bf a3 56 f2 3e 8b 4c fe be
       0.49118504 -0.6642016 0.47331724 -0.49667773
0001f0 4f 1b da bd 35 9d 83 be db 8d 5b 3f 3d 2a b9 bd
       -0.1064974 -0.25705877 0.8576333 -0.090412594
000200 58 e6 47 3e be 7b 8e 3e cb 38 2e 40 4b 58 b1 3e
       0.19521463 0.27828783 2.7222164 0.34637675
000210 f5 d2 68 bf fa cc 08 3e ea e0 9c 3f 81 87 30 3e
       -0.90946895 0.13359442 1.2256138 0.1723919
000220 a4 6f dd 3e 5a 74 4f 3e 89 b1 e1 3f 30 8c 8c 3e
       0.43249238 0.20259228 1.7632304 0.27450705
000230 a5 dc 19 bf ef 34 38 bf 2e c3 13 c0 2d a1 17 bf
       -0.601023 -0.7195577 -2.3087878 -0.5923031
000240 54 cf 3f bf ca af 48 be c3 d9 8d bf 8a ce 2f be
       -0.7492573 -0.19598308 -1.1082081 -0.17168632
000250 cf 80 10 be 74 3e 8c bb 8f de be 3f cf f8 ee 3e
       -0.14111637 -0.004279906 1.491167 0.466742
000260 7f 67 94 bf 54 7a 72 be 16 76 0c c0 2e f9 20 be
       -1.1594085 -0.23679477 -2.1947074 -0.15720055
000270 f7 c7 cc be 64 01 da be 58 e6 96 3f ed d1 52 be
       -0.3999631 -0.42579186 1.1789045 -0.20587893
000280 06 bf c4 3e b0 fc 9c be 3f 89 d8 be df 14 e9 3d
       0.3842699 -0.30661535 -0.4229221 0.11380934
000290 db d1 82 3c 95 fa bf 3e 09 49 12 40 d3 4c b4 3e
       0.015969208 0.37495866 2.2857077 0.35214862
0002a0 99 6e 81 3e ac 6d c7 be 59 c9 3f bf e8 c0 20 bf
       0.25279692 -0.3895086 -0.7491661 -0.6279435
0002b0 bf c8 b4 3e 4e d9 1e bf 6d 89 2c c0 cf b5 17 bf
       0.35309407 -0.6205033 -2.6958878 -0.5926179
0002c0 eb 1b 5c be b9 6d 06 bf b3 8d df be d2 e5 a8 be
       -0.21495025 -0.52511173 -0.43662795 -0.3298784
0002d0 43 cd be bc a5 37 23 3f 05 87 57 3f 1a 08 f9 3e
       -0.023291236 0.6375678 0.841904 0.48638994
0002e0 8e 0f 59 bf 06 fe b0 3e e7 55 9f 3f b1 93 bc 3e
       -0.8478936 0.34568805 1.244809 0.3683143
0002f0 fa c7 cb ba 96 00 8b bf 2a 07 fe bf 2f c8 56 bf
       -0.0015547269 -1.0859554 -1.9845936 -0.83899206
000300 de 96 60 3d c7 a1 94 bc 7b e5 7a 3f 00 e6 2e 3e
       0.05483138 -0.018143548 0.9800641 0.17079926
000310 d5 c5 c9 3e f9 e1 35 be 28 36 c2 be ab d6 d5 bd
       0.39408746 -0.17761983 -0.37931943 -0.10441335
000320 36 89 9b 3e cd be 44 3f f5 6c 50 3e d2 ce 18 3f
       0.3037812 0.7685364 0.20354064 0.5969058
000330 d3 ae 22 3e 5c db 9c bd bd 3d 10 3f bf 59 c2 3d
       0.15887003 -0.07659027 0.56344205 0.09489774
000340 df 42 07 3f 26 bf eb 3e 87 5f 79 3f ea 25 c8 3e
       0.5283641 0.46044272 0.9741139 0.39091426
000350 32 9c b5 be 88 dc 18 bf ed 7a 01 c0 a8 47 ee be
       -0.3547073 -0.59711504 -2.0231278 -0.46539044
000360 75 7f b9 be 48 c5 83 bf 24 de e7 3e 9b 7c 1d bf
       -0.36230054 -1.029458 0.45286667 -0.6151826
000370 73 67 31 be e0 a8 68 3c 3d d8 fa 3f 38 f3 0e 3f
       -0.17324619 0.014200419 1.9597241 0.5583987
000380 63 a1 41 be 61 4f f5 be 59 03 10 3e 7b fd b6 be
       -0.1890922 -0.47912124 0.14063777 -0.35740265
000390 41 ff 70 bf cb 46 32 bf ac 37 9b be 66 a8 85 be
       -0.94139487 -0.6963927 -0.30315912 -0.2610504
0003a0 ca 30 e1 3d e9 a1 4d bf 07 98 bf 3f c7 38 d6 bd
       0.10995634 -0.8032518 1.496827 -0.10460048
0003b0 f6 5b b6 3e 0b 04 9e 3d 09 6f b2 be 8a b0 3c be
       0.35617036 0.07715615 -0.34850338 -0.1842672
0003c0 61 b4 94 3e 9d 7c eb 3e 1c ea 4e 3f 38 0a 92 3e
       0.29043868 0.4599351 0.8082597 0.2852342
0003d0 6f 06 ef be e3 a1 dc bc d3 ce b9 3f 3a 20 82 3d
       -0.46684596 -0.026932662 1.4516243 0.06353803
0003e0 48 b9 79 be 4f 1e 6a bf 65 c7 f9 bf f3 58 16 bf
       -0.24387085 -0.914525 -1.9513975 -0.58729476
0003f0 5f e2 92 be 43 e0 ec be e2 0c 2a bf b6 45 ac be
       -0.28688332 -0.46264848 -0.6642591 -0.33646935

0.bias f4 [64]
000000 f6 da 45 3f 9d 25 7f be 72 f7 fc 3b 9f 2e 03 bf
       0.7728723 -0.24916692 0.0077199275 -0.51243013
000010 2d 63 c5 3e 02 e8 21 3f e3 80 45 3f ad ad 21 3e
       0.38552228 0.6324464 0.7714979 0.15788908
000020 bd 24 bb bd 1c 9a 15 3f b0 8b 82 bf ba c0 c6 3d
       -0.09137867 0.5843828 -1.0198879 0.097047284
000030 89 a3 0e 3f 10 53 31 be 4f 48 34 3f b6 10 9b be
       0.55718285 -0.17316842 0.70422834 -0.30286187
000040 0f bc 01 3f 51 ad 05 3f b5 f6 40 3f 9c 7a 8a be
       0.5067758 0.52217585 0.75376445 -0.2704667
000050 92 e1 29 3f d3 1c f3 be c6 20 f4 3e e7 8c bc 3d
       0.6635982 -0.4748293 0.47681254 0.092065625
000060 e2 11 61 3f c9 16 8c bd 55 32 0f be a2 72 61 3f
       0.8791791 -0.068402834 -0.13984044 0.8806554
000070 e9 a1 30 3f ad f8 d2 3e 6a a1 92 bd d8 5b 42 3e
       0.68997055 0.4120535 -0.071596935 0.18980348
000080 97 28 22 3e b2 c7 9a 3e 8c 3d d1 be 7d 52 31 bf
       0.15835796 0.3023048 -0.4086727 -0.6926649
000090 e3 73 18 bf b5 e7 03 bf bd f4 17 bf 65 85 2e bd
       -0.5955183 -0.5152543 -0.59357816 -0.042607684
0000a0 4f fb 4e 3f a6 4c f7 be ea 50 20 3f 9b 1a 8e be
       0.80852216 -0.48300666 0.62623465 -0.27754673
0000b0 e4 0b b8 be fe e5 99 be fb 79 b9 3e 21 56 5f bd
       -0.35946572 -0.30058283 0.36225876 -0.0545255
0000c0 db 42 f1 3e 8f b4 1f 3f 13 ae 97 3e 72 c2 af 3e
       0.4712132 0.62384886 0.29624996 0.34328038
0000d0 49 af 27 3e 84 58 08 bf 22 ba 80 3e f0 e7 e6 be
       0.1637546 -0.53260064 0.25142008 -0.4509883
0000e0 a7 7a 38 3f 7b 38 fa 3e fa 4f 30 3e be 8b 65 bf
       0.7206215 0.48871216 0.17218009 -0.89666355
0000f0 01 be 32 3f fa 71 85 3e 6c e5 b1 3e 0a e7 d6 be
       0.6982117 0.2606352 0.34745347 -0.41973144

2.weight f4 [64, 64]
000000 10 99 b0 be 77 24 84 be 19 04 9d bf 89 70 eb 3f
       -0.34491777 -0.2580907 -1.2266876 1.8393718
000010 bd 03 26 bf 1d ee b4 bf 6b cd 0f bd 22 70 6f bf
       -0.64849454 -1.4135166 -0.03510801 -0.93530476
000020 b0 8e 39 bf 92 d4 4a c0 06 61 cf 3d 99 1f e4 bc
       -0.7248335 -3.1692243 0.101259276 -0.027847098
000030 cd 07 58 bf 9e db a4 3f ac 52 4c be c0 76 f4 bc
       -0.84386903 1.2879522 -0.19953412 -0.02984178
000040 c5 c8 83 3e 6b 2d 98 be c0 9c c4 be fd d0 aa be
       0.25739112 -0.2972215 -0.3840084 -0.3336257
000050 34 b5 cf 3d 25 e8 bf 3f f5 2d 83 bf c7 87 77 bf
       0.10141984 1.499272 -1.02484 -0.96691555
000060 51 97 e3 be 3a fe 33 3f 40 c5 52 be 79 6d 5d 3e
       -0.44451383 0.70309794 -0.20583057 0.21623792
000070 50 5e 45 3d 01 f0 39 3e cc 98 7e bf 87 8c a8 3f
       0.048185647 0.1815796 -0.994519 1.3167886
000080 18 fc 24 3f b1 99 86 be a3 e1 08 40 7c 61 2e 3e
       0.64447165 -0.26289132 2.1387718 0.17029375
000090 cb 20 8d 3f 6a fa f5 3f 34 bf 4e bf 5e 02 8b 3f
       1.1025633 1.9217045 -0.807605 1.0860097
0000a0 d3 d2 33 be fb 1b 34 40 99 dc 87 bf 6a 3e 89 be
       -0.17560892 2.8142078 -1.0614196 -0.2680543
0000b0 52 62 06 c0 ed 42 0f bf c5 68 94 bd f4 b9 9c 3d
       -2.099751 -0.55961496 -0.07246546 0.07652655
0000c0 5c 82 30 3e 6f 75 6b be fe 31 a4 bd 0d ee 85 3e
       0.17237228 -0.22994016 -0.08017348 0.2615818
0000d0 8e 9b 39 3e 6f 5b 49 3e c8 f2 da 3e e9 0f a1 3f
       0.18125746 0.19663785 0.42763352 1.258298
0000e0 1f a9 e6 be 9f c9 94 be 9c cb 57 3e 28 b7 eb be
       -0.45050904 -0.29060075 0.21073765 -0.46038175
0000f0 e5 95 ca 3d d8 fa 88 3e 8c 8e b8 bf 6c 06 23 40
       0.09891871 0.2675388 -1.4418502 2.547267
000100 44 2f 70 3e 6c 15 c3 3e 9e d2 cd be 67 3b 35 c0
       0.2345553 0.3810228 -0.4019975 -2.8317506
000110 03 4f 5d 3d 08 fa 62 bd e8 00 90 3e 64 b3 c4 3e
       0.05403043 -0.05541423 0.2812569 0.38418114
000120 4e 11 b0 bd 1d 6b bb be a6 87 a4 bd be b7 59 3f
       -0.085970506 -0.36605158 -0.080336854 0.85045993
000130 60 1e 3f 3e b8 6b 85 be 12 5d 39 3e 6b 6e ec be
       0.18663931 -0.26058745 0.1810191 -0.46177992
000140 ec 3e 5b 3e 6e 6f 19 3e 90 e9 bb 3e 05 58 bb bf
       0.21410722 0.14983913 0.36701632 -1.4636236
000150 29 d6 0a 3e 3a 6e 79 bf e8 00 32 3e f7 1a 32 bf
       0.13558258 -0.9743382 0.17383158 -0.69572395
000160 cb 19 ec 3d ec 82 57 3f 52 77 4e bf b7 bc b9 3e
       0.11528357 0.84184146 -0.8065082 0.3627679
000170 ba a2 b3 3e 1f e1 6a 3d e8 b7 0f be 95 21 73 bf
       0.35085088 0.0573436 -0.14034998 -0.9497312
000180 76 74 4b be 6b 5a 32 be fe cb bc bf 24 fc d5 bf
       -0.19868645 -0.17417304 -1.4749753 -1.6717572
000190 87 b7 99 bf 8b 8f a7 bf ef 3d cd 3c 90 ed 82 bf
       -1.2009133 -1.3090681 0.025053946 -1.0228748
0001a0 28 1e 9d 3e d2 3e 13 c0 c7 f1 92 3e 1f b7 1b bf
       0.3068707 -2.3007092 0.28700086 -0.60826296
0001b0 ee 10 a8 be 11 28 26 be 23 19 11 3f 5b 3d 91 bf
       -0.32825416 -0.16226222 0.5667898 -1.1346849
0001c0 2f 22 28 3e 2c 11 c7 3d b0 a1 0e 3e f7 89 6a 3e
       0.1641929 0.09720072 0.13928866 0.22904192
0001d0 87 e4 10 3e 2b b5 09 c0 60 4b 0b bf 4c ea e1 bd
       0.14149676 -2.1516826 -0.5441189 -0.11031017
0001e0 5e dc 1a bd f2 33 f7 bc 55 9b 91 be 0a 78 39 3d
       -0.037807815 -0.030176137 -0.2843882 0.045280494
0001f0 43 bc b5 3e 33 1f 8a 3e 3a c5 2a 3e ef c5 3e c0
       0.35495195 0.26976928 0.16676798 -2.980831
000200 df c3 d6 be 02 3b e2 be 93 bd a2 bd d2 41 1d 40
       -0.41946313 -0.44185644 -0.07946315 2.4571424
000210 97 8d 80 be b8 ec 56 be c2 62 fd be 49 7d 33 be
       -0.25108024 -0.20988739 -0.4948941 -0.17528261
000220 bf e8 f8 bd 31 d2 41 3d 12 8c 72 3e 8a 7f 7a bf
       -0.12153768 0.047319595 0.23686245 -0.9785086
000230 6a f7 2b be a3 1f 6e bd 4c 97 d9 be 71 eb 8c 3f
       -0.167936 -0.05813564 -0.42498243 1.1009351
000240 1a 91 bb be 7e 8e c1 be 9c f3 f2 be 6b c4 8e 3f
       -0.3663414 -0.37804025 -0.47451484 1.1153692
000250 88 56 2f be 59 22 e8 3e 7f 0c 77 be e9 b0 38 3f
       -0.17122853 0.45338705 -0.2412586 0.72144943
000260 e3 69 10 be 6a 5e 47 bf 7c 74 e8 3e fb 34 8c be
       -0.14102893 -0.7787844 0.4540137 -0.2738417
000270 e7 85 a7 be 17 1e 09 bf 72 63 1b bd e3 c8 ca 3e
       -0.32719347 -0.5356154 -0.037936635 0.3960639
000280 81 cd 07 3c eb e8 db be 0e b4 89 3f 60 1c 27 3d
       0.008288742 -0.4295114 1.0758073 0.040798545
000290 56 91 24 3e 3e 46 50 3f 1b 13 03 bf 49 77 3d 3e
       0.16071066 0.8135718 -0.5120103 0.18502535
0002a0 1b ba a6 be 90 c2 dc 3f 0e cb 05 bf 7f 3d d3 3e
       -0.32563862 1.7246876 -0.5226296 0.41257855
0002b0 a9 b7 31 3e c8 39 96 3f a0 d5 33 bf 7b 56 72 be
       0.17355217 1.1736383 -0.7024784 -0.23665802
0002c0 d6 c1 0b bf 74 9c c1 be 20 e1 bc be 05 f3 ce be
       -0.54592645 -0.37814677 -0.36890507 -0.40419784
0002d0 92 1f c0 be 71 ab 84 3d aa b8 94 bd 46 fa 1c 3e
       -0.37524086 0.06478012 -0.072617844 0.15329847
0002e0 9d 1d a9 be 42 6c 96 be 9a 64 58 be 38 e9 05 3f
       -0.33030406 -0.2937947 -0.21132126 0.5230899
0002f0 b6 d3 d1 be 63 0d 0b bf ac c7 04 bf 58 e5 92 3f
       -0.40981835 -0.543173 -0.51867175 1.147624
000300 b2 5e 76 3e 83 fc f1 3c 62 94 1f bf 01 43 2d c0
       0.24059561 0.029539352 -0.6233579 -2.7072146
000310 de 6f 11 3e 72 14 8c bd 04 f4 c7 3e 78 0d 51 bd
       0.1420283 -0.06839837 0.39053357 -0.051038235
000320 6b 9f dd bd 43 df c3 be cb 89 29 3f d4 3f 82 3f
       -0.10821422 -0.38256273 0.6622588 1.0175729
000330 03 ca cd 3e 23 ab 24 bf 6f 16 49 3e 5d 92 f8 be
       0.40193185 -0.64323634 0.19637464 -0.48549166
000340 5e b3 77 3e 67 bb 1d 3e 53 c0 c7 3e 46 af b1 bf
       0.24189517 0.1540352 0.3901392 -1.3881614
000350 90 cd 64 3e b3 ac 57 bf 10 7a 4a 3a 89 f6 56 be
       0.22344041 -0.84247893 0.0007723877 -0.20992483
000360 a2 78 3f 3e 4e 3f 9f 3f 4e b4 ca bf ce 6c ca 3e
       0.18698362 1.2441194 -1.5836275 0.39536136
000370 30 84 ac 3e e8 14 65 3d 13 0d 65 be ca c8 aa be
       0.336946 0.05592814 -0.22368269 -0.33356315
000380 f2 ba a7 be 3d 03 7d 3e f8 2c 71 bf ad a7 e6 be
       -0.32759815 0.24708267 -0.9420924 -0.450498
000390 2a a4 96 bf 72 70 ac bf 05 76 e3 3b ad 9a 56 bf
       -1.1768849 -1.3471816 0.0069415593 -0.83829767
0003a0 7c 4b 84 3e 10 df 16 c0 20 de f5 3e 52 12 a7 be
       0.2583884 -2.3573647 0.4802103 -0.32631165
0003b0 66 f9 11 c0 38 08 36 be 92 78 e6 3e b7 51 91 bb
       -2.280847 -0.17776573 0.45013863 -0.00443479
0003c0 3a e4 60 3e 0d 3e 44 3d 2d ac 19 3e 66 65 fc 3b
       0.21962062 0.04791074 0.15007086 0.0077025173
0003d0 06 34 9a 3e 26 d1 2b bf d9 52 4c be bc 92 4c bf
       0.30117816 -0.6711601 -0.19953479 -0.799114
0003e0 77 dd 49 3e 49 0e 9d 3e c6 0c 0c 3d eb 29 83 bf
       0.19713388 0.3067496 0.03419187 -1.0247167
0003f0 71 50 38 3e 84 dc d4 3e d4 0e 8d 3e 35 19 15 c0
       0.17999436 0.4157449 0.27550375 -2.3296635

2.bias f4 [64]
000000 62 8d 8b bd 8d f5 77 3e a0 9a d7 be 28 ac da 3e
       -0.06814076 0.24214764 -0.42110157 0.4270947
000010 80 7a fe 3d bd 6e b7 3d cd e6 99 3e d6 09 cf 3e
       0.12425709 0.089566685 0.300589 0.40437192
000020 5f 7a ee 3e 46 9b 8a 3e 0e cb b8 be 81 5c c3 3e
       0.46577737 0.2707159 -0.36092418 0.38156512
000030 92 92 94 3e 85 ad 8e 3e d4 e1 58 3c 66 0c ad 3d
       0.29018074 0.2786676 0.013237435 0.084496304
000040 80 41 d8 be 59 df b0 3e cf 20 b4 3e 86 be a6 3e
       -0.42237473 0.345454 0.3518128 0.32567233
000050 b9 65 08 bf d8 03 d6 3e 74 02 98 3e e9 c9 51 3e
       -0.53280216 0.41799808 0.29689372 0.20487179
000060 80 41 57 3e 7d 8c ca be e3 87 c1 3e 91 bb 10 3f
       0.2102108 -0.3956031 0.37798986 0.56536204
000070 bd 26 7b 3e a1 5c d9 3e d4 fd ec 3e ea 98 eb 3e
       0.24526496 0.42453483 0.46287405 0.46015102
000080 33 10 c6 3e 6f 0f 7f 3e bd 43 f4 3e 06 bb b0 3e
       0.38684234 0.24908231 0.4770793 0.34517688
000090 7b e5 e9 be 06 f5 7b 3e 33 4c db be 2f 48 7d 3e
       -0.45682892 0.24605188 -0.42831573 0.24734567
0000a0 9a 83 a5 3e 25 81 fa be 96 99 6e 3e 50 24 ef be
       0.32326967 -0.48926654 0.23300776 -0.46707392
0000b0 24 ed e4 3e 9a 55 3c 3d 4a 33 30 3e 0c 3e 06 3e
       0.44712174 0.045980074 0.17207065 0.13109607
0000c0 5b cc 06 bf 2e 9f ab 3e 45 d7 cd 3e cb 00 ab 3e
       -0.5265557 0.33519882 0.402033 0.33399042
0000d0 a5 c0 09 bf 1d 2d 69 3e a1 6f 29 3e 08 36 07 be
       -0.5380958 0.22771116 0.1654649 -0.13204205
0000e0 4e dd b5 3e 40 a9 ab 3e e5 a1 9f 3e 9b f8 cf 3e
       0.35520405 0.33527565 0.31178203 0.40619358
0000f0 9e 74 a1 bd 9d 02 b5 3d ad 77 d5 be b6 7f 92 3e
       -0.07883571 0.08838389 -0.41692868 0.2861306

4.weight f4 [2, 64]
000000 b4 f5 9b 3e 33 ec 50 3f 3e 8c 16 bf 99 2d 9e 3f
       0.30460894 0.8161041 -0.5880774 1.2357665
000010 66 f1 19 c0 d3 88 b0 3f 46 4b a0 3f 74 e6 9c 3e
       -2.4053588 1.3791755 1.2522972 0.30644572
000020 79 d4 c0 be 73 d7 10 3f a1 2a 12 bf d0 7d 93 3f
       -0.37662104 0.5657875 -0.57096297 1.152277
000030 ca ac 5e 3f 54 03 6c 3f 92 3e 48 c0 56 d6 53 be
       0.86982405 0.9219258 -3.128819 -0.20687231
000040 22 f2 87 3f a6 d2 28 3f 98 5d af 3f 16 2f 88 3f
       1.0620768 0.65946424 1.3700438 1.063937
000050 11 4e ff be 95 e1 58 3f e2 9f 57 3f 99 10 6c 3f
       -0.49864247 0.8471921 0.84228337 0.92212826
000060 1c a8 da bf 8b 67 99 be 9e 6c 9b 3f e3 0a cd 3e
       -1.7082553 -0.2996181 1.2142522 0.40047368
000070 94 bf 95 3f 84 f5 70 3f 21 e8 8e 3f 6e bd 05 3f
       1.169909 0.9412463 1.116459 0.5224217
000080 9d 7f 22 3f 61 01 8f bf 5a 99 81 3f 81 7f 46 3f
       0.6347597 -1.1172296 1.0124924 0.77538306
000090 6f 65 11 bf b3 0e 05 c0 45 ff ab be f7 34 5e 3f
       -0.567954 -2.0790222 -0.33593193 0.8679957
0000a0 eb 85 66 3f 62 b3 eb be d3 3f 83 3f 0a 89 1d bf
       0.9004809 -0.46035296 1.0253853 -0.6153723
0000b0 03 9b f7 3e 9b b3 74 c0 95 1a 0d c0 9a 02 2d c0
       0.48360452 -3.8234622 -2.2047474 -2.7032838
0000c0 16 9f dd be 0c 89 00 3f 92 41 ea 3e 1e ca c2 3e
       -0.43285435 0.50209117 0.4575315 0.38044828
0000d0 59 7f 1a bf c7 ef 0a 3f 70 56 73 3f b3 1e 04 c0
       -0.6035057 0.5427212 0.9505377 -2.0643737
0000e0 b9 02 11 3f 5f c1 5c 3f fd 74 33 3f 28 04 81 3e
       0.5664478 0.8623256 0.70100385 0.25198483
0000f0 1f e7 8e c0 90 d2 7e 3f ee 67 00 bf 02 36 f3 3e
       -4.465713 0.9954004 -0.50158584 0.47502142
000100 15 82 49 c0 9f 06 98 3f 67 c7 08 bf ba a9 92 3f
       -3.1485646 1.1877021 -0.53429264 1.1458046
000110 5d c9 40 c0 5c 2c 66 bf 44 5e a6 3f 91 0f 35 3f
       -3.0122902 -0.8991144 1.2997518 0.7072688
000120 f1 97 60 3f 68 f8 62 3f 16 7a 04 bf 52 dd 50 3f
       0.87731844 0.8866029 -0.5174879 0.8158771
000130 d0 11 6c 3f 4f 98 e0 3e c7 69 46 3f 45 a6 04 c0
       0.9221468 0.43866202 0.77505153 -2.0726483
000140 fb 01 0a c0 96 cd 1f 3f 2f f7 e9 3e b8 08 31 3f
       -2.1563709 0.62423074 0.456964 0.6915393
000150 af 2d 1a bf 96 48 6a 3f 5d bd 93 3f 42 c6 62 3f
       -0.6022596 0.9151701 1.1542164 0.8858377
000160 07 5c 31 c0 28 7d 44 bf e4 b3 8d 3f 80 98 7a 3f
       -2.771242 -0.76753473 1.1070523 0.97888947
000170 da 2c 3a 3f dc 0c 29 3f f7 5f 74 3f f9 fd 28 3f
       0.7272469 0.66035247 0.9545893 0.6601253
000180 dd 7e 65 3f 0d 47 da bf 55 b5 46 3f 3b 7e 8a 3f
       0.89646703 -1.7052933 0.7762044 1.0819772
000190 32 e7 10 bf 16 f3 61 be f8 f9 23 bf 3b 9f 93 3f
       -0.56602776 -0.22065386 -0.640533 1.1532968
0001a0 4f ca 95 3f 4b 67 20 bf 57 68 6b 3f a3 dd 15 bf
       1.1702365 -0.6265761 0.91956085 -0.58541316
0001b0 20 49 5b 3f f9 80 4e c0 08 72 0b c0 b0 2a 19 c0
       0.85658455 -3.2266219 -2.178835 -2.3932304
0001c0 d9 cc 10 bf 15 16 3b 3f 4b ce 40 3f 01 02 63 3f
       -0.5656257 0.7308057 0.7531478 0.8867493
0001d0 a8 15 0c bf 22 fe d0 bf f5 d8 51 3f e3 97 e9 bf
       -0.54720545 -1.6327555 0.81971675 -1.8249477
0001e0 7f 99 24 3f 65 7c 4a 3f b9 ba 69 3f f0 90 51 3f
       0.64296716 0.7909606 0.9130054 0.8186178
0001f0 17 fa 9d bf aa d9 84 3f 2e 4b 14 bf e8 12 56 3f
       -1.2341946 1.0378926 -0.57927215 0.836226

4.bias f4 [2]
000000 62 82 7b 3e 52 72 c0 3e
       0.24561456 0.3758722
