LV6/cart_pole/saved_models/dqn_CartPole-v1_final_2025-12-18_08-55-37.pth (torch, 21933 bytes, 6 tensors)

0.weight f4 [64, 4]
0	0xbe6c497c	-0.23074907
1	0x3e597994	0.21237785
2	0x4049aa14	3.1510057
3	0x3f08ee30	0.53488445
4	0xbe14b0b8	-0.14520538
5	0x3e7d15b2	0.24715307
6	0x4023d4a6	2.559854
7	0x3ef2106f	0.47278163
8	0x3e1591fe	0.14606473
9	0xbdc1f67d	-0.09470842
10	0xc05b99ac	-3.4312544
11	0xbef80075	-0.4843785
12	0xbe128562	-0.14308694
13	0x3e8b61ca	0.27223045
14	0x3f8b3de7	1.0878266
15	0xbf37179b	-0.71520394
16	0xbea43359	-0.32070425
17	0xbecc57e9	-0.3991082
18	0xbf9ee673	-1.2414078
19	0x3f549b26	0.8304924
20	0xbe334347	-0.17506133
21	0x3f10cf22	0.5656606
22	0x3dadaa7e	0.084797844
23	0xbf0d4a24	-0.55191255
24	0xbf08e6da	-0.5347725
25	0x3e5bba78	0.21457851
26	0x3ffb32f5	1.9624926
27	0xbe7dea11	-0.2479632
28	0x3ec318eb	0.38104948
29	0xbea748d3	-0.32672748
30	0xc00303e9	-2.0471137
31	0xbe71ea33	-0.23624496
32	0xbee69ff0	-0.45043898
33	0x3e16b561	0.14717628
34	0xc00d3b9e	-2.2067637
35	0xbeac438f	-0.33645293
36	0xbceb2eac	-0.028708778
37	0x3e00fdb6	0.12596783
38	0x3f9b4ba2	1.2132456
39	0x3edab27c	0.42714298
40	0x3ef372c6	0.47548503
41	0xbec504c6	-0.38480204
42	0x3e23d0f6	0.15997681
43	0xbf128a20	-0.5724201
44	0x3f8a4f0e	1.0805376
45	0x3e166cfe	0.14690015
46	0xbee59710	-0.44841814
47	0x3ec6b6cf	0.38811347
48	0x3ea4c122	0.321786
49	0xbe3831d4	-0.17987758
50	0xc0397366	-2.8976684
51	0xbf0a4bf3	-0.5402214
52	0x3e775fce	0.2415764
53	0xbd9509a4	-0.072772294
54	0xbe651b9d	-0.22373815
55	0xbf054f67	-0.52074283
56	0xbebdcb37	-0.37069103
57	0x3e0d1da9	0.13780846
58	0x3fc110fd	1.508331
59	0x3e6a9a2a	0.22910371
60	0x3f297598	0.6619506
61	0x3f770751	0.9649554
62	0x3f95909a	1.1684754
63	0x3ef909eb	0.4864038
64	0x3e59a052	0.21252564
65	0xbef6fbc3	-0.48238954
66	0xbfa97caa	-1.324117
67	0x3ea4527e	0.32094187
68	0xbe624511	-0.22096659
69	0xbe328c68	-0.17436373
70	0xbece7a87	-0.40327856
71	0x3d7eb92f	0.062188324
72	0x3b5b6f20	0.0033482984
73	0x3bd11990	0.006381221
74	0xc0204bd1	-2.5046275
75	0xbe93015a	-0.2871197
76	0xbdf72233	-0.1206707
77	0xbee50b4c	-0.4473518
78	0xbeb32270	-0.3498721
79	0x3de45033	0.11148109
80	0xbea3457d	-0.31888953
81	0x3e7f7dc1	0.24950315
82	0x3dddd349	0.10831315
83	0xbe47d363	-0.19514231
84	0x3e554d99	0.20830382
85	0xbe24e16b	-0.16101615
86	0xc0241cd1	-2.5642588
87	0xbeee2e3e	-0.46519655
88	0x3e09d29c	0.13459247
89	0xbd123509	-0.03569511
90	0xbebee042	-0.3728047
91	0xbec2d122	-0.3805018
92	0xbe8f9a4f	-0.28047416
93	0x3f136ec1	0.5759087
94	0x3fd0d75f	1.6315726
95	0xbe9fab3e	-0.31185335
96	0x3c18fd00	0.009337664
97	0xbcc8753f	-0.02446997
98	0x4034370d	2.81586
99	0x3e9be48f	0.30447814
100	0xbf250df8	-0.6447444
101	0xbefbc2c2	-0.49172026
102	0x3fe2238c	1.7667098
103	0x3e591869	0.21200718
104	0x3e7aa018	0.24475133
105	0xbe200234	-0.1562584
106	0x3fe34e9e	1.7758367
107	0x3e9084bd	0.2822627
108	0xbdf88f7e	-0.12136744
109	0x3e04e3f3	0.1297758
110	0x3fdee413	1.7413353
111	0x3ec9e47e	0.39432138
112	0xbd9e6c08	-0.07735449
113	0x3dd329b4	0.103106886
114	0x400ad580	2.169281
115	0x3ed8fad1	0.42378858
116	0x3ee435b8	0.44572234
117	0xbe87c91a	-0.26520616
118	0xbf9178ba	-1.1364968
119	0x3f45f2f5	0.7732385
120	0x3e979bde	0.29611105
121	0xbda6266e	-0.08112799
122	0xbf6e6b09	-0.9313207
123	0xbef5cd3d	-0.48008147
124	0x3dc3084f	0.09523069
125	0xbee9ce5b	-0.4566525
126	0xbea10676	-0.31450242
127	0xbe0f41b7	-0.13989912
128	0xbe8d9223	-0.27650556
129	0xbe85264e	-0.26005787
130	0x3ea89c51	0.3293176
131	0x3e1aa476	0.151018
132	0x3ee631d2	0.44959885
133	0x3e8aa677	0.27080128
134	0x3ea1b8cb	0.31586298
135	0xbe24c830	-0.1609199
136	0xbe7b01c9	-0.245124
137	0x3ea19d02	0.315651
138	0xbe43904d	-0.19098015
139	0x3e11d0a2	0.14239743
140	0xbe666d61	-0.22502662
141	0x3e1430e0	0.1447177
142	0x3fe7e052	1.8115332
143	0xbe88a3e1	-0.2668753
144	0x3f44938a	0.76787627
145	0xbe5d1806	-0.21591195
146	0xc006743a	-2.100844
147	0xbe5655b7	-0.20931135
148	0xbe37dafb	-0.17954628
149	0x3e52d4d7	0.20589004
150	0x3fb8b855	1.4431254
151	0xbd9ebd98	-0.07751006
152	0xbd078b9a	-0.03309212
153	0xbf35a6e9	-0.7095781
154	0xbf3f9389	-0.74834496
155	0x3e688c7d	0.22709842
156	0x3a064d05	0.0005123171
157	0x3c7d3fe1	0.015457124
158	0x402fc443	2.7463539
159	0x3ea9acce	0.33139652
160	0x3d7bcec8	0.0614765
161	0xbdee9abf	-0.11650609
162	0xbf2bce53	-0.671117
163	0x3d0e2895	0.03470667
164	0x3f408a60	0.75211143
165	0x3f67f533	0.9060852
166	0xbe493b39	-0.19651498
167	0xbeaea589	-0.34110668
168	0xbea41b49	-0.32052067
169	0x3e94bec9	0.29051808
170	0x3f97ccad	1.1859337
171	0x3e1c7e61	0.15282585
172	0x3f217e7c	0.63083625
173	0xbe5268fb	-0.2054786
174	0x3fc9e556	1.5773113
175	0x3ee2e8d2	0.44318253
176	0x3e8c4c5b	0.27402005
177	0xbe4e0576	-0.2011927
178	0x3e1e48dc	0.15457481
179	0xbf024b09	-0.50895745
180	0x3e85e54e	0.26151508
181	0xbdffd64d	-0.124920465
182	0xbec8324f	-0.39100882
183	0xbeca2424	-0.39480698
184	0xbf39f9f3	-0.7264702
185	0x3e720492	0.23634556
186	0xc021a4e1	-2.5256884
187	0xbed4ac71	-0.41537812
188	0x3d33ec10	0.0439263
189	0xbcb1defe	-0.021712776
190	0xc0233452	-2.5500684
191	0xbe7830fa	-0.24237433
192	0xbc6be346	-0.014397448
193	0x3d1c20d9	0.038117263
194	0x3fc94572	1.5724318
195	0x3e85bcb2	0.26120526
196	0x3ec4f18c	0.38465536
197	0xbe2c1400	-0.16804504
198	0xbe5737f1	-0.21017434
199	0x3de19d7a	0.110163644
200	0xbd6aea2b	-0.057352226
201	0x3c926b1f	0.017873345
202	0x401f10ee	2.4854083
203	0x3ea47b1d	0.32125178
204	0x3fa0dc1a	1.256717
205	0x3e8d63e4	0.27615273
206	0x3f2d8d6f	0.67793936
207	0xbe448760	-0.19192266
208	0x3b28b0fa	0.0025740252
209	0xbe26ef59	-0.16302241
210	0xbf361c4d	-0.71136934
211	0xbc1f0ecb	-0.009708117
212	0xbdf2d097	-0.118561916
213	0x3e97a31c	0.2961663
214	0xbf05c4e6	-0.5225357
215	0x3ed9b93f	0.42524144
216	0xbea416e3	-0.3204871
217	0x3dcf84a1	0.10132719
218	0x3f1d5c78	0.6146922
219	0xbebd1656	-0.36931103
220	0xbe996a2b	-0.29963812
221	0x3e8209b0	0.25398016
222	0x3e7a8c03	0.24467473
223	0xbe627520	-0.22114992
224	0x3e0a10c0	0.13482952
225	0xbd9232a5	-0.07138566
226	0xc0388ef3	-2.883725
227	0xbed7f80b	-0.4218143
228	0xbec940cf	-0.39307258
229	0x3d96e670	0.07368171
230	0x4026720b	2.6007106
231	0x3ead2750	0.33819056
232	0x3e5b83c0	0.21436977
233	0x3d9051c7	0.07046848
234	0x3ece40bf	0.40283772
235	0xbc9a8682	-0.018862966
236	0x3c69b7b3	0.014264989
237	0x3e48887a	0.19583312
238	0xbf9ec070	-1.2402477
239	0x3ef9d9c2	0.4879895
240	0x3e4d2a71	0.20035721
241	0x3c165e7f	0.009177803
242	0xc02d467a	-2.7074265
243	0xbee3df26	-0.44506186
244	0x3e6a2d61	0.22868873
245	0xbd9cfec9	-0.07665784
246	0xc029d0ea	-2.653376
247	0xbed2a85f	-0.41144082
248	0xbe189ac2	-0.14902785
249	0x3d68eded	0.05686753
250	0xc01a11b1	-2.4073298
251	0xbdb9070d	-0.09034548
252	0xbe99d1db	-0.3004292
253	0xbe3603e6	-0.17774925
254	0xbf507059	-0.8142143
255	0x3ea4454f	0.32084128

0.bias f4 [64]
0	0xbf1c0d60	-0.6095791
1	0xbf0acf94	-0.5422299
2	0xbf2145e5	-0.62997276
3	0x3e082408	0.13294995
4	0xbee55a2b	-0.44795355
5	0x3ede9227	0.4347088
6	0x3ef67fb3	0.48144302
7	0xbeee8dbe	-0.46592516
8	0xbf093a8d	-0.53604966
9	0x3f36fa5c	0.7147577
10	0x3f0e3ff2	0.5556632
11	0x3ef1fc7c	0.47262943
12	0xbf236eee	-0.6384114
13	0x3f3833db	0.71954125
14	0x3ec64952	0.38727814
15	0xbf0afa6d	-0.5428837
16	0x3ed3786d	0.41302815
17	0x3f27d1e5	0.6555465
18	0xbeecf590	-0.462811
19	0x3f436379	0.7632366
20	0x3f2923ce	0.6607026
21	0xbf0e4ade	-0.5558299
22	0x3f217eda	0.63084185
23	0xbe2e6bbb	-0.17033283
24	0xbf006517	-0.5015425
25	0xbee1be53	-0.44090518
26	0x3f51acfe	0.8190459
27	0x3f36b21a	0.7136551
28	0xbef5d6ca	-0.48015434
29	0xbad5b922	-0.0016305784
30	0x3f53f9a8	0.8280282
31	0x3f3765ae	0.71639526
32	0x3f14b998	0.58095694
33	0x3f353b6a	0.70793784
34	0x3f0bca10	0.546052
35	0x3ee0d751	0.43914273
36	0xbecaf55c	-0.3964032
37	0x3eda7a4b	0.42671427
38	0x3db9ccf9	0.090722986
39	0xbf00743a	-0.5017735
40	0xbf2128c4	-0.6295283
41	0xbf0e4635	-0.5557588
42	0x3f1b6b6c	0.6071079
43	0xbdcb417a	-0.09924598
44	0x3f3586c4	0.7090876
45	0x3f1877c2	0.59557736
46	0xbe84c609	-0.2593234
47	0xbef33b42	-0.47506148
48	0x3f12a2e1	0.57279783
49	0x3edff8d0	0.43744516
50	0xbee7feef	-0.45311686
51	0x3e66b97b	0.22531693
52	0xbf2f364c	-0.68442225
53	0x3f07cc49	0.5304609
54	0x3f54be35	0.8310273
55	0x3f4b1849	0.7933393
56	0xbf0e8774	-0.55675435
57	0xbf0c1986	-0.54726446
58	0x3f4b473c	0.7940557
59	0x3ee74d78	0.4517629
60	0x3f8ad587	1.0846413
61	0xbf0a9e50	-0.54147816
62	0xbee53c34	-0.44772494
63	0xbf1b6303	-0.60697955

2.weight f4 [64, 64]
0	0x3e5cca89	0.21561636
1	0x3f067037	0.52514976
2	0xbdfc1364	-0.12308386
3	0xbe18654c	-0.14882392
4	0xbeb79ce7	-0.35861894
5	0xbdadc379	-0.08484549
6	0xbe34685d	-0.17617936
7	0x3f783054	0.9694874
8	0x3b917fe6	0.0044402955
9	0xbe3dfca1	-0.18553402
10	0xbe8daa6b	-0.2766908
11	0xbd52d3a0	-0.051471353
12	0x3f5982a0	0.8496494
13	0xbdb45ec4	-0.088071376
14	0x3eab6fa4	0.33483613
15	0x3f5a3b28	0.85246515
16	0xbdc8e794	-0.09809795
17	0x3d872d31	0.066004165
18	0x3f9fa6b8	1.2472754
19	0xbd4ac0a1	-0.04950011
20	0x3c56b16b	0.013103823
21	0x3e69ec18	0.22843969
22	0xbdec25a9	-0.115306206
23	0xbdcde4dc	-0.10053417
24	0x3f75237f	0.9575729
25	0xbd2ad25d	-0.041704524
26	0xbe9d1144	-0.30677235
27	0xbe56e079	-0.20984067
28	0x3e4eaaa0	0.20182276
29	0xbebb5211	-0.3658605
30	0xbdd70411	-0.104988225
31	0xbdd97266	-0.10617523
32	0xbe46b1c4	-0.1940375
33	0xbe6a53da	-0.2288355
34	0xbe04db71	-0.12974335
35	0xbd6eb26a	-0.058275618
36	0x3fafa9aa	1.3723652
37	0xbdb27436	-0.08713572
38	0xbeb00603	-0.34379587
39	0x3f95efed	1.1713845
40	0x3e3fd08f	0.18731903
41	0xbeffb9fc	-0.49946582
42	0xbd62195c	-0.055199966
43	0x3e8ec863	0.27887258
44	0xbe3880fe	-0.18017957
45	0xbe546c41	-0.2074442
46	0x3d3677ea	0.044547953
47	0x3f5370d4	0.8259404
48	0xbedad7b8	-0.42742705
49	0xbd8841a4	-0.06653145
50	0x3ed6597b	0.41865143
51	0xbd4e7a9e	-0.050409906
52	0x3d24100f	0.040054377
53	0xbe25b140	-0.16180897
54	0xbcc2ed5c	-0.023794822
55	0x3c75a2bd	0.014992413
56	0x3e83f158	0.25770068
57	0x3f87445f	1.056774
58	0xbdfe44f6	-0.12415497
59	0xbc01ce3f	-0.007922708
60	0xbd780a3a	-0.060556628
61	0x3ec58be6	0.38583297
62	0x3f2e1276	0.6799692
63	0x3e645709	0.22298826
64	0x3d8c8ae3	0.06862428
65	0x3f1bd22e	0.60867584
66	0xbe759c0c	-0.23985308
67	0xbe98da5d	-0.29854098
68	0xbed61003	-0.4180909
69	0xbd29806c	-0.04138224
70	0xbdbd01f9	-0.09228892
71	0x3f7b09af	0.9806165
72	0xbd189681	-0.037252907
73	0xbe889215	-0.26673952
74	0xbe96fe0f	-0.29490706
75	0xbe33aa07	-0.17545329
76	0x3f5af684	0.85532403
77	0xbe2f7897	-0.17135845
78	0x3ebfa82c	0.37432992
79	0x3f82dc7e	1.0223539
80	0xbd9eee93	-0.07760348
81	0x3d4d3724	0.050101414
82	0x3fa2bcda	1.2713883
83	0xbe095058	-0.13409555
84	0x3d917b3d	0.07103584
85	0x3de68e39	0.112575956
86	0xba9c2742	-0.0011913555
87	0xbe6d2b4f	-0.23161052
88	0x3f8a457e	1.0802457
89	0xbbf11643	-0.00735739
90	0xbeb8c424	-0.36087143
91	0xbedffd36	-0.43747872
92	0x3e30b65b	0.17257063
93	0xbea56800	-0.32305908
94	0xbe1493f3	-0.14509563
95	0x3d5e32ab	0.05424754
96	0xbdef5999	-0.11687011
97	0xbc68af4a	-0.014201948
98	0xba82bfb4	-0.0009975345
99	0x3d8b1dfb	0.06792828
100	0x3fbc5808	1.4714365
101	0xbdf16ff2	-0.1178893
102	0xbebb0ce4	-0.36533272
103	0x3f914285	1.1348425
104	0x3e2699e1	0.16269638
105	0xbeee002f	-0.46484515
106	0xbe275d5e	-0.1634421
107	0x3eaa30e2	0.3324042
108	0xbcb43604	-0.021998413
109	0xbe12f6cc	-0.14351958
110	0x3daf4760	0.085585356
111	0x3f6c6427	0.9234032
112	0xbe5f295a	-0.21793118
113	0xbe312e1d	-0.17302747
114	0x3ecdee0d	0.4022068
115	0xbd3bb33f	-0.04582524
116	0x3d13b178	0.03605792
117	0xbe31d054	-0.17364627
118	0xbe1a1f2d	-0.15050955
119	0x3d4f237c	0.05057095
120	0x3ecb22ce	0.3967499
121	0x3f99bcd2	1.2010748
122	0xbe3e4dcb	-0.18584363
123	0xbde8610e	-0.11346637
124	0xbe17b9fc	-0.14817041
125	0x3ed2dfc4	0.41186345
126	0x3f4e33ef	0.80547994
127	0x3e77bcd2	0.24193123
128	0x3e83fc4f	0.25778434
129	0xbdfdf75c	-0.12400696
130	0xc0994ac4	-4.7903767
131	0x3e03a7cf	0.12856983
132	0x3e477bbe	0.19480798
133	0x3dd07bcf	0.101798646
134	0xbda1fc01	-0.07909394
135	0xc0353174	-2.8311434
136	0xc023c373	-2.5588043
137	0x3eaa09d0	0.3321061
138	0x3ef66517	0.48124
139	0x3ee53e18	0.44773936
140	0xc0e49933	-7.143701
141	0x3e0aadc3	0.13542847
142	0xbec6e835	-0.38849035
143	0xbf54f6bc	-0.83188987
144	0x3ea9ef5c	0.3319043
145	0x3ed65472	0.41861302
146	0xc1014f4a	-8.081858
147	0x3ead9602	0.3390351
148	0x3e6a7b4b	0.22898595
149	0xc0b7fdef	-5.7497478
150	0x3ee6f3f0	0.45107985
151	0xbf39e685	-0.7261737
152	0xbf3308f8	-0.6993556
153	0xbe9b7659	-0.3036373
154	0x3e526c4b	0.20549123
155	0x3ea55bda	0.3229664
156	0xbeda5e63	-0.42650136
157	0x3e8729ec	0.2639917
158	0x3f1ac4c9	0.6045652
159	0x3ebb91b4	0.366346
160	0x3ee7609c	0.45190895
161	0x3e09981d	0.13436933
162	0x3e8fc49e	0.28079695
163	0xbe638aa4	-0.22220856
164	0xc02d654f	-2.7093084
165	0x3de27408	0.110572875
166	0x3ec21815	0.37908998
167	0xbf4b77e6	-0.79479825
168	0xbe709382	-0.2349377
169	0xbd7f9178	-0.06239459
170	0x3e0c4a2d	0.13700171
171	0xbe844205	-0.2583162
172	0x3ea7821e	0.3271646
173	0x3f054ab3	0.52067107
174	0xbf8091ba	-1.0044472
175	0xc0c62e97	-6.193187
176	0x3e9982b8	0.29982543
177	0x3ed05886	0.40692538
178	0x3db224aa	0.08698399
179	0x3ee9c4f4	0.45658076
180	0xbe06f49a	-0.13179246
181	0x3ebce964	0.36896813
182	0x3e7b3655	0.24532445
183	0x3e6b20fb	0.229618
184	0xc0c4b95f	-6.1476283
185	0xbfad260e	-1.3527238
186	0x3e65d650	0.22445035
187	0x3f07a16e	0.529807
188	0x3f29a4bb	0.66266984
189	0xc0b9f06f	-5.8106
190	0xc0859987	-4.174991
191	0xbeeb5e8e	-0.45970577
192	0xbe3cec10	-0.18449426
193	0x3def3f22	0.116819635
194	0x3ecd7bd0	0.40133524
195	0xbe8f00ec	-0.2793039
196	0xbe944a4f	-0.28962943
197	0x3d587dce	0.05285435
198	0xbbeccf12	-0.007226833
199	0x3f8b23e0	1.0870323
200	0xbe883e9b	-0.26610264
201	0xbe7dcf70	-0.24786162
202	0xbe8fcb07	-0.28084585
203	0xbd0bc669	-0.034124766
204	0x3f1087ff	0.56457514
205	0xbd4af458	-0.04954943
206	0x3e8421b3	0.2580696
207	0x3f4575a2	0.7713262
208	0x3d1cbb9e	0.038264863
209	0xbdc7f0f5	-0.09762756
210	0x3f67e651	0.9058581
211	0xbd8fbca5	-0.07018403
212	0xbce51b20	-0.027967036
213	0x3e8ced99	0.27525023
214	0xbe3cd8ea	-0.18442121
215	0xbd6fb6f7	-0.0585241
216	0x3f38d0ae	0.7219342
217	0x3e152900	0.14566422
218	0xbe7ee24b	-0.24891011
219	0xbe5c64ca	-0.21522823
220	0x3f0a07f1	0.5391837
221	0xbe8ee895	-0.2791182
222	0xbd9ad929	-0.07560951
223	0x3d295180	0.04133749
224	0xbd778c8d	-0.060436774
225	0xbd087b96	-0.033320986
226	0xbcad2841	-0.021137359
227	0x3c3183b6	0.010834625
228	0x3f981064	1.1880002
229	0xbe395d18	-0.18101919
230	0xbe9fa047	-0.3117697
231	0x3f56020a	0.8359686
232	0xbd46cdf0	-0.04853624
233	0xbebee4f8	-0.37284064
234	0xbdec6751	-0.115431435
235	0xba35f65a	-0.00069413113
236	0xbd98695f	-0.07441973
237	0xbd70ce87	-0.05879071
238	0xbe3d842c	-0.18507451
239	0x3e8207d5	0.253966
240	0xbe5ef350	-0.21772504
241	0xbdbaf6a5	-0.09129075
242	0xbd9a76ad	-0.07542167
243	0xbe5f2788	-0.21792424
244	0x3d1004c1	0.035160784
245	0x3d42d87b	0.047569733
246	0xbd080556	-0.033208214
247	0xbe0781a9	-0.13233055
248	0x3ee2caf9	0.4429548
249	0x3f959141	1.1684953
250	0x3cff9a27	0.031201435
251	0xbd172716	-0.03690251
252	0xbd5a35d2	-0.053273983
253	0x3e2ef510	0.17085671
254	0xbe38ba0e	-0.18039724
255	0x3dfd3fc8	0.12365681

2.bias f4 [64]
0	0xbe09abb4	-0.13444406
1	0xbe4a0956	-0.19730124
2	0x3eb8efc4	0.36120427
3	0xbdcd4fda	-0.10024996
4	0x3dfe9f09	0.12432677
5	0x3e73cd21	0.23808719
6	0x3c1c6b29	0.009547033
7	0x3e84a576	0.25907487
8	0x3f0e04a3	0.55475825
9	0x3ccc381e	0.024929103
10	0x3e88879e	0.26665968
11	0xbe25d54d	-0.16194649
12	0x3eb3bf64	0.35106957
13	0xbded56b1	-0.11588801
14	0x3ea571ec	0.32313478
15	0xbe27a570	-0.16371703
16	0x3e4ed3a6	0.20197925
17	0x3e2db90f	0.16965126
18	0x3e9af993	0.30268535
19	0x3dc76056	0.097351715
20	0xbdc83a5e	-0.09776758
21	0x3e732d7e	0.23747823
22	0xbe368b2e	-0.1782653
23	0x3e863c7d	0.26218024
24	0xbda15b49	-0.078787394
25	0x3ee2ca6c	0.4429506
26	0xbdff2aa4	-0.12459305
27	0x3e6d92c0	0.23200512
28	0x3d30425b	0.04303203
29	0x3e9ca205	0.3059236
30	0x3dfc2822	0.12312342
31	0xbe8e5b2f	-0.27803943
32	0x3c89b6db	0.016810825
33	0x3e770309	0.24122252
34	0x3e75d641	0.24007513
35	0x3c1f2578	0.009713523
36	0x3ec656a0	0.38737965
37	0xbe27eef7	-0.16399752
38	0xbe19b514	-0.15010482
39	0x3e8c0654	0.27348578
40	0x3e905f2b	0.28197607
41	0x3cc03c8a	0.023466367
42	0x3e160795	0.1465133
43	0xbe6e351e	-0.2326245
44	0x3e7971b1	0.24359776
45	0x3e84cb3d	0.25936309
46	0xbdeabff6	-0.11462395
47	0x3e5d3af9	0.21604528
48	0x3d3657ee	0.04451745
49	0xbe1fb204	-0.15595251
50	0x3ec14174	0.3774525
51	0x3ec5cf81	0.38634875
52	0x3e1adb2f	0.15122674
53	0x3ec6e994	0.3885008
54	0x3ebcc9d6	0.3687274
55	0xbe0b639e	-0.1361222
56	0x3e92a56f	0.2864184
57	0x3e458189	0.19287695
58	0x3eaeaf6d	0.34118214
59	0x3e30368a	0.17208305
60	0xbe5b0691	-0.21389224
61	0x3e5c7754	0.21529895
62	0xbe6d2550	-0.23158765
63	0x3e32c01b	0.17456095

4.weight f4 [2, 64]
0	0xbe88ae6f	-0.26695582
1	0xbe8686b2	-0.2627464
2	0xbf1d57a0	-0.6146183
3	0x3ca938ff	0.02065706
4	0x3ef05619	0.46940687
5	0xbed0f8b6	-0.4081475
6	0xbf2c5ecc	-0.6733215
7	0x3f0d4ea4	0.5519812
8	0x3f964908	1.1741037
9	0x40163d39	2.3474867
10	0x3f0611b2	0.5237075
11	0xbe413de9	-0.18871273
12	0x3fe1eba1	1.7650033
13	0xbe849d60	-0.25901318
14	0x3fefde74	1.8739762
15	0xbe24d13d	-0.16095443
16	0x3f91dc51	1.139536
17	0x40810d64	4.0328846
18	0x3fbe037a	1.4844811
19	0x3e576639	0.21035089
20	0xbff4442a	-1.9083302
21	0x3f13e5c2	0.5777246
22	0xbe62043b	-0.22071926
23	0x3fcb92e9	1.5904208
24	0x3f2e829c	0.68168044
25	0x3f8e7155	1.1128336
26	0xbf973ff3	-1.1816391
27	0x3fb528a7	1.4153031
28	0xbf5d4cd5	-0.8644536
29	0x3fca8769	1.5822574
30	0x3f39eda9	0.72628266
31	0x3fadab6f	1.3567942
32	0x3fa3647b	1.2765039
33	0x3fc11ab9	1.508628
34	0xbff40839	-1.9065009
35	0xc046f1b6	-3.1085029
36	0x3fd4c3a8	1.662221
37	0xbda3f304	-0.08005336
38	0x3f8676b6	1.0504978
39	0x3f119882	0.56873333
40	0xbf9eb9c7	-1.2400445
41	0xbe5dac4f	-0.21647762
42	0x3ede6dbc	0.43443096
43	0xbe5e8425	-0.21730097
44	0x3c0dc21f	0.008652239
45	0x3f93ee28	1.1557055
46	0xc0523257	-3.2843225
47	0x3faa5876	1.3308246
48	0xbe815fe2	-0.25268465
49	0xbe2e47f0	-0.1701963
50	0x3fa52853	1.2902931
51	0x3fe445a6	1.7833755
52	0xc032379e	-2.7846446
53	0x3fb44725	1.4084212
54	0xc017c744	-2.3715372
55	0x3e702e3b	0.23455136
56	0x3f060c88	0.5236287
57	0x3fbec6db	1.4904436
58	0xbca37668	-0.019953921
59	0x3ef846b8	0.48491454
60	0xbdc6cba1	-0.09706808
61	0x3f78db3a	0.97209513
62	0x3f13ebaa	0.5778147
63	0x3f01df2c	0.5073116
64	0xbe76528f	-0.24054931
65	0xbe68a10c	-0.22717685
66	0x3fc24cc8	1.5179682
67	0xbe475b53	-0.19468431
68	0x3fa214ad	1.266256
69	0x3fc1a683	1.512894
70	0xc02aa095	-2.6660511
71	0x3f90e7fd	1.1320797
72	0xbfaf8522	-1.3712504
73	0xbfc516f5	-1.5397631
74	0x3f8b3277	1.0874776
75	0xbead1d9e	-0.3381166
76	0x3fd7e8f6	1.6867969
77	0xbe6fd942	-0.23422721
78	0x3ee2a18b	0.44263873
79	0xbeae6183	-0.3405877
80	0x3f6d94fc	0.9280546
81	0xbf01910e	-0.5061196
82	0x3f3ee824	0.7457297
83	0x3f03c86c	0.51477695
84	0xbfc1b833	-1.5134338
85	0x3f8bdf41	1.0927507
86	0xbe7f06b5	-0.24904902
87	0x3f38b9fc	0.7215879
88	0xbf164198	-0.5869384
89	0xbf9e928c	-1.2388473
90	0xc00ef0fb	-2.2334583
91	0x3f23d2a5	0.63993293
92	0xbfd0ae8f	-1.6303271
93	0x3fe0c0f7	1.7558888
94	0x3f292840	0.6607704
95	0xbf9f51d7	-1.244685
96	0xbfc18ee2	-1.5121729
97	0x3f35987c	0.709358
98	0xc012c3d4	-2.2932024
99	0x401bc937	2.4341562
100	0x3fda395f	1.7048758
101	0xbe89d897	-0.26923057
102	0xbf627a7b	-0.8846814
103	0x3f82b500	1.0211487
104	0x3fcc1190	1.594286
105	0xc001bf2e	-2.0272937
106	0x3f8bed20	1.093174
107	0xbe64b450	-0.22334409
108	0x3fb26ab5	1.3938814
109	0xbf88a4af	-1.0675257
110	0x4042b061	3.0420153
111	0x3f41fc8b	0.75775975
112	0xbe482182	-0.19544032
113	0xbe917c19	-0.28414991
114	0xbf9b7464	-1.2144895
115	0x3fdc7e31	1.722601
116	0x3fe813c9	1.8131038
117	0x3f03db3f	0.5150642
118	0x3f1e2446	0.617741
119	0xc02211e4	-2.532342
120	0x3f8cc501	1.0997621
121	0x3f4745d1	0.77840906
122	0xbfe4e2c9	-1.7881709
123	0x3f8a7141	1.0815812
124	0xbeabf4fb	-0.33585343
125	0x3f63fd6b	0.8905856
126	0xbf02b0f4	-0.5105126
127	0x3f8e55ca	1.1119931

4.bias f4 [2]
0	0x3db70aec	0.0893763
1	0xbe1efb4c	-0.1552555
