LV6/cart_pole/saved_models/dqn_CartPole-v1_final_2025-12-18_08-51-58.pth (torch, 21933 bytes, 6 tensors)

0.weight f4 [64, 4]
000000 1c 91 2f 3e d2 30 48 c0 93 2f 7e c0 9c 7c 71 c0
       0.17145199 -3.1279798 -3.9716537 -3.7732306
000010 e4 74 ae bf 34 29 28 c0 6c e8 76 c1 98 74 ac c0
       -1.3629422 -2.6275148 -15.431744 -5.3892326
000020 31 15 d1 bf ca 91 fe bd 05 30 d6 c1 f8 4d f9 bf
       -1.6334592 -0.12430151 -26.773447 -1.9476919
000030 4c a1 90 3e ae 1a 1c 3f 2d 2f 34 40 38 2a a1 bd
       0.2824806 0.6097821 2.8153794 -0.07869381
000040 5d 0f 0d c0 db 18 38 3e 28 b5 21 42 02 8b 7c 40
       -2.2040627 0.17978232 40.42691 3.9459844
000050 81 f0 09 40 98 9a 83 3f 47 b4 43 41 58 1e 97 40
       2.1553042 1.0281553 12.231513 4.722454
000060 8e 18 a4 3f e1 6c 0a bf ff 2f 2b c2 17 02 00 c1
       1.2819993 -0.54072386 -42.79687 -8.00051
000070 07 1d e5 c0 a5 e2 01 c1 c0 88 ce c1 2a 7f c6 c0
       -7.1597934 -8.117833 -25.816772 -6.203023
000080 35 02 9f c0 73 97 14 40 64 49 9f c0 e5 05 c9 3f
       -4.9690194 2.3217437 -4.977709 1.5704924
000090 04 0c df 3f 49 8e cb bf 0d b5 98 c0 96 f2 b7 bf
       1.7425542 -1.5902797 -4.772101 -1.4370906
0000a0 01 16 17 c0 7c dd fc be 49 e7 70 40 3d 84 a5 bf
       -2.360718 -0.4938773 3.7641165 -1.2930981
0000b0 40 cd 00 40 57 66 ec be f7 d2 e4 c0 ea 98 1b 40
       2.0125275 -0.4617183 -7.1507525 2.4312081
0000c0 40 20 62 3f 91 fb bf bf 4c 9d b9 c0 c2 d5 e7 bf
       0.8833046 -1.4998647 -5.8004513 -1.8112109
0000d0 92 f6 39 be a8 36 92 bf 03 b3 fd c0 8f 05 65 3f
       -0.18160465 -1.142293 -7.928102 0.89461607
0000e0 69 a3 df 40 52 40 bb 40 f6 d4 d3 3f a3 ef 72 40
       6.9886975 5.8516016 1.6549366 3.7958763
0000f0 c5 a7 ba 3f ca 59 9c bf 2f d7 0f c0 f7 a6 02 40
       1.4582449 -1.2214901 -2.2475088 2.0414407
000100 a1 ac f3 3f 7a 0a 9f 40 e7 6e 79 41 f7 02 c0 40
       1.9037057 4.970029 15.589576 6.000362
000110 ac 90 8a c0 d9 78 02 c0 d3 60 ff c0 fb dc 02 c0
       -4.33016 -2.038626 -7.9805694 -2.0447376
000120 ab 6b c7 3f 27 e2 de bf 4d 4a 0f c0 79 f2 d1 3f
       1.5579733 -1.7412766 -2.23891 1.6402122
000130 df 7a 2f bf 33 50 59 c0 4d b3 f9 c1 7c bc 31 c0
       -0.6854686 -3.39552 -31.21255 -2.7771292
000140 5c 73 24 c0 f3 fb b2 c0 47 8a 49 c1 17 17 bf c0
       -2.569541 -5.5932555 -12.596259 -5.9715686
000150 c7 4b d0 3f d2 0c f6 bf f1 04 86 c0 28 95 20 3e
       1.6273125 -1.9222662 -4.188103 0.15681899
000160 65 24 15 bf 3c 26 45 c0 2e 7c 34 42 03 4f af 40
       -0.5825866 -3.0804586 45.12127 5.478395
000170 2e f3 c0 3f 80 4f 16 bf 5c 2c fe 3e ff 5d 61 3f
       1.5074213 -0.5871506 0.4964322 0.8803405
000180 82 65 c1 40 b2 d4 b3 40 f7 ce 4f 41 9a 6e 60 40
       6.043641 5.619714 12.988029 3.5067506
000190 a5 5e 3b 40 58 3d f1 bf 22 fb a4 c1 c1 ab 27 bf
       2.9276516 -1.8846846 -20.622623 -0.6549645
0001a0 38 43 2c bf 11 48 a4 c0 7f d1 77 c1 48 e3 d7 c0
       -0.6729007 -5.133797 -15.4886465 -6.7464943
0001b0 08 70 e5 3f f6 c7 d5 bf 17 4f 92 c1 0f 43 c1 c0
       1.7924814 -1.6701648 -18.288618 -6.039436
0001c0 a4 53 b8 c0 fb c3 12 c1 0e b8 da c0 05 54 ad c0
       -5.76021 -9.172847 -6.8349676 -5.4165063
0001d0 9e 0a 6e 3f ee b3 5a bf e6 da 4e c1 74 68 66 3f
       0.9298495 -0.854308 -12.928442 0.9000313
0001e0 de 15 30 40 b2 8a bf bf 30 16 eb be a3 7f 79 3f
       2.7513347 -1.4964201 -0.45915365 0.97460383
0001f0 42 b9 96 bf a7 2a 7b c0 5a b1 7e c1 a4 83 9b c0
       -1.1775286 -3.9244783 -15.918299 -4.8598194
000200 a7 84 7a 40 a7 8a b1 40 6f 67 c4 41 f4 97 a9 40
       3.9143465 5.5481753 24.550505 5.299799
000210 74 05 fe c0 db 86 a9 c0 61 0e 13 c1 04 19 5a c0
       -7.9381657 -5.297712 -9.19101 -3.4077768
000220 6f 44 02 c1 f3 2e 95 c0 1d c8 d7 40 59 bd 12 c0
       -8.141707 -4.661981 6.743178 -2.2928069
000230 35 02 f5 bf bf 0d ea bf 47 3b ea c1 c0 5e 0d c0
       -1.9141299 -1.8285445 -29.278944 -2.208908
000240 9b a5 5d 40 34 24 bf 3d 0d 0c cc c0 92 be b6 bf
       3.4632328 0.09333077 -6.376471 -1.4276907
000250 23 cb b5 bf 45 f4 7d bf fc 86 c6 41 f7 12 38 40
       -1.4202617 -0.9920085 24.81591 2.8761575
000260 6e 2d f6 bd 3b 4b 50 bf 67 f1 c1 41 9d 72 e2 40
       -0.12020384 -0.8136479 24.242872 7.076491
000270 b6 47 60 3f 94 f4 af bf c0 ed 6a 40 13 f9 3a 40
       0.8760942 -1.3746514 3.670761 2.9214523
000280 9d f4 80 bf 18 f2 f5 bf 5f 86 2f 42 44 ec 59 40
       -1.007465 -1.9214506 43.88122 3.4050455
000290 89 c8 ad 3f 0e 89 39 c0 2a 6e 52 40 dc 66 9b bf
       1.3576823 -2.8989902 3.2879739 -1.2140765
0002a0 7b eb ee 3f f1 46 52 bf cf 74 a7 3f 14 17 0e 40
       1.8665613 -0.821395 1.3082522 2.2201586
0002b0 cb 60 1e c0 aa d3 77 bf f5 4e af 41 c9 94 3f c0
       -2.4746578 -0.9680735 21.913553 -2.9934561
0002c0 c7 d5 c7 3f cb c1 4a c0 78 4c 12 c1 6b 76 57 c0
       1.5612115 -3.1680782 -9.143669 -3.3666027
0002d0 99 71 10 c0 46 91 44 3f 58 3f 6a c1 83 eb 64 3e
       -2.2569335 0.7678417 -14.640465 0.22355466
0002e0 b6 a9 21 40 e2 78 17 40 9a 00 a4 3e 45 52 09 40
       2.5259833 2.366753 0.3203171 2.1456463
0002f0 3c 39 9c bf 24 40 33 be ab 4b 12 c2 8d 4e 7a bf
       -1.2204967 -0.17504936 -36.573895 -0.9777611
000300 99 98 24 c0 38 1e 16 c0 c9 fe f9 40 c5 c3 a4 40
       -2.5718138 -2.3455944 7.8123517 5.1488976
000310 45 8c 69 c0 7d e4 01 c0 1b 0c 81 41 0a 58 fb bf
       -3.6491864 -2.0295708 16.13091 -1.9636242
000320 71 df bc 3f 98 77 06 3f 4e 61 99 bf d1 bf 44 3e
       1.4755689 0.52526236 -1.198282 0.19213797
000330 79 8f 1a 3f 4c e2 18 c0 56 80 01 3b df 52 fc 3e
       0.6037517 -2.388812 0.0019760332 0.49281976
000340 3e ee 17 40 65 e2 b2 40 e1 d0 0c c1 05 a9 2a 40
       2.3739161 5.590136 -8.800996 2.6665661
000350 a5 55 fd 3e aa 53 28 c0 65 b0 80 3f 16 c0 2d 3f
       0.49479404 -2.6301064 1.0053831 0.67871225
000360 90 2a fa 3d 6b ab 3a c0 68 b7 3f 40 34 a7 b6 bf
       0.122151494 -2.9167125 2.9955692 -1.4269776
000370 bd 54 80 c0 ba 20 05 3f 44 46 87 41 7b d4 b9 40
       -4.010344 0.5200306 16.90931 5.8071876
000380 5e 79 f0 3e c2 f3 b1 bf 66 07 41 c2 2f 39 fb c0
       0.46967596 -1.3902514 -48.257225 -7.8507304
000390 f0 45 bd 3f 64 26 db c0 26 89 68 c1 d6 2a b1 c0
       1.4786968 -6.8484364 -14.5334835 -5.536479
0003a0 c5 9a 40 3f 41 ed a6 40 ef a7 ab c0 b9 c5 b3 3f
       0.7523616 5.2164617 -5.3642497 1.4044715
0003b0 7d 71 46 3f 6f 59 97 bf 16 33 14 40 04 8f ad bf
       0.7751692 -1.1824168 2.315618 -1.355927
0003c0 52 c4 56 3e fd c3 41 bf 18 ee 7a c1 52 19 58 be
       0.20973328 -0.7568968 -15.683128 -0.21103409
0003d0 20 0c 14 40 8d a3 8d be 4f 60 24 c2 c3 b8 e8 c0
       2.31324 -0.27663842 -41.09405 -7.272554
0003e0 03 b2 fe 3f 34 c6 c1 3f 86 67 3b 41 cf 5b e1 3f
       1.9898075 1.5138612 11.712774 1.7606143
0003f0 b7 50 c1 bf a2 35 e6 be ff 95 a6 41 a0 99 af be
       -1.5102757 -0.44962794 20.82324 -0.34296894

0.bias f4 [64]
000000 87 3e 6a c1 22 a8 61 40 d2 21 9f c1 03 3c 78 c1
       -14.640265 3.525887 -19.891514 -15.514651
000010 2a 42 04 c1 ab 9a 70 c1 f2 2d ba c1 32 39 2c c1
       -8.266153 -15.037761 -23.272434 -10.763964
000020 c6 83 9b c0 c2 51 b9 c0 a0 a8 6b c1 81 ae 51 c1
       -4.8598356 -5.79123 -14.728668 -13.1051035
000030 ba d3 97 c0 96 ff 40 c1 f4 b3 f8 c0 cc 87 86 c1
       -4.7445955 -12.062399 -7.771967 -16.816307
000040 90 e1 ac c0 ad df 94 c0 6e 8d 98 c1 17 05 a3 c1
       -5.4025345 -4.652304 -19.069057 -20.377485
000050 c9 7f 2c c1 1e 84 44 c1 fa 3b 16 c1 70 48 82 c1
       -10.781198 -12.282255 -9.389643 -16.28537
000060 63 ad be c0 3c d3 95 c1 21 c5 c7 40 31 bb 4f c1
       -5.9586654 -18.728142 6.2428136 -12.983201
000070 aa 32 49 be ac ac 3d c1 54 35 2a c1 f5 ac ce c1
       -0.19648233 -11.854656 -10.63802 -25.834452
000080 92 2d ba c0 06 0c de 40 78 c5 31 c1 d3 d9 b4 c1
       -5.818063 6.9389677 -11.11071 -22.60636
000090 fa 54 a6 3e a9 0d a6 c1 b8 f1 74 c1 83 09 70 bf
       0.32486707 -20.75667 -15.309013 -0.93764514
0000a0 fa dc 2e c1 86 a5 9f c1 9e ef 87 c1 cb 98 a4 c1
       -10.928949 -19.955822 -16.992 -20.574606
0000b0 50 92 97 c1 6c a1 86 c1 a1 02 5b 3f 4d e0 98 c1
       -18.946442 -16.82882 0.85550886 -19.109522
0000c0 b6 01 1e c1 79 43 b3 c0 e4 56 ad 40 61 c9 89 c1
       -9.875418 -5.6019864 5.416857 -17.22333
0000d0 1d c6 88 c0 58 62 62 c1 32 c4 a4 c1 e2 d9 d4 3f
       -4.2741838 -14.14901 -20.595798 1.6628993
0000e0 4e 20 23 c1 82 40 14 41 29 34 80 41 bd f6 77 c1
       -10.195387 9.265749 16.025469 -15.497739
0000f0 09 92 25 c1 5e dd 47 c0 ab 9a 81 c1 a6 1b a2 c1
       -10.348153 -3.1228862 -16.200521 -20.2635

2.weight f4 [64, 64]
000000 5e 37 0d c1 8e b9 8b 3d 16 f2 d0 c1 70 7f 25 c1
       -8.826017 0.06822501 -26.118206 -10.343613
000010 e8 65 cd 40 83 89 cc c1 57 f2 72 c1 91 fb 3d c1
       6.4186897 -25.567144 -15.184165 -11.873918
000020 f5 55 bf bf 29 d0 cc 3f b3 f9 8e 3f 76 aa ab c0
       -1.4948107 1.6001025 1.1169952 -5.364558
000030 fb 8e 07 c0 db 62 00 c1 46 cd cb c1 d4 d5 3e 40
       -2.1181018 -8.024135 -25.475231 2.981801
000040 9d 8f 4c c0 72 fa 77 40 7a cb 21 c0 3b 75 69 c2
       -3.1962655 3.874661 -2.5280442 -58.364483
000050 25 00 2e c0 33 22 9d c0 e7 a8 8e 40 8c d9 2f c1
       -2.7187588 -4.9104247 4.458118 -10.990612
000060 10 5f e3 c0 b8 ed ca c0 9a 94 74 be 00 69 27 c0
       -7.1053543 -6.3415184 -0.23884812 -2.6157837
000070 85 e0 00 41 8c 6b 87 c0 8c 0b 90 c0 36 07 94 c1
       8.054814 -4.2318783 -4.5014095 -18.503521
000080 c6 03 6c c0 1b 86 12 bf a0 0d db c0 eb 43 30 c2
       -3.6877303 -0.5723588 -6.845413 -44.066326
000090 e5 e8 16 c1 04 24 65 c0 3c 4b c9 c0 70 e1 37 c1
       -9.431859 -3.5803232 -6.290434 -11.492538
0000a0 ab b9 9e c1 fb b6 7e c1 e7 d9 13 c1 c4 bb 32 c2
       -19.840658 -15.919673 -9.240699 -44.683365
0000b0 ce 9b f4 c0 c7 ac 15 c1 92 c6 c8 c0 c2 8e 96 c1
       -7.644019 -9.354682 -6.2742395 -18.819706
0000c0 f9 65 f1 c0 d1 fc 54 c0 64 ff 9c 41 cf f8 89 c0
       -7.543698 -3.3279307 19.624702 -4.311622
0000d0 6b b8 f0 c0 e2 42 05 c1 0a 38 0e c1 d9 83 fb c0
       -7.522512 -8.328829 -8.888681 -7.8598447
0000e0 ad 66 c0 c1 ac ac 2e c1 16 80 be 40 be 5a df c0
       -24.050135 -10.917156 5.9531355 -6.979827
0000f0 05 42 a8 bf 3f c4 d3 c0 3c 36 de 3f 4d 29 89 c1
       -1.3145148 -6.617706 1.7360301 -17.145166
000100 4a 4b a1 40 8a 12 09 40 67 ff 0c 41 b6 1b 45 c0
       5.0404406 2.1417565 8.812354 -3.0798163
000110 bf 69 cb c0 20 1e 27 c0 73 81 c9 3e fb d0 89 c0
       -6.3566585 -2.6112137 0.39356574 -4.3067603
000120 7b f5 51 bf 39 91 0b c1 91 5e bb c1 00 1e 2a 41
       -0.820152 -8.722955 -23.421175 10.632324
000130 cf f4 cb c0 e2 37 59 bf ff 56 1f 41 79 06 94 40
       -6.373634 -0.84850895 9.958739 4.62579
000140 3b 9d 0c 41 0c 66 b7 c0 b7 02 14 41 83 c1 f8 41
       8.788386 -5.731207 9.250663 31.094488
000150 4e 95 16 c0 9b 02 22 41 e2 9f 35 c1 69 b9 ef 3d
       -2.3528628 10.125636 -11.351534 0.11705286
000160 9b e0 de 40 2e dc 3c 41 99 5d ce 40 9c 5c 06 41
       6.9649177 11.803755 6.4489255 8.39761
000170 2a 0c e1 40 52 e1 e0 40 bd 19 4a c0 30 69 64 41
       7.032735 7.027505 -3.157821 14.275681
000180 cb 90 88 c1 41 c2 91 40 76 89 10 41 b6 4a 3a 41
       -17.0707 4.5549626 9.03356 11.64324
000190 2d 75 78 41 8d ce 69 c1 5f 11 fe 40 67 11 ac 3f
       15.528607 -14.612927 7.9396205 1.3442811
0001a0 83 20 10 41 d3 27 92 be 76 e6 a7 40 f1 48 ac 40
       9.007937 -0.28546008 5.2468824 5.383904
0001b0 b1 a7 ac c0 42 c4 8f c0 97 b0 97 bf 1b be 7e 41
       -5.39547 -4.4927073 -1.1850766 15.921412
0001c0 a4 92 86 41 b6 8c 64 40 3c c9 ac 40 10 3b 2c 40
       16.821602 3.5710883 5.3995647 2.691105
0001d0 aa 61 0a c1 50 06 ae 40 ab f0 8e 40 3e 55 b4 c0
       -8.648844 5.4382706 4.4668784 -5.6354055
0001e0 ec 0b 88 41 7e 03 62 40 24 9d 12 c1 3c 8c e7 40
       17.005821 3.5314631 -9.163364 7.2358685
0001f0 96 0e 11 40 0f ba 0e 41 c8 48 58 c0 5c a7 1e c1
       2.2665153 8.920424 -3.3794422 -9.915859
000200 dc d6 2c c0 16 aa 89 c0 c9 e5 5b 40 1d 78 e8 c0
       -2.700614 -4.3020124 3.4359 -7.2646623
000210 be 3b 8c c1 74 c8 37 41 d1 8a 48 bf 07 72 de c0
       -17.529171 11.486439 -0.7833682 -6.9514194
000220 29 e2 ab bf db 89 58 c0 6e 14 d2 c1 a5 df 2c c0
       -1.3428394 -3.383414 -26.259975 -2.7011502
000230 5b 51 a5 40 bb d4 32 c1 7c cd bf c0 24 22 b1 c0
       5.166181 -11.176936 -5.9938335 -5.5354176
000240 4a 02 da 3f 1b da 8d 40 ff 4d c1 c0 ab db 71 41
       1.7031949 4.432874 -6.040771 15.11613
000250 9d c8 7d 40 2f b1 d0 c0 63 3a c3 c1 41 ef 16 c1
       3.9653695 -6.521629 -24.40351 -9.433412
000260 e1 7a bb 3f c2 42 a1 40 66 e4 b0 40 59 32 5a 41
       1.4646875 5.039399 5.5278807 13.637292
000270 c1 87 4b 40 8b 3f b0 c0 64 1e 11 c1 fb 2b e6 c0
       3.1801608 -5.5077567 -9.06992 -7.1928687
000280 8e c1 b7 c1 2b 89 03 40 e5 5f da c1 a0 93 f5 bf
       -22.96951 2.055247 -27.296824 -1.9185677
000290 14 e5 02 41 ce 6a 9f c1 b1 a5 96 c1 7a 67 2a 41
       8.180927 -19.92715 -18.830904 10.650263
0002a0 bd 98 13 c1 e6 e3 04 c1 e3 71 c1 c0 f8 34 d1 be
       -9.22479 -8.305639 -6.045152 -0.40860724
0002b0 00 39 36 c1 5d 62 03 c1 d7 43 1f 40 20 3d f4 bf
       -11.388916 -8.211514 2.4885156 -1.9081154
0002c0 b8 9a f0 40 fa 3c 25 41 17 69 0f 41 57 ee 70 c0
       7.5188866 10.327387 8.963157 -3.764547
0002d0 0b 65 c6 c0 9b a4 86 c0 f6 98 11 c0 ad 6e 9c 40
       -6.1998343 -4.2075934 -2.274961 4.88851
0002e0 71 62 2e c1 a1 6d 0c 41 bb 19 70 40 b6 3a 9a bf
       -10.899034 8.776765 3.7515705 -1.2049167
0002f0 97 8c 99 c0 dd 1b 1f c1 09 77 d6 c0 a7 09 8d c1
       -4.798412 -9.944303 -6.7020307 -17.629713
000300 d0 fb fa bf 23 07 a7 c0 c3 12 4c c1 79 cb af c0
       -1.9608097 -5.219621 -12.7545805 -5.493588
000310 1f 60 79 40 30 8b 31 c1 5a 4e 92 c0 1c 49 82 c1
       3.8964918 -11.096481 -4.5720644 -16.285698
000320 53 8a bb c0 86 9c 11 c1 bf 4e 3e 40 c6 f5 02 c0
       -5.8606353 -9.100714 2.9735563 -2.0462508
000330 a6 21 68 bf 2f c9 cb c0 e3 a3 af 3f 86 16 a0 bf
       -0.90676343 -6.3683085 1.3721889 -1.2506874
000340 64 56 8c 40 f8 46 37 c1 bc a9 f2 c0 a6 c5 f0 c1
       4.3855457 -11.454826 -7.5832195 -30.096508
000350 02 e4 7e 3f 3c a0 6e c0 25 16 63 bf 36 5e db 3f
       0.9956666 -3.72853 -0.88705665 1.7138126
000360 2a a8 12 c0 2a f8 20 41 90 92 7e bf 5c 2b 5e 41
       -2.291514 10.060587 -0.99442387 13.885586
000370 e4 cb 9b 40 29 43 cc 40 39 3d cb c0 b6 54 e0 c0
       4.868639 6.3831983 -6.3512235 -7.0103407
000380 25 ed a8 c1 d6 57 49 c0 0b 4f bb 3f dc d8 b0 c1
       -21.115793 -3.145986 1.4633497 -22.105888
000390 e8 e9 8e c1 9f 81 2e c1 a8 e6 6d c1 55 e0 cb c0
       -17.864212 -10.906646 -14.868813 -6.3711343
0003a0 f3 2f db c1 48 a3 14 c0 d6 9f ed bf 18 69 e6 c1
       -27.398413 -2.322466 -1.8564403 -28.801315
0003b0 b8 5f c6 c0 b9 78 58 c1 ea de 25 c0 02 16 1b c1
       -6.1991844 -13.529473 -2.5917306 -9.692873
0003c0 5b fd 86 40 7b 99 16 c0 d3 bb 77 3f ba db e5 c0
       4.218427 -2.3531177 0.9677097 -7.183072
0003d0 b6 99 16 c0 e0 44 9b be 48 f2 d2 bd 5b 13 bb 40
       -2.3531318 -0.30325985 -0.10300118 5.8461127
0003e0 2c c9 20 c1 fa f6 b0 bf a4 67 6e 40 90 57 2d bf
       -10.049114 -1.3825371 3.7250757 -0.67711735
0003f0 aa f8 5d 40 25 80 fa 3f 5f a8 40 c0 50 92 c2 c1
       3.4683022 1.9570357 -3.0102766 -24.321442

2.bias f4 [64]
000000 1c f7 45 41 c9 d6 8a c1 1c 9a 72 c0 03 6b ee 40
       12.372829 -17.354876 -3.790656 7.450563
000010 93 77 12 41 ee 9e 19 c2 63 5c dd c1 ef e0 13 bf
       9.154193 -38.405205 -27.67011 -0.57765096
000020 36 68 44 41 7a 81 b2 c1 12 ea d4 40 49 89 17 c2
       12.275442 -22.313221 6.653573 -37.884068
000030 2a a2 3a c1 50 01 79 c1 ec 9d e6 40 d4 30 af 41
       -11.664591 -15.56282 7.2067776 21.898842
000040 4b fd 04 c2 18 19 0e c2 00 75 12 c2 72 c9 10 c2
       -33.247356 -35.524506 -36.614258 -36.196724
000050 df 4f 8e 41 b4 4d c1 c1 ea 13 05 c2 df 42 0c c2
       17.789 -24.162941 -33.269447 -35.065304
000060 66 1b 55 41 8f 08 0e c2 64 57 51 40 bb 41 d3 c1
       13.319189 -35.508358 3.270959 -26.407095
000070 b7 5b c4 c1 95 04 d8 c1 7e 79 87 c1 b3 dc eb c1
       -24.544783 -27.002237 -16.934322 -29.482763
000080 6d 42 bd c1 19 ef 07 c2 4a cb 86 c1 20 9a 17 41
       -23.657434 -33.983494 -16.849262 9.475128
000090 93 9e 80 41 71 91 97 41 ab 5a e2 40 9e 34 6d c0
       16.077429 18.946016 7.073568 -3.7063365
0000a0 f8 5e 2f 41 2c e2 18 c2 9d ad 08 c2 73 ca d4 40
       10.960686 -38.22087 -34.169544 6.649713
0000b0 76 08 55 41 dc 38 53 41 9a 3a 48 41 58 65 11 c1
       13.314566 13.201382 12.514307 -9.087242
0000c0 df 0d ed c1 cf f8 09 c2 64 93 ea c1 e9 0a 02 c2
       -29.631773 -34.492977 -29.321968 -32.510654
0000d0 bb e5 fd 40 66 05 0b c2 73 48 9f 41 09 74 93 c1
       7.9342933 -34.755272 19.910376 -18.431658
0000e0 38 2d d6 c1 ba 9c c9 40 ed 10 7c 41 07 3e f2 c1
       -26.77208 6.3003817 15.754132 -30.280287
0000f0 49 28 10 c2 07 f4 40 41 d0 7a 4a 40 18 6f 8a 40
       -36.03934 12.059577 3.1637459 4.3260612

4.weight f4 [2, 64]
000000 f4 7f a0 40 29 a2 0d 40 72 8a 0a 41 fd 47 e9 40
       5.0156193 2.2130225 8.6588 7.2900376
000010 51 97 fc bf e0 a7 13 c0 d0 cf 72 c0 62 d9 f8 40
       -1.9733678 -2.3071213 -3.7939339 7.776536
000020 38 28 13 41 e2 f8 47 c1 65 d3 31 41 62 e2 9d c0
       9.197319 -12.498262 11.11411 -4.9338846
000030 13 c4 37 c0 3f 00 83 40 4f 2c 7b 40 51 c2 36 41
       -2.8713424 4.09378 3.9245794 11.422441
000040 ec 13 77 c0 63 65 22 c0 a5 d7 f8 bf 3f ec 0a c0
       -3.860591 -2.5374382 -1.944081 -2.1706693
000050 65 2b 3a 41 dc a8 3a c0 5b 24 8c c0 bb ee 39 c0
       11.635594 -2.9165564 -4.379438 -2.905196
000060 2d 77 e6 3f d9 7a 3c c0 59 be 13 c1 86 d2 a7 bf
       1.800512 -2.944998 -9.233972 -1.3111122
000070 0b 27 b7 c1 e2 1b 92 bf fd d7 ca c0 26 df ab c0
       -22.894064 -1.1414759 -6.3388658 -5.37099
000080 e3 51 75 c0 d3 24 84 c0 72 b6 c3 3f fc 4c c1 40
       -3.833123 -4.129495 1.5290053 6.0406475
000090 7b 80 fd 40 37 af 1a 41 ac a0 7f 40 d4 d5 8a c0
       7.9219337 9.667777 3.9941816 -4.338602
0000a0 3b 19 f9 40 d6 96 00 c0 e9 33 33 c0 72 36 3b 41
       7.78433 -2.0092063 -2.8000433 11.700792
0000b0 99 d8 a3 41 2f fd 55 41 db 2e de 40 38 20 75 c0
       20.48076 13.374312 6.9432197 -3.8300915
0000c0 3c e4 0d c0 b4 34 c6 bf d5 8d 97 bf fa 93 87 c0
       -2.2170553 -1.5484834 -1.1840159 -4.2368135
0000d0 70 31 d1 40 3c cb 37 c0 66 a5 05 41 5a 1d 0c bf
       6.537285 -2.8717794 8.3528805 -0.54732287
0000e0 97 73 c4 bf b4 67 f2 40 24 13 06 41 e8 94 33 c0
       -1.5347775 7.575159 8.379673 -2.8059635
0000f0 f9 3e 5a c0 37 15 fd 40 cc 09 43 c1 1f 86 fc c0
       -3.4100935 7.9088397 -12.189892 -7.891372
000100 12 c6 db 40 a8 ba 3f bf 60 55 10 41 00 03 a8 40
       6.8679285 -0.7489419 9.0208435 5.250366
000110 ef 77 60 41 b2 73 a6 c0 a8 ab b9 c0 24 99 9f 40
       14.029281 -5.201623 -5.802204 4.987444
000120 d4 86 4d 41 cc 6e 05 c1 b8 37 47 41 89 06 02 c1
       12.845417 -8.33955 12.451103 -8.1265955
000130 3e d8 06 c1 a4 b9 9e 40 57 2b b2 40 17 ca 43 41
       -8.4277935 4.960161 5.5677905 12.236838
000140 cb 78 62 c0 da eb 8a c0 42 15 e1 c0 63 3e c0 c0
       -3.5386226 -4.3412905 -7.033845 -6.0076156
000150 cf 87 55 41 f0 58 5a c0 4e 48 49 c0 f4 de d3 c0
       13.345656 -3.4116783 -3.1450381 -6.620966
000160 72 97 59 41 b5 37 e5 c0 8e ff 27 c1 35 d2 85 c0
       13.599474 -7.16305 -10.499891 -4.18191
000170 2a 64 ac 3f b0 ef 3c c0 ef 8f 12 c0 9f 81 07 c1
       1.3468068 -2.9521294 -2.290035 -8.469146
000180 87 02 b7 3e ce ff a0 c0 4c 9e 31 40 f9 fc ef be
       0.35744116 -5.031226 2.7752867 -0.4687269
000190 66 92 20 41 50 c8 34 41 81 4d 8c 3e 5e 8d 0f c0
       10.035742 11.298904 0.2740288 -2.2430034
0001a0 a7 5d 0d 40 3a 8d b3 c0 93 7f dd c0 b5 aa 02 41
       2.208841 -5.6109896 -6.921823 8.1666765
0001b0 51 80 ff 3f 13 18 4d 41 72 9b 02 41 ad 47 34 be
       1.9961034 12.8183775 8.1629505 -0.17605467
0001c0 f3 83 de c0 fc 79 8c c0 57 60 0e bd ec 77 58 c0
       -6.953607 -4.3898907 -0.034759846 -3.3823195
0001d0 b7 79 68 40 1b 69 c4 c0 f7 38 41 41 74 97 ca 3f
       3.632429 -6.1378303 12.076407 1.582747
0001e0 f0 c2 53 c0 90 a2 c0 40 35 9e e7 40 bd 47 ac c0
       -3.308773 6.019844 7.2380624 -5.383757
0001f0 15 bf 88 c0 dc ab 1a 41 46 08 23 c1 34 5a 64 c0
       -4.2733254 9.666958 -10.18952 -3.5680056

4.bias f4 [2]
000000 60 cd c0 41 d0 77 d5 41
       24.10028 26.683502
